…
  type: "Data"
  top: "data"
  include {
    phase: TRAIN
  }
  transform_param {
    mirror: true
    crop_size: 227
    mean_file: "/home/sqxiang/workspace/continuous/lmdb/mean_image.binaryproto"
  }
  data_param {
    source: "/home/sqxiang/workspace/continuous/lmdb/train_data_lmdb"
    batch_size: 256
    backend: LMDB
  }
}
layer {
  name: "label"
  type: "Data"
  top: "label"
  include {
    phase: TRAIN
  }
  data_param {
    source: "/home/sqxiang/workspace/continuous/lmdb/train_arousal_score_lmdb"
    batch_size: 256
    backend: LMDB
  }
}
layer {
  name: "conv1"
  type: "Convolution"
  bottom: "data"
  top: "conv1"
  param {
    lr_mult: 1
    decay_mult: 1
  }
  param {
    lr_mult: 2
    decay_mult: 0
  }
  convolution_param {
    num_output: 96
    kernel_size: 11
    stride: 4
    weight_filler {
      type: "gaussian"
      std: 0.01
    }
    bias_filler {
      type: "constant"
      value: 0
    }
  }
}
layer {
  name: "relu1"
  type: "ReLU"
  bottom: "conv1"
  top: "conv1"
}
layer {
  name: "pool1"
  type: "Pooling"
  bottom: "conv1"
  top: "pool1"
  pooling_param {
    pool: MAX
    kernel_size: 3
    stride: 2
  }
}
layer {
  name: "norm1"
  type: "LRN"
  bottom: "pool1"
  top: "norm1"
  lrn_param {
    local_size: 5
    alpha: 0.0001
    beta: 0.75
  }
}
layer {
  name: "conv2"
  type: "Convolution"
  bottom: "norm1"
  top: "conv2"
  param {
    lr_mult: 1
    decay_mult: 1
  }
  param {
    lr_mult: 2
    decay_mult: 0
  }
  convolution_param {
    num_output: 256
    pad: 2
    kernel_size: 5
    group: 2
    weight_filler {
      type: "gaussian"
      std: 0.01
    }
    bias_filler {
      type: "constant"
      value: 1
    }
  }
}
layer {
  name: "relu2"
  type: "ReLU"
  bottom: "conv2"
  top: "conv2"
}
layer {
  name: "pool2"
  type: "Pooling"
  bottom: "conv2"
  top: "pool2"
  pooling_param {
    pool: MAX
    kernel_size: 3
    stride: 2
  }
}
layer {
  name: "norm2"
  type: "LRN"
  bottom: "pool2"
  top: "norm2"
  lrn_param {
    local_size: 5
    alpha: 0.0001
    beta: 0.75
  }
}
layer {
  name: "conv3"
  type: "Convolution"
  bottom: "norm2"
  top: "conv3"
  param {
    lr_mult: 1
    decay_mult: 1
  }
  param {
    lr_mult: 2
    decay_mult: 0
  }
  convolution_param {
    num_output: 384
    pad: 1
    kernel_size: 3
    weight_filler {
      type: "gaussian"
      std: 0.01
    }
    bias_filler {
      type: "constant"
      value: 0
    }
  }
}
layer {
  name: "relu3"
  type: "ReLU"
  bottom: "conv3"
  top: "conv3"
}
layer {
  name: "conv4"
  type: "Convolution"
  bottom: "conv3"
  top: "conv4"
  param {
    lr_mult: 1
    decay_mult: 1
  }
  param {
    lr_mult: 2
    decay_mult: 0
  }
  convolution_param {
    num_output: 384
    pad: 1
    kernel_size: 3
    group: 2
    weight_filler {
      type: "gaussian"
      std: 0.01
    }
    bias_filler {
      type: "constant"
      value: 1
    }
  }
}
layer {
  name: "relu4"
  type: "ReLU"
  bottom: "conv4"
  top: "conv4"
}
layer {
  name: "conv5"
  type: "Convolution"
  bottom: "conv4"
  top: "conv5"
  param {
    lr_mult: 1
    decay_mult: 1
  }
  param {
    lr_mult: 2
    decay_mult: 0
  }
  convolution_param {
    num_output: 256
    pad: 1
    kernel_size: 3
    group: 2
    weight_filler {
      type: "gaussian"
      std: 0.01
    }
    bias_filler {
      type: "constant"
      value: 1
    }
  }
}
layer {
  name: "relu5"
  type: "ReLU"
  bottom: "conv5"
  top: "conv5"
}
layer {
  name: "pool5"
  type: "Pooling"
  bottom: "conv5"
  top: "pool5"
  pooling_param {
    pool: MAX
    kernel_size: 3
    stride: 2
  }
}
layer {
  name: "fc6"
  type: "InnerProduct"
  bottom: "pool5"
  top: "fc6"
  param {
    lr_mult: 1
    decay_mult: 1
  }
  param {
    lr_mult: 2
    decay_mult: 0
  }
  inner_product_param {
    num_output: 4096
    weight_filler {
      type: "gaussian"
      std: 0.005
    }
    bias_filler {
      type: "constant"
      value: 1
    }
  }
}
layer {
  name: "relu6"
  type: "ReLU"
  bottom: "fc6"
  top: "fc6"
}
layer {
  name: "drop6"
  type: "Dropout"
  bottom: "fc6"
  top: "fc6"
  dropout_param {
    dropout_ratio: 0.5
  }
}
layer {
  name: "fc7"
  type: "InnerProduct"
  bottom: "fc6"
  top: "fc7"
  param {
    lr_mult: 1
    decay_mult: 1
  }
  param {
    lr_mult: 2
    decay_mult: 0
  }
  inner_product_param {
    num_output: 4096
    weight_filler {
      type: "gaussian"
      std: 0.005
    }
    bias_filler {
      type: "constant"
      value: 1
    }
  }
}
layer {
  name: "relu7"
  type: "ReLU"
  bottom: "fc7"
  top: "fc7"
}
layer {
  name: "drop7"
  type: "Dropout"
  bottom: "fc7"
  top: "fc7"
  dropout_param {
    dropout_ratio: 0.5
  }
}
layer {
  name: "fc8_finetuning"
  type: "InnerProduct"
  bottom: "fc7"
  top: "fc8_finetuning"
  param {
    lr_mult: 10
    decay_mult: 1
  }
  param {
    lr_mult: 20
    decay_mult: 0
  }
  inner_product_param {
    num_output: 1
    weight_filler {
      type: "gaussian"
      std: 0.01
    }
    bias_filler {
      type: "constant"
      value: 0
    }
  }
}
layer {
  name: "sigmoid9"
  type: "Sigmoid"
  bottom: "fc8_finetuning"
  top: "predict"
}
layer {
  name: "loss"
  type: "EuclideanLoss"
  bottom: "predict"
  bottom: "label"
  top: "loss"
  include {
    phase: TRAIN
  }
}
I1122 20:15:53.146262 19485 layer_factory.hpp:77] Creating layer data
I1122 20:15:53.146821 19485 net.cpp:100] Creating Layer data
I1122 20:15:53.146832 19485 net.cpp:408] data -> data
I1122 20:15:53.146867 19485 data_transformer.cpp:25] Loading mean file from: /home/sqxiang/workspace/continuous/lmdb/mean_image.binaryproto
I1122 20:15:53.147608 19498 db_lmdb.cpp:35] Opened lmdb /home/sqxiang/workspace/continuous/lmdb/train_data_lmdb
I1122 20:15:53.156498 19485 data_layer.cpp:41] output data size: 256,3,227,227
I1122 20:15:53.328704 19485 net.cpp:150] Setting up data
I1122 20:15:53.328737 19485 net.cpp:157] Top shape: 256 3 227 227 (39574272)
I1122 20:15:53.328739 19485 net.cpp:165] Memory required for data: 158297088
I1122 20:15:53.328752 19485 layer_factory.hpp:77] Creating layer label
I1122 20:15:53.328930 19485 net.cpp:100] Creating Layer label
I1122 20:15:53.328953 19485 net.cpp:408] label -> label
I1122 20:15:53.343778 19500 db_lmdb.cpp:35] Opened lmdb /home/sqxiang/workspace/continuous/lmdb/train_arousal_score_lmdb
I1122 20:15:53.343940 19485 data_layer.cpp:41] output data size: 256,1,1,1
I1122 20:15:53.344159 19485 net.cpp:150] Setting up label
I1122 20:15:53.344183 19485 net.cpp:157] Top shape: 256 1 1 1 (256)
I1122 20:15:53.344187 19485 net.cpp:165] Memory required for data: 158298112
I1122 20:15:53.344192 19485 layer_factory.hpp:77] Creating layer conv1
I1122 20:15:53.344226 19485 net.cpp:100] Creating Layer conv1
I1122 20:15:53.344250 19485 net.cpp:434] conv1 <- data
I1122 20:15:53.344264 19485 net.cpp:408] conv1 -> conv1
I1122 20:15:53.612879 19485 net.cpp:150] Setting up conv1
I1122 20:15:53.612920 19485 net.cpp:157] Top shape: 256 96 55 55 (74342400)
I1122 20:15:53.612923 19485 net.cpp:165] Memory required for data: 455667712
I1122 20:15:53.612943 19485 layer_factory.hpp:77] Creating layer relu1
I1122 20:15:53.612983 19485 net.cpp:100] Creating Layer relu1
I1122 20:15:53.612987 19485 net.cpp:434] relu1 <- conv1
I1122 20:15:53.613004 19485 net.cpp:395] relu1 -> conv1 (in-place)
I1122 20:15:53.613248 19485 net.cpp:150] Setting up relu1
I1122 20:15:53.613257 19485 net.cpp:157] Top shape: 256 96 55 55 (74342400)
I1122 20:15:53.613271 19485 net.cpp:165] Memory required for data: 753037312
I1122 20:15:53.613275 19485 layer_factory.hpp:77] Creating layer pool1
I1122 20:15:53.613282 19485 net.cpp:100] Creating Layer pool1
I1122 20:15:53.613284 19485 net.cpp:434] pool1 <- conv1
I1122 20:15:53.613289 19485 net.cpp:408] pool1 -> pool1
I1122 20:15:53.613375 19485 net.cpp:150] Setting up pool1
I1122 20:15:53.613394 19485 net.cpp:157] Top shape: 256 96 27 27 (17915904)
I1122 20:15:53.613396 19485 net.cpp:165] Memory required for data: 824700928
I1122 20:15:53.613410 19485 layer_factory.hpp:77] Creating layer norm1
I1122 20:15:53.613418 19485 net.cpp:100] Creating Layer norm1
I1122 20:15:53.613421 19485 net.cpp:434] norm1 <- pool1
I1122 20:15:53.613425 19485 net.cpp:408] norm1 -> norm1
I1122 20:15:53.613809 19485 net.cpp:150] Setting up norm1
I1122 20:15:53.613821 19485 net.cpp:157] Top shape: 256 96 27 27 (17915904)
I1122 20:15:53.613823 19485 net.cpp:165] Memory required for data: 896364544
I1122 20:15:53.613826 19485 layer_factory.hpp:77] Creating layer conv2
I1122 20:15:53.613837 19485 net.cpp:100] Creating Layer conv2
I1122 20:15:53.613839 19485 net.cpp:434] conv2 <- norm1
I1122 20:15:53.613845 19485 net.cpp:408] conv2 -> conv2
I1122 20:15:53.618459 19485 net.cpp:150] Setting up conv2
I1122 20:15:53.618472 19485 net.cpp:157] Top shape: 256 256 27 27 (47775744)
I1122 20:15:53.618475 19485 net.cpp:165] Memory required for data: 1087467520
I1122 20:15:53.618482 19485 layer_factory.hpp:77] Creating layer relu2
I1122 20:15:53.618487 19485 net.cpp:100] Creating Layer relu2
I1122 20:15:53.618491 19485 net.cpp:434] relu2 <- conv2
I1122 20:15:53.618495 19485 net.cpp:395] relu2 -> conv2 (in-place)
I1122 20:15:53.618842 19485 net.cpp:150] Setting up relu2
I1122 20:15:53.618854 19485 net.cpp:157] Top shape: 256 256 27 27 (47775744)
I1122 20:15:53.618867 19485 net.cpp:165] Memory required for data: 1278570496
I1122 20:15:53.618870 19485 layer_factory.hpp:77] Creating layer pool2
I1122 20:15:53.618890 19485 net.cpp:100] Creating Layer pool2
I1122 20:15:53.618892 19485 net.cpp:434] pool2 <- conv2
I1122 20:15:53.618896 19485 net.cpp:408] pool2 -> pool2
I1122 20:15:53.618959 19485 net.cpp:150] Setting up pool2
I1122 20:15:53.618966 19485 net.cpp:157] Top shape: 256 256 13 13 (11075584)
I1122 20:15:53.618969 19485 net.cpp:165] Memory required for data: 1322872832
I1122 20:15:53.618971 19485 layer_factory.hpp:77] Creating layer norm2
I1122 20:15:53.618978 19485 net.cpp:100] Creating Layer norm2
I1122 20:15:53.618980 19485 net.cpp:434] norm2 <- pool2
I1122 20:15:53.618984 19485 net.cpp:408] norm2 -> norm2
I1122 20:15:53.619201 19485 net.cpp:150] Setting up norm2
I1122 20:15:53.619210 19485 net.cpp:157] Top shape: 256 256 13 13 (11075584)
I1122 20:15:53.619223 19485 net.cpp:165] Memory required for data: 1367175168
I1122 20:15:53.619226 19485 layer_factory.hpp:77] Creating layer conv3
I1122 20:15:53.619237 19485 net.cpp:100] Creating Layer conv3
I1122 20:15:53.619241 19485 net.cpp:434] conv3 <- norm2
I1122 20:15:53.619246 19485 net.cpp:408] conv3 -> conv3
I1122 20:15:53.628175 19485 net.cpp:150] Setting up conv3
I1122 20:15:53.628188 19485 net.cpp:157] Top shape: 256 384 13 13 (16613376)
I1122 20:15:53.628191 19485 net.cpp:165] Memory required for data: 1433628672
I1122 20:15:53.628201 19485 layer_factory.hpp:77] Creating layer relu3
I1122 20:15:53.628206 19485 net.cpp:100] Creating Layer relu3
I1122 20:15:53.628207 19485 net.cpp:434] relu3 <- conv3
I1122 20:15:53.628212 19485 net.cpp:395] relu3 -> conv3 (in-place)
I1122 20:15:53.628559 19485 net.cpp:150] Setting up relu3
I1122 20:15:53.628582 19485 net.cpp:157] Top shape: 256 384 13 13 (16613376)
I1122 20:15:53.628585 19485 net.cpp:165] Memory required for data: 1500082176
I1122 20:15:53.628598 19485 layer_factory.hpp:77] Creating layer conv4
I1122 20:15:53.628608 19485 net.cpp:100] Creating Layer conv4
I1122 20:15:53.628612 19485 net.cpp:434] conv4 <- conv3
I1122 20:15:53.628617 19485 net.cpp:408] conv4 -> conv4
I1122 20:15:53.636106 19485 net.cpp:150] Setting up conv4
I1122 20:15:53.636118 19485 net.cpp:157] Top shape: 256 384 13 13 (16613376)
I1122 20:15:53.636121 19485 net.cpp:165] Memory required for data: 1566535680
I1122 20:15:53.636126 19485 layer_factory.hpp:77] Creating layer relu4
I1122 20:15:53.636133 19485 net.cpp:100] Creating Layer relu4
I1122 20:15:53.636137 19485 net.cpp:434] relu4 <- conv4
I1122 20:15:53.636140 19485 net.cpp:395] relu4 -> conv4 (in-place)
I1122 20:15:53.636484 19485 net.cpp:150] Setting up relu4
I1122 20:15:53.636495 19485 net.cpp:157] Top shape: 256 384 13 13 (16613376)
I1122 20:15:53.636509 19485 net.cpp:165] Memory required for data: 1632989184
I1122 20:15:53.636512 19485 layer_factory.hpp:77] Creating layer conv5
I1122 20:15:53.636530 19485 net.cpp:100] Creating Layer conv5
I1122 20:15:53.636534 19485 net.cpp:434] conv5 <- conv4
I1122 20:15:53.636539 19485 net.cpp:408] conv5 -> conv5
I1122 20:15:53.642227 19485 net.cpp:150] Setting up conv5
I1122 20:15:53.642241 19485 net.cpp:157] Top shape: 256 256 13 13 (11075584)
I1122 20:15:53.642244 19485 net.cpp:165] Memory required for data: 1677291520
I1122 20:15:53.642251 19485 layer_factory.hpp:77] Creating layer relu5
I1122 20:15:53.642256 19485 net.cpp:100] Creating Layer relu5
I1122 20:15:53.642259 19485 net.cpp:434] relu5 <- conv5
I1122 20:15:53.642263 19485 net.cpp:395] relu5 -> conv5 (in-place)
I1122 20:15:53.642611 19485 net.cpp:150] Setting up relu5
I1122 20:15:53.642621 19485 net.cpp:157] Top shape: 256 256 13 13 (11075584)
I1122 20:15:53.642635 19485 net.cpp:165] Memory required for data: 1721593856
I1122 20:15:53.642638 19485 layer_factory.hpp:77] Creating layer pool5
I1122 20:15:53.642647 19485 net.cpp:100] Creating Layer pool5
I1122 20:15:53.642649 19485 net.cpp:434] pool5 <- conv5
I1122 20:15:53.642664 19485 net.cpp:408] pool5 -> pool5
I1122 20:15:53.642731 19485 net.cpp:150] Setting up pool5
I1122 20:15:53.642738 19485 net.cpp:157] Top shape: 256 256 6 6 (2359296)
I1122 20:15:53.642740 19485 net.cpp:165] Memory required for data: 1731031040
I1122 20:15:53.642743 19485 layer_factory.hpp:77] Creating layer fc6
I1122 20:15:53.642750 19485 net.cpp:100] Creating Layer fc6
I1122 20:15:53.642752 19485 net.cpp:434] fc6 <- pool5
I1122 20:15:53.642771 19485 net.cpp:408] fc6 -> fc6
I1122 20:15:53.976481 19485 net.cpp:150] Setting up fc6
I1122 20:15:53.976511 19485 net.cpp:157] Top shape: 256 4096 (1048576)
I1122 20:15:53.976513 19485 net.cpp:165] Memory required for data: 1735225344
I1122 20:15:53.976522 19485 layer_factory.hpp:77] Creating layer relu6
I1122 20:15:53.976531 19485 net.cpp:100] Creating Layer relu6
I1122 20:15:53.976537 19485 net.cpp:434] relu6 <- fc6
I1122 20:15:53.976542 19485 net.cpp:395] relu6 -> fc6 (in-place)
I1122 20:15:53.976800 19485 net.cpp:150] Setting up relu6
I1122 20:15:53.976809 19485 net.cpp:157] Top shape: 256 4096 (1048576)
I1122 20:15:53.976810 19485 net.cpp:165] Memory required for data: 1739419648
I1122 20:15:53.976814 19485 layer_factory.hpp:77] Creating layer drop6
I1122 20:15:53.976819 19485 net.cpp:100] Creating Layer drop6
I1122 20:15:53.976821 19485 net.cpp:434] drop6 <- fc6
I1122 20:15:53.976825 19485 net.cpp:395] drop6 -> fc6 (in-place)
I1122 20:15:53.976861 19485 net.cpp:150] Setting up drop6
I1122 20:15:53.976866 19485 net.cpp:157] Top shape: 256 4096 (1048576)
I1122 20:15:53.976867 19485 net.cpp:165] Memory required for data: 1743613952
I1122 20:15:53.976884 19485 layer_factory.hpp:77] Creating layer fc7
I1122 20:15:53.976892 19485 net.cpp:100] Creating Layer fc7
I1122 20:15:53.976896 19485 net.cpp:434] fc7 <- fc6
I1122 20:15:53.976899 19485 net.cpp:408] fc7 -> fc7
I1122 20:15:54.125293 19485 net.cpp:150] Setting up fc7
I1122 20:15:54.125324 19485 net.cpp:157] Top shape: 256 4096 (1048576)
I1122 20:15:54.125326 19485 net.cpp:165] Memory required for data: 1747808256
I1122 20:15:54.125357 19485 layer_factory.hpp:77] Creating layer relu7
I1122 20:15:54.125368 19485 net.cpp:100] Creating Layer relu7
I1122 20:15:54.125383 19485 net.cpp:434] relu7 <- fc7
I1122 20:15:54.125388 19485 net.cpp:395] relu7 -> fc7 (in-place)
I1122 20:15:54.125869 19485 net.cpp:150] Setting up relu7
I1122 20:15:54.125881 19485 net.cpp:157] Top shape: 256 4096 (1048576)
I1122 20:15:54.125885 19485 net.cpp:165] Memory required for data: 1752002560
I1122 20:15:54.125887 19485 layer_factory.hpp:77] Creating layer drop7
I1122 20:15:54.125892 19485 net.cpp:100] Creating Layer drop7
I1122 20:15:54.125895 19485 net.cpp:434] drop7 <- fc7
I1122 20:15:54.125900 19485 net.cpp:395] drop7 -> fc7 (in-place)
I1122 20:15:54.125936 19485 net.cpp:150] Setting up drop7
I1122 20:15:54.125943 19485 net.cpp:157] Top shape: 256 4096 (1048576)
I1122 20:15:54.125957 19485 net.cpp:165] Memory required for data: 1756196864
I1122 20:15:54.125960 19485 layer_factory.hpp:77] Creating layer fc8_finetuning
I1122 20:15:54.125978 19485 net.cpp:100] Creating Layer fc8_finetuning
I1122 20:15:54.125983 19485 net.cpp:434] fc8_finetuning <- fc7
I1122 20:15:54.125989 19485 net.cpp:408] fc8_finetuning -> fc8_finetuning
I1122 20:15:54.126169 19485 net.cpp:150] Setting up fc8_finetuning
I1122 20:15:54.126178 19485 net.cpp:157] Top shape: 256 1 (256)
I1122 20:15:54.126180 19485 net.cpp:165] Memory required for data: 1756197888
I1122 20:15:54.126184 19485 layer_factory.hpp:77] Creating layer sigmoid9
I1122 20:15:54.126189 19485 net.cpp:100] Creating Layer sigmoid9
I1122 20:15:54.126191 19485 net.cpp:434] sigmoid9 <- fc8_finetuning
I1122 20:15:54.126195 19485 net.cpp:408] sigmoid9 -> predict
I1122 20:15:54.126456 19485 net.cpp:150] Setting up sigmoid9
I1122 20:15:54.126466 19485 net.cpp:157] Top shape: 256 1 (256)
I1122 20:15:54.126467 19485 net.cpp:165] Memory required for data: 1756198912
I1122 20:15:54.126471 19485 layer_factory.hpp:77] Creating layer loss
I1122 20:15:54.126477 19485 net.cpp:100] Creating Layer loss
I1122 20:15:54.126478 19485 net.cpp:434] loss <- predict
I1122 20:15:54.126482 19485 net.cpp:434] loss <- label
I1122 20:15:54.126500 19485 net.cpp:408] loss -> loss
I1122 20:15:54.126566 19485 net.cpp:150] Setting up loss
…
  name: "data"
  type: "Data"
  top: "data"
  include {
    phase: TEST
  }
  transform_param {
    mirror: false
    crop_size: 227
    mean_file: "/home/sqxiang/workspace/continuous/lmdb/mean_image.binaryproto"
  }
  data_param {
    source: "/home/sqxiang/workspace/continuous/lmdb/valid_data_lmdb"
    batch_size: 20
    backend: LMDB
  }
}
layer {
  name: "label"
  type: "Data"
  top: "label"
  include {
    phase: TEST
  }
  data_param {
    source: "/home/sqxiang/workspace/continuous/lmdb/valid_arousal_score_lmdb"
    batch_size: 20
    backend: LMDB
  }
}
layer {
  name: "conv1"
  type: "Convolution"
  bottom: "data"
  top: "conv1"
  param {
    lr_mult: 1
    decay_mult: 1
  }
  param {
    lr_mult: 2
    decay_mult: 0
  }
  convolution_param {
    num_output: 96
    kernel_size: 11
    stride: 4
    weight_filler {
      type: "gaussian"
      std: 0.01
    }
    bias_filler {
      type: "constant"
      value: 0
    }
  }
}
layer {
  name: "relu1"
  type: "ReLU"
  bottom: "conv1"
  top: "conv1"
}
layer {
  name: "pool1"
  type: "Pooling"
  bottom: "conv1"
  top: "pool1"
  pooling_param {
    pool: MAX
    kernel_size: 3
    stride: 2
  }
}
layer {
  name: "norm1"
  type: "LRN"
  bottom: "pool1"
  top: "norm1"
  lrn_param {
    local_size: 5
    alpha: 0.0001
    beta: 0.75
  }
}
layer {
  name: "conv2"
  type: "Convolution"
  bottom: "norm1"
  top: "conv2"
  param {
    lr_mult: 1
    decay_mult: 1
  }
  param {
    lr_mult: 2
    decay_mult: 0
  }
  convolution_param {
    num_output: 256
    pad: 2
    kernel_size: 5
    group: 2
    weight_filler {
      type: "gaussian"
      std: 0.01
    }
    bias_filler {
      type: "constant"
      value: 1
    }
  }
}
layer {
  name: "relu2"
  type: "ReLU"
  bottom: "conv2"
  top: "conv2"
}
layer {
  name: "pool2"
  type: "Pooling"
  bottom: "conv2"
  top: "pool2"
  pooling_param {
    pool: MAX
    kernel_size: 3
    stride: 2
  }
}
layer {
  name: "norm2"
  type: "LRN"
  bottom: "pool2"
  top: "norm2"
  lrn_param {
    local_size: 5
    alpha: 0.0001
    beta: 0.75
  }
}
layer {
  name: "conv3"
  type: "Convolution"
  bottom: "norm2"
  top: "conv3"
  param {
    lr_mult: 1
    decay_mult: 1
  }
  param {
    lr_mult: 2
    decay_mult: 0
  }
  convolution_param {
    num_output: 384
    pad: 1
    kernel_size: 3
    weight_filler {
      type: "gaussian"
      std: 0.01
    }
    bias_filler {
      type: "constant"
      value: 0
    }
  }
}
layer {
  name: "relu3"
  type: "ReLU"
  bottom: "conv3"
  top: "conv3"
}
layer {
  name: "conv4"
  type: "Convolution"
  bottom: "conv3"
  top: "conv4"
  param {
    lr_mult: 1
    decay_mult: 1
  }
  param {
    lr_mult: 2
    decay_mult: 0
  }
  convolution_param {
    num_output: 384
    pad: 1
    kernel_size: 3
    group: 2
    weight_filler {
      type: "gaussian"
      std: 0.01
    }
    bias_filler {
      type: "constant"
      value: 1
    }
  }
}
layer {
  name: "relu4"
  type: "ReLU"
  bottom: "conv4"
  top: "conv4"
}
layer {
  name: "conv5"
  type: "Convolution"
  bottom: "conv4"
  top: "conv5"
  param {
    lr_mult: 1
    decay_mult: 1
  }
  param {
    lr_mult: 2
    decay_mult: 0
  }
  convolution_param {
    num_output: 256
    pad: 1
    kernel_size: 3
    group: 2
    weight_filler {
      type: "gaussian"
      std: 0.01
    }
    bias_filler {
      type: "constant"
      value: 1
    }
  }
}
layer {
  name: "relu5"
  type: "ReLU"
  bottom: "conv5"
  top: "conv5"
}
layer {
  name: "pool5"
  type: "Pooling"
  bottom: "conv5"
  top: "pool5"
  pooling_param {
    pool: MAX
    kernel_size: 3
    stride: 2
  }
}
layer {
  name: "fc6"
  type: "InnerProduct"
  bottom: "pool5"
  top: "fc6"
  param {
    lr_mult: 1
    decay_mult: 1
  }
  param {
    lr_mult: 2
    decay_mult: 0
  }
  inner_product_param {
    num_output: 4096
    weight_filler {
      type: "gaussian"
      std: 0.005
    }
    bias_filler {
      type: "constant"
      value: 1
    }
  }
}
layer {
  name: "relu6"
  type: "ReLU"
  bottom: "fc6"
  top: "fc6"
}
layer {
  name: "drop6"
  type: "Dropout"
  bottom: "fc6"
  top: "fc6"
  dropout_param {
    dropout_ratio: 0.5
  }
}
layer {
  name: "fc7"
  type: "InnerProduct"
  bottom: "fc6"
  top: "fc7"
  param {
    lr_mult: 1
    decay_mult: 1
  }
  param {
    lr_mult: 2
    decay_mult: 0
  }
  inner_product_param {
    num_output: 4096
    weight_filler {
      type: "gaussian"
      std: 0.005
    }
    bias_filler {
      type: "constant"
      value: 1
    }
  }
}
layer {
  name: "relu7"
  type: "ReLU"
  bottom: "fc7"
  top: "fc7"
}
layer {
  name: "drop7"
  type: "Dropout"
  bottom: "fc7"
  top: "fc7"
  dropout_param {
    dropout_ratio: 0.5
  }
}
layer {
  name: "fc8_finetuning"
  type: "InnerProduct"
  bottom: "fc7"
  top: "fc8_finetuning"
  param {
    lr_mult: 10
    decay_mult: 1
  }
  param {
    lr_mult: 20
    decay_mult: 0
  }
  inner_product_param {
    num_output: 1
    weight_filler {
      type: "gaussian"
      std: 0.01
    }
    bias_filler {
      type: "constant"
      value: 0
    }
  }
}
layer {
  name: "sigmoid9"
  type: "Sigmoid"
  bottom: "fc8_finetuning"
  top: "predict"
}
layer {
  name: "test half mse"
  type: "EuclideanLoss"
  bottom: "predict"
  bottom: "label"
  top: "test mse"
  include {
    phase: TEST
  }
}
I1122 20:15:54.127441 19485 layer_factory.hpp:77] Creating layer data
I1122 20:15:54.127539 19485 net.cpp:100] Creating Layer data
I1122 20:15:54.127547 19485 net.cpp:408] data -> data
I1122 20:15:54.127555 19485 data_transformer.cpp:25] Loading mean file from: /home/sqxiang/workspace/continuous/lmdb/mean_image.binaryproto
I1122 20:15:54.128803 19502 db_lmdb.cpp:35] Opened lmdb /home/sqxiang/workspace/continuous/lmdb/valid_data_lmdb
I1122 20:15:54.129531 19485 data_layer.cpp:41] output data size: 20,3,227,227
I1122 20:15:54.143517 19485 net.cpp:150] Setting up data
I1122 20:15:54.143566 19485 net.cpp:157] Top shape: 20 3 227 227 (3091740)
I1122 20:15:54.143569 19485 net.cpp:165] Memory required for data: 12366960
I1122 20:15:54.143576 19485 layer_factory.hpp:77] Creating layer label
I1122 20:15:54.143654 19485 net.cpp:100] Creating Layer label
I1122 20:15:54.143666 19485 net.cpp:408] label -> label
I1122 20:15:54.145368 19504 db_lmdb.cpp:35] Opened lmdb /home/sqxiang/workspace/continuous/lmdb/valid_arousal_score_lmdb
I1122 20:15:54.145860 19485 data_layer.cpp:41] output data size: 20,1,1,1
I1122 20:15:54.146033 19485 net.cpp:150] Setting up label
I1122 20:15:54.146042 19485 net.cpp:157] Top shape: 20 1 1 1 (20)
I1122 20:15:54.146065 19485 net.cpp:165] Memory required for data: 12367040
I1122 20:15:54.146070 19485 layer_factory.hpp:77] Creating layer conv1
I1122 20:15:54.146081 19485 net.cpp:100] Creating Layer conv1
I1122 20:15:54.146085 19485 net.cpp:434] conv1 <- data
I1122 20:15:54.146092 19485 net.cpp:408] conv1 -> conv1
I1122 20:15:54.147567 19485 net.cpp:150] Setting up conv1
I1122 20:15:54.147593 19485 net.cpp:157] Top shape: 20 96 55 55 (5808000)
I1122 20:15:54.147603 19485 net.cpp:165] Memory required for data: 35599040
I1122 20:15:54.147619 19485 layer_factory.hpp:77] Creating layer relu1
I1122 20:15:54.147641 19485 net.cpp:100] Creating Layer relu1
I1122 20:15:54.147646 19485 net.cpp:434] relu1 <- conv1
I1122 20:15:54.147655 19485 net.cpp:395] relu1 -> conv1 (in-place)
I1122 20:15:54.148056 19485 net.cpp:150] Setting up relu1
I1122 20:15:54.148092 19485 net.cpp:157] Top shape: 20 96 55 55 (5808000)
I1122 20:15:54.148097 19485 net.cpp:165] Memory required for data: 58831040
I1122 20:15:54.148111 19485 layer_factory.hpp:77] Creating layer pool1
I1122 20:15:54.148119 19485 net.cpp:100] Creating Layer pool1
I1122 20:15:54.148128 19485 net.cpp:434] pool1 <- conv1
I1122 20:15:54.148134 19485 net.cpp:408] pool1 -> pool1
I1122 20:15:54.148181 19485 net.cpp:150] Setting up pool1
I1122 20:15:54.148190 19485 net.cpp:157] Top shape: 20 96 27 27 (1399680)
I1122 20:15:54.148192 19485 net.cpp:165] Memory required for data: 64429760
I1122 20:15:54.148196 19485 layer_factory.hpp:77] Creating layer norm1
I1122 20:15:54.148202 19485 net.cpp:100] Creating Layer norm1
I1122 20:15:54.148205 19485 net.cpp:434] norm1 <- pool1
I1122 20:15:54.148210 19485 net.cpp:408] norm1 -> norm1
I1122 20:15:54.148464 19485 net.cpp:150] Setting up norm1
I1122 20:15:54.148474 19485 net.cpp:157] Top shape: 20 96 27 27 (1399680)
I1122 20:15:54.148490 19485 net.cpp:165] Memory required for data: 70028480
I1122 20:15:54.148500 19485 layer_factory.hpp:77] Creating layer conv2
I1122 20:15:54.148509 19485 net.cpp:100] Creating Layer conv2
I1122 20:15:54.148512 19485 net.cpp:434] conv2 <- norm1
I1122 20:15:54.148519 19485 net.cpp:408] conv2 -> conv2
I1122 20:15:54.155711 19485 net.cpp:150] Setting up conv2
I1122 20:15:54.155750 19485 net.cpp:157] Top shape: 20 256 27 27 (3732480)
I1122 20:15:54.155753 19485 net.cpp:165] Memory required for data: 84958400
I1122 20:15:54.155766 19485 layer_factory.hpp:77] Creating layer relu2
I1122 20:15:54.155776 19485 net.cpp:100] Creating Layer relu2
I1122 20:15:54.155781 19485 net.cpp:434] relu2 <- conv2
I1122 20:15:54.155786 19485 net.cpp:395] relu2 -> conv2 (in-place)
I1122 20:15:54.156116 19485 net.cpp:150] Setting up relu2
I1122 20:15:54.156139 19485 net.cpp:157] Top shape: 20 256 27 27 (3732480)
I1122 20:15:54.156142 19485 net.cpp:165] Memory required for data: 99888320
I1122 20:15:54.156146 19485 layer_factory.hpp:77] Creating layer pool2
I1122 20:15:54.156153 19485 net.cpp:100] Creating Layer pool2
I1122 20:15:54.156158 19485 net.cpp:434] pool2 <- conv2
I1122 20:15:54.156165 19485 net.cpp:408] pool2 -> pool2
I1122 20:15:54.156213 19485 net.cpp:150] Setting up pool2
I1122 20:15:54.156220 19485 net.cpp:157] Top shape: 20 256 13 13 (865280)
I1122 20:15:54.156224 19485 net.cpp:165] Memory required for data: 103349440
I1122 20:15:54.156226 19485 layer_factory.hpp:77] Creating layer norm2
I1122 20:15:54.156232 19485 net.cpp:100] Creating Layer norm2
I1122 20:15:54.156235 19485 net.cpp:434] norm2 <- pool2
I1122 20:15:54.156240 19485 net.cpp:408] norm2 -> norm2
I1122 20:15:54.156446 19485 net.cpp:150] Setting up norm2
I1122 20:15:54.156455 19485 net.cpp:157] Top shape: 20 256 13 13 (865280)
I1122 20:15:54.156469 19485 net.cpp:165] Memory required for data: 106810560
I1122 20:15:54.156472 19485 layer_factory.hpp:77] Creating layer conv3
I1122 20:15:54.156482 19485 net.cpp:100] Creating Layer conv3
I1122 20:15:54.156486 19485 net.cpp:434] conv3 <- norm2
I1122 20:15:54.156492 19485 net.cpp:408] conv3 -> conv3
I1122 20:15:54.166610 19485 net.cpp:150] Setting up conv3
I1122 20:15:54.166648 19485 net.cpp:157] Top shape: 20 384 13 13 (1297920)
I1122 20:15:54.166651 19485 net.cpp:165] Memory required for data: 112002240
I1122 20:15:54.166664 19485 layer_factory.hpp:77] Creating layer relu3
I1122 20:15:54.166676 19485 net.cpp:100] Creating Layer relu3
I1122 20:15:54.166681 19485 net.cpp:434] relu3 <- conv3
I1122 20:15:54.166697 19485 net.cpp:395] relu3 -> conv3 (in-place)
I1122 20:15:54.166905 19485 net.cpp:150] Setting up relu3
I1122 20:15:54.166914 19485 net.cpp:157] Top shape: 20 384 13 13 (1297920)
I1122 20:15:54.166929 19485 net.cpp:165] Memory required for data: 117193920
I1122 20:15:54.166930 19485 layer_factory.hpp:77] Creating layer conv4
I1122 20:15:54.166956 19485 net.cpp:100] Creating Layer conv4
I1122 20:15:54.166977 19485 net.cpp:434] conv4 <- conv3
I1122 20:15:54.167003 19485 net.cpp:408] conv4 -> conv4
I1122 20:15:54.175570 19485 net.cpp:150] Setting up conv4
I1122 20:15:54.175601 19485 net.cpp:157] Top shape: 20 384 13 13 (1297920)
I1122 20:15:54.175604 19485 net.cpp:165] Memory required for data: 122385600
I1122 20:15:54.175611 19485 layer_factory.hpp:77] Creating layer relu4
I1122 20:15:54.175617 19485 net.cpp:100] Creating Layer relu4
I1122 20:15:54.175621 19485 net.cpp:434] relu4 <- conv4
I1122 20:15:54.175626 19485 net.cpp:395] relu4 -> conv4 (in-place)
I1122 20:15:54.176017 19485 net.cpp:150] Setting up relu4
I1122 20:15:54.176028 19485 net.cpp:157] Top shape: 20 384 13 13 (1297920)
I1122 20:15:54.176030 19485 net.cpp:165] Memory required for data: 127577280
I1122 20:15:54.176044 19485 layer_factory.hpp:77] Creating layer conv5
I1122 20:15:54.176054 19485 net.cpp:100] Creating Layer conv5
I1122 20:15:54.176056 19485 net.cpp:434] conv5 <- conv4
I1122 20:15:54.176061 19485 net.cpp:408] conv5 -> conv5
I1122 20:15:54.181658 19485 net.cpp:150] Setting up conv5
I1122 20:15:54.181671 19485 net.cpp:157] Top shape: 20 256 13 13 (865280)
I1122 20:15:54.181685 19485 net.cpp:165] Memory required for data: 131038400
I1122 20:15:54.181694 19485 layer_factory.hpp:77] Creating layer relu5
I1122 20:15:54.181700 19485 net.cpp:100] Creating Layer relu5
I1122 20:15:54.181704 19485 net.cpp:434] relu5 <- conv5
I1122 20:15:54.181707 19485 net.cpp:395] relu5 -> conv5 (in-place)
I1122 20:15:54.182083 19485 net.cpp:150] Setting up relu5
I1122 20:15:54.182095 19485 net.cpp:157] Top shape: 20 256 13 13 (865280)
I1122 20:15:54.182108 19485 net.cpp:165] Memory required for data: 134499520
I1122 20:15:54.182111 19485 layer_factory.hpp:77] Creating layer pool5
I1122 20:15:54.182118 19485 net.cpp:100] Creating Layer pool5
I1122 20:15:54.182123 19485 net.cpp:434] pool5 <- conv5
I1122 20:15:54.182127 19485 net.cpp:408] pool5 -> pool5
I1122 20:15:54.182184 19485 net.cpp:150] Setting up pool5
I1122 20:15:54.182191 19485 net.cpp:157] Top shape: 20 256 6 6 (184320)
I1122 20:15:54.182193 19485 net.cpp:165] Memory required for data: 135236800
I1122 20:15:54.182196 19485 layer_factory.hpp:77] Creating layer fc6
I1122 20:15:54.182202 19485 net.cpp:100] Creating Layer fc6
I1122 20:15:54.182205 19485 net.cpp:434] fc6 <- pool5
I1122 20:15:54.182210 19485 net.cpp:408] fc6 -> fc6
I1122 20:15:54.591047 19485 net.cpp:150] Setting up fc6
I1122 20:15:54.591081 19485 net.cpp:157] Top shape: 20 4096 (81920)
I1122 20:15:54.591085 19485 net.cpp:165] Memory required for data: 135564480
I1122 20:15:54.591096 19485 layer_factory.hpp:77] Creating layer relu6
I1122 20:15:54.591107 19485 net.cpp:100] Creating Layer relu6
I1122 20:15:54.591112 19485 net.cpp:434] relu6 <- fc6
I1122 20:15:54.591120 19485 net.cpp:395] relu6 -> fc6 (in-place)
I1122 20:15:54.591444 19485 net.cpp:150] Setting up relu6
I1122 20:15:54.591454 19485 net.cpp:157] Top shape: 20 4096 (81920)
I1122 20:15:54.591470 19485 net.cpp:165] Memory required for data: 135892160
I1122 20:15:54.591473 19485 layer_factory.hpp:77] Creating layer drop6
I1122 20:15:54.591481 19485 net.cpp:100] Creating Layer drop6
I1122 20:15:54.591485 19485 net.cpp:434] drop6 <- fc6
I1122 20:15:54.591491 19485 net.cpp:395] drop6 -> fc6 (in-place)
I1122 20:15:54.591559 19485 net.cpp:150] Setting up drop6
I1122 20:15:54.591567 19485 net.cpp:157] Top shape: 20 4096 (81920)
I1122 20:15:54.591572 19485 net.cpp:165] Memory required for data: 136219840
I1122 20:15:54.591575 19485 layer_factory.hpp:77] Creating layer fc7
I1122 20:15:54.591584 19485 net.cpp:100] Creating Layer fc7
I1122 20:15:54.591599 19485 net.cpp:434] fc7 <- fc6
I1122 20:15:54.591617 19485 net.cpp:408] fc7 -> fc7
I1122 20:15:54.803500 19485 net.cpp:150] Setting up fc7
I1122 20:15:54.803535 19485 net.cpp:157] Top shape: 20 4096 (81920)
I1122 20:15:54.803539 19485 net.cpp:165] Memory required for data: 136547520
I1122 20:15:54.803550 19485 layer_factory.hpp:77] Creating layer relu7
I1122 20:15:54.803589 19485 net.cpp:100] Creating Layer relu7
I1122 20:15:54.803606 19485 net.cpp:434] relu7 <- fc7
I1122 20:15:54.803613 19485 net.cpp:395] relu7 -> fc7 (in-place)
I1122 20:15:54.804126 19485 net.cpp:150] Setting up relu7
I1122 20:15:54.804139 19485 net.cpp:157] Top shape: 20 4096 (81920)
I1122 20:15:54.804142 19485 net.cpp:165] Memory required for data: 136875200
I1122 20:15:54.804147 19485 layer_factory.hpp:77] Creating layer drop7
I1122 20:15:54.804154 19485 net.cpp:100] Creating Layer drop7
I1122 20:15:54.804158 19485 net.cpp:434] drop7 <- fc7
I1122 20:15:54.804163 19485 net.cpp:395] drop7 -> fc7 (in-place)
I1122 20:15:54.804208 19485 net.cpp:150] Setting up drop7
I1122 20:15:54.804221 19485 net.cpp:157] Top shape: 20 4096 (81920)
I1122 20:15:54.804224 19485 net.cpp:165] Memory required for data: 137202880
I1122 20:15:54.804229 19485 layer_factory.hpp:77] Creating layer fc8_finetuning
I1122 20:15:54.804237 19485 net.cpp:100] Creating Layer fc8_finetuning
I1122 20:15:54.804241 19485 net.cpp:434] fc8_finetuning <- fc7
I1122 20:15:54.804247 19485 net.cpp:408] fc8_finetuning -> fc8_finetuning
I1122 20:15:54.804466 19485 net.cpp:150] Setting up fc8_finetuning
I1122 20:15:54.804476 19485 net.cpp:157] Top shape: 20 1 (20)
I1122 20:15:54.804479 19485 net.cpp:165] Memory required for data: 137202960
I1122 20:15:54.804486 19485 layer_factory.hpp:77] Creating layer sigmoid9
I1122 20:15:54.804504 19485 net.cpp:100] Creating Layer sigmoid9
I1122 20:15:54.804508 19485 net.cpp:434] sigmoid9 <- fc8_finetuning
I1122 20:15:54.804514 19485 net.cpp:408] sigmoid9 -> predict
I1122 20:15:54.804786 19485 net.cpp:150] Setting up sigmoid9
I1122 20:15:54.804798 19485 net.cpp:157] Top shape: 20 1 (20)
I1122 20:15:54.804801 19485 net.cpp:165] Memory required for data: 137203040
I1122 20:15:54.804805 19485 layer_factory.hpp:77] Creating layer test half mse
I1122 20:15:54.804824 19485 net.cpp:100] Creating Layer test half mse
I1122 20:15:54.804844 19485 net.cpp:434] test half mse <- predict
I1122 20:15:54.804849 19485 net.cpp:434] test half mse <- label
I1122 20:15:54.804855 19485 net.cpp:408] test half mse -> test mse
…
