…
I0202 14:15:34.487275 133479 net.cpp:258] The NetState phase (0) differed from the phase (1) specified by a rule in layer reshape-cm
I0202 14:15:34.487761 133479 net.cpp:42] Initializing net from parameters: 
name: "lstm_joints"
state {
  phase: TRAIN
}
layer {
  name: "data"
  type: "Python"
  top: "data"
  top: "label"
  top: "clip_markers"
  include {
    phase: TRAIN
  }
  python_param {
    module: "image_input_layer"
    layer: "videoReadTrain_RGB"
  }
}
layer {
  name: "data2"
  type: "Python"
  top: "data2"
  include {
    phase: TRAIN
  }
  python_param {
    module: "audio_input_layer"
    layer: "audioReadTrain_RGB"
  }
}
layer {
  name: "conv1_l"
  type: "Convolution"
  bottom: "data"
  top: "conv1_l"
  param {
    lr_mult: 1
    decay_mult: 1
  }
  param {
    lr_mult: 2
    decay_mult: 0
  }
  convolution_param {
    num_output: 96
    kernel_size: 11
    stride: 4
    weight_filler {
      type: "gaussian"
      std: 0.01
    }
    bias_filler {
      type: "constant"
      value: 0.1
    }
  }
}
layer {
  name: "relu1_l"
  type: "ReLU"
  bottom: "conv1_l"
  top: "conv1_l"
}
layer {
  name: "pool1_l"
  type: "Pooling"
  bottom: "conv1_l"
  top: "pool1_l"
  pooling_param {
    pool: MAX
    kernel_size: 3
    stride: 2
  }
}
layer {
  name: "norm1_l"
  type: "LRN"
  bottom: "pool1_l"
  top: "norm1_l"
  lrn_param {
    local_size: 5
    alpha: 0.0001
    beta: 0.75
  }
}
layer {
  name: "conv2_l"
  type: "Convolution"
  bottom: "norm1_l"
  top: "conv2_l"
  param {
    lr_mult: 1
    decay_mult: 1
  }
  param {
    lr_mult: 2
    decay_mult: 0
  }
  convolution_param {
    num_output: 256
    pad: 2
    kernel_size: 5
    group: 2
    weight_filler {
      type: "gaussian"
      std: 0.01
    }
    bias_filler {
      type: "constant"
      value: 1
    }
  }
}
layer {
  name: "relu2_l"
  type: "ReLU"
  bottom: "conv2_l"
  top: "conv2_l"
}
layer {
  name: "pool2_l"
  type: "Pooling"
  bottom: "conv2_l"
  top: "pool2_l"
  pooling_param {
    pool: MAX
    kernel_size: 3
    stride: 2
  }
}
layer {
  name: "norm2_l"
  type: "LRN"
  bottom: "pool2_l"
  top: "norm2_l"
  lrn_param {
    local_size: 5
    alpha: 0.0001
    beta: 0.75
  }
}
layer {
  name: "conv3_l"
  type: "Convolution"
  bottom: "norm2_l"
  top: "conv3_l"
  param {
    lr_mult: 1
    decay_mult: 1
  }
  param {
    lr_mult: 2
    decay_mult: 0
  }
  convolution_param {
    num_output: 384
    pad: 1
    kernel_size: 3
    weight_filler {
      type: "gaussian"
      std: 0.01
    }
    bias_filler {
      type: "constant"
      value: 0
    }
  }
}
layer {
  name: "relu3_l"
  type: "ReLU"
  bottom: "conv3_l"
  top: "conv3_l"
}
layer {
  name: "conv4_l"
  type: "Convolution"
  bottom: "conv3_l"
  top: "conv4_l"
  param {
    lr_mult: 1
    decay_mult: 1
  }
  param {
    lr_mult: 2
    decay_mult: 0
  }
  convolution_param {
    num_output: 384
    pad: 1
    kernel_size: 3
    group: 2
    weight_filler {
      type: "gaussian"
      std: 0.01
    }
    bias_filler {
      type: "constant"
      value: 1
    }
  }
}
layer {
  name: "relu4_l"
  type: "ReLU"
  bottom: "conv4_l"
  top: "conv4_l"
}
layer {
  name: "conv5_l"
  type: "Convolution"
  bottom: "conv4_l"
  top: "conv5_l"
  param {
    lr_mult: 1
    decay_mult: 1
  }
  param {
    lr_mult: 2
    decay_mult: 0
  }
  convolution_param {
    num_output: 256
    pad: 1
    kernel_size: 3
    group: 2
    weight_filler {
      type: "gaussian"
      std: 0.01
    }
    bias_filler {
      type: "constant"
      value: 1
    }
  }
}
layer {
  name: "relu5_l"
  type: "ReLU"
  bottom: "conv5_l"
  top: "conv5_l"
}
layer {
  name: "pool5_l"
  type: "Pooling"
  bottom: "conv5_l"
  top: "pool5_l"
  pooling_param {
    pool: MAX
    kernel_size: 3
    stride: 2
  }
}
layer {
  name: "fc6_l"
  type: "InnerProduct"
  bottom: "pool5_l"
  top: "fc6_l"
  param {
    lr_mult: 1
    decay_mult: 1
  }
  param {
    lr_mult: 2
    decay_mult: 0
  }
  inner_product_param {
    num_output: 4096
    weight_filler {
      type: "gaussian"
      std: 0.005
    }
    bias_filler {
      type: "constant"
      value: 1
    }
  }
}
layer {
  name: "relu6_l"
  type: "ReLU"
  bottom: "fc6_l"
  top: "fc6_l"
}
layer {
  name: "drop6_l"
  type: "Dropout"
  bottom: "fc6_l"
  top: "fc6_l"
  dropout_param {
    dropout_ratio: 0.9
  }
}
layer {
  name: "conv1_r"
  type: "Convolution"
  bottom: "data2"
  top: "conv1_r"
  param {
    lr_mult: 1
    decay_mult: 1
  }
  param {
    lr_mult: 2
    decay_mult: 0
  }
  convolution_param {
    num_output: 96
    kernel_size: 11
    stride: 4
    weight_filler {
      type: "gaussian"
      std: 0.01
    }
    bias_filler {
      type: "constant"
      value: 0.1
    }
  }
}
layer {
  name: "relu1_r"
  type: "ReLU"
  bottom: "conv1_r"
  top: "conv1_r"
}
layer {
  name: "pool1_r"
  type: "Pooling"
  bottom: "conv1_r"
  top: "pool1_r"
  pooling_param {
    pool: MAX
    kernel_size: 3
    stride: 2
  }
}
layer {
  name: "norm1_r"
  type: "LRN"
  bottom: "pool1_r"
  top: "norm1_r"
  lrn_param {
    local_size: 5
    alpha: 0.0001
    beta: 0.75
  }
}
layer {
  name: "conv2_r"
  type: "Convolution"
  bottom: "norm1_r"
  top: "conv2_r"
  param {
    lr_mult: 1
    decay_mult: 1
  }
  param {
    lr_mult: 2
    decay_mult: 0
  }
  convolution_param {
    num_output: 256
    pad: 2
    kernel_size: 5
    group: 2
    weight_filler {
      type: "gaussian"
      std: 0.01
    }
    bias_filler {
      type: "constant"
      value: 1
    }
  }
}
layer {
  name: "relu2_r"
  type: "ReLU"
  bottom: "conv2_r"
  top: "conv2_r"
}
layer {
  name: "pool2_r"
  type: "Pooling"
  bottom: "conv2_r"
  top: "pool2_r"
  pooling_param {
    pool: MAX
    kernel_size: 3
    stride: 2
  }
}
layer {
  name: "norm2_r"
  type: "LRN"
  bottom: "pool2_r"
  top: "norm2_r"
  lrn_param {
    local_size: 5
    alpha: 0.0001
    beta: 0.75
  }
}
layer {
  name: "conv3_r"
  type: "Convolution"
  bottom: "norm2_r"
  top: "conv3_r"
  param {
    lr_mult: 1
    decay_mult: 1
  }
  param {
    lr_mult: 2
    decay_mult: 0
  }
  convolution_param {
    num_output: 384
    pad: 1
    kernel_size: 3
    weight_filler {
      type: "gaussian"
      std: 0.01
    }
    bias_filler {
      type: "constant"
      value: 0
    }
  }
}
layer {
  name: "relu3_r"
  type: "ReLU"
  bottom: "conv3_r"
  top: "conv3_r"
}
layer {
  name: "conv4_r"
  type: "Convolution"
  bottom: "conv3_r"
  top: "conv4_r"
  param {
    lr_mult: 1
    decay_mult: 1
  }
  param {
    lr_mult: 2
    decay_mult: 0
  }
  convolution_param {
    num_output: 384
    pad: 1
    kernel_size: 3
    group: 2
    weight_filler {
      type: "gaussian"
      std: 0.01
    }
    bias_filler {
      type: "constant"
      value: 1
    }
  }
}
layer {
  name: "relu4_r"
  type: "ReLU"
  bottom: "conv4_r"
  top: "conv4_r"
}
layer {
  name: "conv5_r"
  type: "Convolution"
  bottom: "conv4_r"
  top: "conv5_r"
  param {
    lr_mult: 1
    decay_mult: 1
  }
  param {
    lr_mult: 2
    decay_mult: 0
  }
  convolution_param {
    num_output: 256
    pad: 1
    kernel_size: 3
    group: 2
    weight_filler {
      type: "gaussian"
      std: 0.01
    }
    bias_filler {
      type: "constant"
      value: 1
    }
  }
}
layer {
  name: "relu5_r"
  type: "ReLU"
  bottom: "conv5_r"
  top: "conv5_r"
}
layer {
  name: "pool5_r"
  type: "Pooling"
  bottom: "conv5_r"
  top: "pool5_r"
  pooling_param {
    pool: MAX
    kernel_size: 3
    stride: 2
  }
}
layer {
  name: "fc6_r"
  type: "InnerProduct"
  bottom: "pool5_r"
  top: "fc6_r"
  param {
    lr_mult: 1
    decay_mult: 1
  }
  param {
    lr_mult: 2
    decay_mult: 0
  }
  inner_product_param {
    num_output: 4096
    weight_filler {
      type: "gaussian"
      std: 0.005
    }
    bias_filler {
      type: "constant"
      value: 1
    }
  }
}
layer {
  name: "relu6_r"
  type: "ReLU"
  bottom: "fc6_r"
  top: "fc6_r"
}
layer {
  name: "drop6_r"
  type: "Dropout"
  bottom: "fc6_r"
  top: "fc6_r"
  dropout_param {
    dropout_ratio: 0.9
  }
}
layer {
  name: "fusion_point"
  type: "Concat"
  bottom: "fc6_l"
  bottom: "fc6_r"
  top: "fusion_point"
  concat_param {
    axis: 1
  }
}
layer {
  name: "fc1_fusionA"
  type: "InnerProduct"
  bottom: "fusion_point"
  top: "fc1_fusionA"
  param {
    lr_mult: 1
    decay_mult: 1
  }
  param {
    lr_mult: 2
    decay_mult: 0
  }
  inner_product_param {
    num_output: 4096
    weight_filler {
      type: "gaussian"
      std: 0.01
    }
    bias_filler {
      type: "constant"
      value: 0.1
    }
  }
}
layer {
  name: "relu1_fusionA"
  type: "ReLU"
  bottom: "fc1_fusionA"
  top: "fc1_fusionA"
}
layer {
  name: "drop1_fusionA"
  type: "Dropout"
  bottom: "fc1_fusionA"
  top: "fc1_fusionA"
  dropout_param {
    dropout_ratio: 0.9
  }
}
layer {
  name: "reshape-data"
  type: "Reshape"
  bottom: "fc1_fusionA"
  top: "fc6-reshape"
  include {
    phase: TRAIN
  }
  reshape_param {
    shape {
      dim: 18
      dim: 8
      dim: 4096
    }
  }
}
layer {
  name: "reshape-label"
  type: "Reshape"
  bottom: "label"
  top: "reshape-label"
  include {
    phase: TRAIN
  }
  reshape_param {
    shape {
      dim: 18
      dim: 8
    }
  }
}
layer {
  name: "reshape-cm"
  type: "Reshape"
  bottom: "clip_markers"
  top: "reshape-cm"
  include {
    phase: TRAIN
  }
  reshape_param {
    shape {
      dim: 18
      dim: 8
    }
  }
}
layer {
  name: "lstm1"
  type: "LSTM"
  bottom: "fc6-reshape"
  bottom: "reshape-cm"
  top: "lstm1"
  recurrent_param {
    num_output: 256
    weight_filler {
      type: "uniform"
      min: -0.01
      max: 0.01
    }
    bias_filler {
      type: "constant"
      value: 0
    }
  }
}
layer {
  name: "lstm1-drop"
  type: "Dropout"
  bottom: "lstm1"
  top: "lstm1-drop"
  dropout_param {
    dropout_ratio: 0.5
  }
}
layer {
  name: "fc8-final"
  type: "InnerProduct"
  bottom: "lstm1-drop"
  top: "fc8-final"
  param {
    lr_mult: 10
    decay_mult: 1
  }
  param {
    lr_mult: 20
    decay_mult: 0
  }
  inner_product_param {
    num_output: 3
    weight_filler {
      type: "gaussian"
      std: 0.01
    }
    bias_filler {
      type: "constant"
      value: 0
    }
    axis: 2
  }
}
layer {
  name: "loss"
  type: "SoftmaxWithLoss"
  bottom: "fc8-final"
  bottom: "reshape-label"
  top: "loss"
  softmax_param {
    axis: 2
  }
}
layer {
  name: "accuracy"
  type: "Accuracy"
  bottom: "fc8-final"
  bottom: "reshape-label"
  top: "accuracy"
  accuracy_param {
    axis: 2
  }
}
I0202 14:15:34.488055 133479 layer_factory.hpp:74] Creating layer data
I0202 14:15:39.495437 133479 net.cpp:84] Creating Layer data
I0202 14:15:39.495473 133479 net.cpp:339] data -> data
I0202 14:15:39.495498 133479 net.cpp:339] data -> label
I0202 14:15:39.495512 133479 net.cpp:339] data -> clip_markers
I0202 14:15:39.495520 133479 net.cpp:113] Setting up data
I0202 14:16:17.863854 133479 net.cpp:120] Top shape: 144 3 227 227 (22260528)
I0202 14:16:17.863888 133479 net.cpp:120] Top shape: 144 (144)
I0202 14:16:17.863893 133479 net.cpp:120] Top shape: 144 (144)
I0202 14:16:17.863903 133479 layer_factory.hpp:74] Creating layer data2
I0202 14:16:17.867836 133479 net.cpp:84] Creating Layer data2
I0202 14:16:17.867852 133479 net.cpp:339] data2 -> data2
I0202 14:16:17.867880 133479 net.cpp:113] Setting up data2
Outputs: ['data', 'label', 'clip_markers']
I0202 14:16:51.178216 133479 net.cpp:120] Top shape: 144 3 227 227 (22260528)
I0202 14:16:51.178254 133479 layer_factory.hpp:74] Creating layer conv1_l
I0202 14:16:51.178277 133479 net.cpp:84] Creating Layer conv1_l
I0202 14:16:51.178288 133479 net.cpp:381] conv1_l <- data
I0202 14:16:51.178314 133479 net.cpp:339] conv1_l -> conv1_l
I0202 14:16:51.178337 133479 net.cpp:113] Setting up conv1_l
I0202 14:16:51.178774 133479 net.cpp:120] Top shape: 144 96 55 55 (41817600)
I0202 14:16:51.178802 133479 layer_factory.hpp:74] Creating layer relu1_l
I0202 14:16:51.178809 133479 net.cpp:84] Creating Layer relu1_l
I0202 14:16:51.178825 133479 net.cpp:381] relu1_l <- conv1_l
I0202 14:16:51.178833 133479 net.cpp:328] relu1_l -> conv1_l (in-place)
I0202 14:16:51.178839 133479 net.cpp:113] Setting up relu1_l
I0202 14:16:51.178846 133479 net.cpp:120] Top shape: 144 96 55 55 (41817600)
I0202 14:16:51.178850 133479 layer_factory.hpp:74] Creating layer pool1_l
I0202 14:16:51.178856 133479 net.cpp:84] Creating Layer pool1_l
I0202 14:16:51.178860 133479 net.cpp:381] pool1_l <- conv1_l
I0202 14:16:51.178864 133479 net.cpp:339] pool1_l -> pool1_l
I0202 14:16:51.178870 133479 net.cpp:113] Setting up pool1_l
I0202 14:16:51.178887 133479 net.cpp:120] Top shape: 144 96 27 27 (10077696)
I0202 14:16:51.178891 133479 layer_factory.hpp:74] Creating layer norm1_l
I0202 14:16:51.178902 133479 net.cpp:84] Creating Layer norm1_l
I0202 14:16:51.178906 133479 net.cpp:381] norm1_l <- pool1_l
I0202 14:16:51.178910 133479 net.cpp:339] norm1_l -> norm1_l
I0202 14:16:51.178916 133479 net.cpp:113] Setting up norm1_l
I0202 14:16:51.178923 133479 net.cpp:120] Top shape: 144 96 27 27 (10077696)
I0202 14:16:51.178930 133479 layer_factory.hpp:74] Creating layer conv2_l
I0202 14:16:51.178936 133479 net.cpp:84] Creating Layer conv2_l
I0202 14:16:51.178939 133479 net.cpp:381] conv2_l <- norm1_l
I0202 14:16:51.178946 133479 net.cpp:339] conv2_l -> conv2_l
I0202 14:16:51.178953 133479 net.cpp:113] Setting up conv2_l
I0202 14:16:51.182324 133479 net.cpp:120] Top shape: 144 256 27 27 (26873856)
I0202 14:16:51.182337 133479 layer_factory.hpp:74] Creating layer relu2_l
I0202 14:16:51.182343 133479 net.cpp:84] Creating Layer relu2_l
I0202 14:16:51.182348 133479 net.cpp:381] relu2_l <- conv2_l
I0202 14:16:51.182354 133479 net.cpp:328] relu2_l -> conv2_l (in-place)
I0202 14:16:51.182360 133479 net.cpp:113] Setting up relu2_l
I0202 14:16:51.182365 133479 net.cpp:120] Top shape: 144 256 27 27 (26873856)
I0202 14:16:51.182369 133479 layer_factory.hpp:74] Creating layer pool2_l
I0202 14:16:51.182374 133479 net.cpp:84] Creating Layer pool2_l
I0202 14:16:51.182379 133479 net.cpp:381] pool2_l <- conv2_l
I0202 14:16:51.182382 133479 net.cpp:339] pool2_l -> pool2_l
I0202 14:16:51.182387 133479 net.cpp:113] Setting up pool2_l
I0202 14:16:51.182395 133479 net.cpp:120] Top shape: 144 256 13 13 (6230016)
I0202 14:16:51.182399 133479 layer_factory.hpp:74] Creating layer norm2_l
I0202 14:16:51.182404 133479 net.cpp:84] Creating Layer norm2_l
I0202 14:16:51.182405 133479 net.cpp:381] norm2_l <- pool2_l
I0202 14:16:51.182412 133479 net.cpp:339] norm2_l -> norm2_l
I0202 14:16:51.182418 133479 net.cpp:113] Setting up norm2_l
I0202 14:16:51.182425 133479 net.cpp:120] Top shape: 144 256 13 13 (6230016)
I0202 14:16:51.182430 133479 layer_factory.hpp:74] Creating layer conv3_l
I0202 14:16:51.182436 133479 net.cpp:84] Creating Layer conv3_l
I0202 14:16:51.182440 133479 net.cpp:381] conv3_l <- norm2_l
I0202 14:16:51.182446 133479 net.cpp:339] conv3_l -> conv3_l
I0202 14:16:51.182451 133479 net.cpp:113] Setting up conv3_l
I0202 14:16:51.191838 133479 net.cpp:120] Top shape: 144 384 13 13 (9345024)
I0202 14:16:51.191859 133479 layer_factory.hpp:74] Creating layer relu3_l
I0202 14:16:51.191864 133479 net.cpp:84] Creating Layer relu3_l
I0202 14:16:51.191867 133479 net.cpp:381] relu3_l <- conv3_l
I0202 14:16:51.191874 133479 net.cpp:328] relu3_l -> conv3_l (in-place)
I0202 14:16:51.191879 133479 net.cpp:113] Setting up relu3_l
I0202 14:16:51.191884 133479 net.cpp:120] Top shape: 144 384 13 13 (9345024)
I0202 14:16:51.191887 133479 layer_factory.hpp:74] Creating layer conv4_l
I0202 14:16:51.191892 133479 net.cpp:84] Creating Layer conv4_l
I0202 14:16:51.191896 133479 net.cpp:381] conv4_l <- conv3_l
I0202 14:16:51.191910 133479 net.cpp:339] conv4_l -> conv4_l
I0202 14:16:51.191916 133479 net.cpp:113] Setting up conv4_l
I0202 14:16:51.198463 133479 net.cpp:120] Top shape: 144 384 13 13 (9345024)
I0202 14:16:51.198493 133479 layer_factory.hpp:74] Creating layer relu4_l
I0202 14:16:51.198499 133479 net.cpp:84] Creating Layer relu4_l
I0202 14:16:51.198503 133479 net.cpp:381] relu4_l <- conv4_l
I0202 14:16:51.198508 133479 net.cpp:328] relu4_l -> conv4_l (in-place)
I0202 14:16:51.198513 133479 net.cpp:113] Setting up relu4_l
I0202 14:16:51.198518 133479 net.cpp:120] Top shape: 144 384 13 13 (9345024)
I0202 14:16:51.198523 133479 layer_factory.hpp:74] Creating layer conv5_l
I0202 14:16:51.198527 133479 net.cpp:84] Creating Layer conv5_l
I0202 14:16:51.198530 133479 net.cpp:381] conv5_l <- conv4_l
I0202 14:16:51.198535 133479 net.cpp:339] conv5_l -> conv5_l
I0202 14:16:51.198540 133479 net.cpp:113] Setting up conv5_l
I0202 14:16:51.203114 133479 net.cpp:120] Top shape: 144 256 13 13 (6230016)
I0202 14:16:51.203141 133479 layer_factory.hpp:74] Creating layer relu5_l
I0202 14:16:51.203146 133479 net.cpp:84] Creating Layer relu5_l
I0202 14:16:51.203150 133479 net.cpp:381] relu5_l <- conv5_l
I0202 14:16:51.203155 133479 net.cpp:328] relu5_l -> conv5_l (in-place)
I0202 14:16:51.203160 133479 net.cpp:113] Setting up relu5_l
I0202 14:16:51.203163 133479 net.cpp:120] Top shape: 144 256 13 13 (6230016)
I0202 14:16:51.203166 133479 layer_factory.hpp:74] Creating layer pool5_l
I0202 14:16:51.203173 133479 net.cpp:84] Creating Layer pool5_l
I0202 14:16:51.203176 133479 net.cpp:381] pool5_l <- conv5_l
I0202 14:16:51.203179 133479 net.cpp:339] pool5_l -> pool5_l
I0202 14:16:51.203184 133479 net.cpp:113] Setting up pool5_l
I0202 14:16:51.203194 133479 net.cpp:120] Top shape: 144 256 6 6 (1327104)
I0202 14:16:51.203198 133479 layer_factory.hpp:74] Creating layer fc6_l
I0202 14:16:51.203204 133479 net.cpp:84] Creating Layer fc6_l
I0202 14:16:51.203207 133479 net.cpp:381] fc6_l <- pool5_l
I0202 14:16:51.203215 133479 net.cpp:339] fc6_l -> fc6_l
I0202 14:16:51.203224 133479 net.cpp:113] Setting up fc6_l
I0202 14:16:51.553866 133479 net.cpp:120] Top shape: 144 4096 (589824)
I0202 14:16:51.553910 133479 layer_factory.hpp:74] Creating layer relu6_l
I0202 14:16:51.553920 133479 net.cpp:84] Creating Layer relu6_l
I0202 14:16:51.553923 133479 net.cpp:381] relu6_l <- fc6_l
I0202 14:16:51.553930 133479 net.cpp:328] relu6_l -> fc6_l (in-place)
I0202 14:16:51.553947 133479 net.cpp:113] Setting up relu6_l
I0202 14:16:51.553956 133479 net.cpp:120] Top shape: 144 4096 (589824)
I0202 14:16:51.553958 133479 layer_factory.hpp:74] Creating layer drop6_l
I0202 14:16:51.553982 133479 net.cpp:84] Creating Layer drop6_l
I0202 14:16:51.553985 133479 net.cpp:381] drop6_l <- fc6_l
I0202 14:16:51.553989 133479 net.cpp:328] drop6_l -> fc6_l (in-place)
I0202 14:16:51.553995 133479 net.cpp:113] Setting up drop6_l
I0202 14:16:51.554006 133479 net.cpp:120] Top shape: 144 4096 (589824)
I0202 14:16:51.554010 133479 layer_factory.hpp:74] Creating layer conv1_r
I0202 14:16:51.554018 133479 net.cpp:84] Creating Layer conv1_r
I0202 14:16:51.554021 133479 net.cpp:381] conv1_r <- data2
I0202 14:16:51.554026 133479 net.cpp:339] conv1_r -> conv1_r
I0202 14:16:51.554036 133479 net.cpp:113] Setting up conv1_r
I0202 14:16:51.554405 133479 net.cpp:120] Top shape: 144 96 55 55 (41817600)
I0202 14:16:51.554414 133479 layer_factory.hpp:74] Creating layer relu1_r
I0202 14:16:51.554428 133479 net.cpp:84] Creating Layer relu1_r
I0202 14:16:51.554431 133479 net.cpp:381] relu1_r <- conv1_r
I0202 14:16:51.554435 133479 net.cpp:328] relu1_r -> conv1_r (in-place)
I0202 14:16:51.554440 133479 net.cpp:113] Setting up relu1_r
I0202 14:16:51.554443 133479 net.cpp:120] Top shape: 144 96 55 55 (41817600)
I0202 14:16:51.554446 133479 layer_factory.hpp:74] Creating layer pool1_r
I0202 14:16:51.554463 133479 net.cpp:84] Creating Layer pool1_r
I0202 14:16:51.554466 133479 net.cpp:381] pool1_r <- conv1_r
I0202 14:16:51.554469 133479 net.cpp:339] pool1_r -> pool1_r
I0202 14:16:51.554496 133479 net.cpp:113] Setting up pool1_r
I0202 14:16:51.554505 133479 net.cpp:120] Top shape: 144 96 27 27 (10077696)
I0202 14:16:51.554512 133479 layer_factory.hpp:74] Creating layer norm1_r
I0202 14:16:51.554517 133479 net.cpp:84] Creating Layer norm1_r
I0202 14:16:51.554522 133479 net.cpp:381] norm1_r <- pool1_r
I0202 14:16:51.554527 133479 net.cpp:339] norm1_r -> norm1_r
I0202 14:16:51.554533 133479 net.cpp:113] Setting up norm1_r
I0202 14:16:51.554539 133479 net.cpp:120] Top shape: 144 96 27 27 (10077696)
I0202 14:16:51.554543 133479 layer_factory.hpp:74] Creating layer conv2_r
I0202 14:16:51.554548 133479 net.cpp:84] Creating Layer conv2_r
I0202 14:16:51.554550 133479 net.cpp:381] conv2_r <- norm1_r
I0202 14:16:51.554554 133479 net.cpp:339] conv2_r -> conv2_r
I0202 14:16:51.554563 133479 net.cpp:113] Setting up conv2_r
I0202 14:16:51.558010 133479 net.cpp:120] Top shape: 144 256 27 27 (26873856)
I0202 14:16:51.558023 133479 layer_factory.hpp:74] Creating layer relu2_r
I0202 14:16:51.558028 133479 net.cpp:84] Creating Layer relu2_r
I0202 14:16:51.558032 133479 net.cpp:381] relu2_r <- conv2_r
I0202 14:16:51.558049 133479 net.cpp:328] relu2_r -> conv2_r (in-place)
I0202 14:16:51.558053 133479 net.cpp:113] Setting up relu2_r
I0202 14:16:51.558059 133479 net.cpp:120] Top shape: 144 256 27 27 (26873856)
I0202 14:16:51.558061 133479 layer_factory.hpp:74] Creating layer pool2_r
I0202 14:16:51.558065 133479 net.cpp:84] Creating Layer pool2_r
I0202 14:16:51.558069 133479 net.cpp:381] pool2_r <- conv2_r
I0202 14:16:51.558073 133479 net.cpp:339] pool2_r -> pool2_r
I0202 14:16:51.558077 133479 net.cpp:113] Setting up pool2_r
I0202 14:16:51.558084 133479 net.cpp:120] Top shape: 144 256 13 13 (6230016)
I0202 14:16:51.558094 133479 layer_factory.hpp:74] Creating layer norm2_r
I0202 14:16:51.558100 133479 net.cpp:84] Creating Layer norm2_r
I0202 14:16:51.558104 133479 net.cpp:381] norm2_r <- pool2_r
I0202 14:16:51.558109 133479 net.cpp:339] norm2_r -> norm2_r
I0202 14:16:51.558112 133479 net.cpp:113] Setting up norm2_r
I0202 14:16:51.558120 133479 net.cpp:120] Top shape: 144 256 13 13 (6230016)
I0202 14:16:51.558123 133479 layer_factory.hpp:74] Creating layer conv3_r
I0202 14:16:51.558127 133479 net.cpp:84] Creating Layer conv3_r
I0202 14:16:51.558132 133479 net.cpp:381] conv3_r <- norm2_r
I0202 14:16:51.558136 133479 net.cpp:339] conv3_r -> conv3_r
I0202 14:16:51.558141 133479 net.cpp:113] Setting up conv3_r
I0202 14:16:51.566859 133479 net.cpp:120] Top shape: 144 384 13 13 (9345024)
I0202 14:16:51.566884 133479 layer_factory.hpp:74] Creating layer relu3_r
I0202 14:16:51.566907 133479 net.cpp:84] Creating Layer relu3_r
I0202 14:16:51.566913 133479 net.cpp:381] relu3_r <- conv3_r
I0202 14:16:51.566920 133479 net.cpp:328] relu3_r -> conv3_r (in-place)
I0202 14:16:51.566927 133479 net.cpp:113] Setting up relu3_r
I0202 14:16:51.566933 133479 net.cpp:120] Top shape: 144 384 13 13 (9345024)
I0202 14:16:51.566937 133479 layer_factory.hpp:74] Creating layer conv4_r
I0202 14:16:51.566943 133479 net.cpp:84] Creating Layer conv4_r
I0202 14:16:51.566947 133479 net.cpp:381] conv4_r <- conv3_r
I0202 14:16:51.566952 133479 net.cpp:339] conv4_r -> conv4_r
I0202 14:16:51.566958 133479 net.cpp:113] Setting up conv4_r
I0202 14:16:51.573798 133479 net.cpp:120] Top shape: 144 384 13 13 (9345024)
I0202 14:16:51.573818 133479 layer_factory.hpp:74] Creating layer relu4_r
I0202 14:16:51.573837 133479 net.cpp:84] Creating Layer relu4_r
I0202 14:16:51.573843 133479 net.cpp:381] relu4_r <- conv4_r
I0202 14:16:51.573848 133479 net.cpp:328] relu4_r -> conv4_r (in-place)
I0202 14:16:51.573853 133479 net.cpp:113] Setting up relu4_r
I0202 14:16:51.573858 133479 net.cpp:120] Top shape: 144 384 13 13 (9345024)
I0202 14:16:51.573863 133479 layer_factory.hpp:74] Creating layer conv5_r
I0202 14:16:51.573873 133479 net.cpp:84] Creating Layer conv5_r
I0202 14:16:51.573876 133479 net.cpp:381] conv5_r <- conv4_r
I0202 14:16:51.573880 133479 net.cpp:339] conv5_r -> conv5_r
I0202 14:16:51.573887 133479 net.cpp:113] Setting up conv5_r
I0202 14:16:51.578450 133479 net.cpp:120] Top shape: 144 256 13 13 (6230016)
I0202 14:16:51.578462 133479 layer_factory.hpp:74] Creating layer relu5_r
I0202 14:16:51.578467 133479 net.cpp:84] Creating Layer relu5_r
I0202 14:16:51.578470 133479 net.cpp:381] relu5_r <- conv5_r
I0202 14:16:51.578487 133479 net.cpp:328] relu5_r -> conv5_r (in-place)
I0202 14:16:51.578493 133479 net.cpp:113] Setting up relu5_r
I0202 14:16:51.578497 133479 net.cpp:120] Top shape: 144 256 13 13 (6230016)
I0202 14:16:51.578501 133479 layer_factory.hpp:74] Creating layer pool5_r
I0202 14:16:51.578506 133479 net.cpp:84] Creating Layer pool5_r
I0202 14:16:51.578510 133479 net.cpp:381] pool5_r <- conv5_r
I0202 14:16:51.578514 133479 net.cpp:339] pool5_r -> pool5_r
I0202 14:16:51.578518 133479 net.cpp:113] Setting up pool5_r
I0202 14:16:51.578527 133479 net.cpp:120] Top shape: 144 256 6 6 (1327104)
I0202 14:16:51.578533 133479 layer_factory.hpp:74] Creating layer fc6_r
I0202 14:16:51.578541 133479 net.cpp:84] Creating Layer fc6_r
I0202 14:16:51.578544 133479 net.cpp:381] fc6_r <- pool5_r
I0202 14:16:51.578549 133479 net.cpp:339] fc6_r -> fc6_r
I0202 14:16:51.578554 133479 net.cpp:113] Setting up fc6_r
I0202 14:16:51.925165 133479 net.cpp:120] Top shape: 144 4096 (589824)
I0202 14:16:51.925205 133479 layer_factory.hpp:74] Creating layer relu6_r
I0202 14:16:51.925213 133479 net.cpp:84] Creating Layer relu6_r
I0202 14:16:51.925217 133479 net.cpp:381] relu6_r <- fc6_r
I0202 14:16:51.925225 133479 net.cpp:328] relu6_r -> fc6_r (in-place)
I0202 14:16:51.925231 133479 net.cpp:113] Setting up relu6_r
I0202 14:16:51.925236 133479 net.cpp:120] Top shape: 144 4096 (589824)
I0202 14:16:51.925238 133479 layer_factory.hpp:74] Creating layer drop6_r
I0202 14:16:51.925243 133479 net.cpp:84] Creating Layer drop6_r
I0202 14:16:51.925246 133479 net.cpp:381] drop6_r <- fc6_r
I0202 14:16:51.925249 133479 net.cpp:328] drop6_r -> fc6_r (in-place)
I0202 14:16:51.925253 133479 net.cpp:113] Setting up drop6_r
I0202 14:16:51.925269 133479 net.cpp:120] Top shape: 144 4096 (589824)
I0202 14:16:51.925272 133479 layer_factory.hpp:74] Creating layer fusion_point
I0202 14:16:51.925277 133479 net.cpp:84] Creating Layer fusion_point
I0202 14:16:51.925281 133479 net.cpp:381] fusion_point <- fc6_l
I0202 14:16:51.925285 133479 net.cpp:381] fusion_point <- fc6_r
I0202 14:16:51.925292 133479 net.cpp:339] fusion_point -> fusion_point
I0202 14:16:51.925300 133479 net.cpp:113] Setting up fusion_point
I0202 14:16:51.925307 133479 net.cpp:120] Top shape: 144 8192 (1179648)
I0202 14:16:51.925312 133479 layer_factory.hpp:74] Creating layer fc1_fusionA
I0202 14:16:51.925319 133479 net.cpp:84] Creating Layer fc1_fusionA
I0202 14:16:51.925323 133479 net.cpp:381] fc1_fusionA <- fusion_point
I0202 14:16:51.925329 133479 net.cpp:339] fc1_fusionA -> fc1_fusionA
I0202 14:16:51.925335 133479 net.cpp:113] Setting up fc1_fusionA
I0202 14:16:52.223127 133479 net.cpp:120] Top shape: 144 4096 (589824)
I0202 14:16:52.223170 133479 layer_factory.hpp:74] Creating layer relu1_fusionA
I0202 14:16:52.223178 133479 net.cpp:84] Creating Layer relu1_fusionA
I0202 14:16:52.223184 133479 net.cpp:381] relu1_fusionA <- fc1_fusionA
I0202 14:16:52.223191 133479 net.cpp:328] relu1_fusionA -> fc1_fusionA (in-place)
I0202 14:16:52.223196 133479 net.cpp:113] Setting up relu1_fusionA
I0202 14:16:52.223201 133479 net.cpp:120] Top shape: 144 4096 (589824)
I0202 14:16:52.223203 133479 layer_factory.hpp:74] Creating layer drop1_fusionA
I0202 14:16:52.223209 133479 net.cpp:84] Creating Layer drop1_fusionA
I0202 14:16:52.223212 133479 net.cpp:381] drop1_fusionA <- fc1_fusionA
I0202 14:16:52.223214 133479 net.cpp:328] drop1_fusionA -> fc1_fusionA (in-place)
I0202 14:16:52.223230 133479 net.cpp:113] Setting up drop1_fusionA
I0202 14:16:52.223235 133479 net.cpp:120] Top shape: 144 4096 (589824)
I0202 14:16:52.223238 133479 layer_factory.hpp:74] Creating layer reshape-data
I0202 14:16:52.223244 133479 net.cpp:84] Creating Layer reshape-data
I0202 14:16:52.223248 133479 net.cpp:381] reshape-data <- fc1_fusionA
I0202 14:16:52.223263 133479 net.cpp:339] reshape-data -> fc6-reshape
I0202 14:16:52.223273 133479 net.cpp:113] Setting up reshape-data
I0202 14:16:52.223285 133479 net.cpp:120] Top shape: 18 8 4096 (589824)
I0202 14:16:52.223289 133479 layer_factory.hpp:74] Creating layer reshape-label
I0202 14:16:52.223292 133479 net.cpp:84] Creating Layer reshape-label
I0202 14:16:52.223295 133479 net.cpp:381] reshape-label <- label
I0202 14:16:52.223300 133479 net.cpp:339] reshape-label -> reshape-label
I0202 14:16:52.223305 133479 net.cpp:113] Setting up reshape-label
I0202 14:16:52.223314 133479 net.cpp:120] Top shape: 18 8 (144)
I0202 14:16:52.223318 133479 layer_factory.hpp:74] Creating layer reshape-label_reshape-label_0_split
I0202 14:16:52.223323 133479 net.cpp:84] Creating Layer reshape-label_reshape-label_0_split
I0202 14:16:52.223325 133479 net.cpp:381] reshape-label_reshape-label_0_split <- reshape-label
I0202 14:16:52.223330 133479 net.cpp:339] reshape-label_reshape-label_0_split -> reshape-label_reshape-label_0_split_0
I0202 14:16:52.223335 133479 net.cpp:339] reshape-label_reshape-label_0_split -> reshape-label_reshape-label_0_split_1
I0202 14:16:52.223340 133479 net.cpp:113] Setting up reshape-label_reshape-label_0_split
I0202 14:16:52.223345 133479 net.cpp:120] Top shape: 18 8 (144)
I0202 14:16:52.223348 133479 net.cpp:120] Top shape: 18 8 (144)
I0202 14:16:52.223351 133479 layer_factory.hpp:74] Creating layer reshape-cm
I0202 14:16:52.223366 133479 net.cpp:84] Creating Layer reshape-cm
I0202 14:16:52.223372 133479 net.cpp:381] reshape-cm <- clip_markers
I0202 14:16:52.223377 133479 net.cpp:339] reshape-cm -> reshape-cm
I0202 14:16:52.223386 133479 net.cpp:113] Setting up reshape-cm
I0202 14:16:52.223392 133479 net.cpp:120] Top shape: 18 8 (144)
I0202 14:16:52.223394 133479 layer_factory.hpp:74] Creating layer lstm1
I0202 14:16:52.223399 133479 net.cpp:84] Creating Layer lstm1
I0202 14:16:52.223402 133479 net.cpp:381] lstm1 <- fc6-reshape
I0202 14:16:52.223407 133479 net.cpp:381] lstm1 <- reshape-cm
I0202 14:16:52.223410 133479 net.cpp:339] lstm1 -> lstm1
I0202 14:16:52.223417 133479 net.cpp:113] Setting up lstm1
I0202 14:16:52.223419 133479 recurrent_layer.cpp:27] Initializing recurrent layer: assuming input batch contains 18 timesteps of 8 independent streams.
I0202 14:16:52.224014 133479 net.cpp:42] Initializing net from parameters: 
input: "x"
input: "cont"
input: "c_0"
input: "h_0"
force_backward: true
input_shape {
  dim: 18
  dim: 8
  dim: 4096
}
input_shape {
  dim: 1
  dim: 18
  dim: 8
}
input_shape {
  dim: 1
  dim: 8
  dim: 256
}
input_shape {
  dim: 1
  dim: 8
  dim: 256
}
layer {
  name: "lstm1_cont_slice"
  type: "Slice"
  bottom: "cont"
  top: "cont_1"
  top: "cont_2"
  top: "cont_3"
  top: "cont_4"
  top: "cont_5"
  top: "cont_6"
  top: "cont_7"
  top: "cont_8"
  top: "cont_9"
  top: "cont_10"
  top: "cont_11"
  top: "cont_12"
  top: "cont_13"
  top: "cont_14"
  top: "cont_15"
  top: "cont_16"
  top: "cont_17"
  top: "cont_18"
  slice_param {
    axis: 1
  }
}
layer {
  name: "lstm1_x_transform"
  type: "InnerProduct"
  bottom: "x"
  top: "W_xc_x"
  param {
    name: "W_xc"
  }
  param {
    name: "b_c"
  }
  inner_product_param {
    num_output: 1024
    bias_term: true
    weight_filler {
      type: "uniform"
      min: -0.01
      max: 0.01
    }
    bias_filler {
      type: "constant"
      value: 0
    }
    axis: 2
  }
}
layer {
  name: "lstm1_W_xc_x_slice"
  type: "Slice"
  bottom: "W_xc_x"
  top: "W_xc_x_1"
  top: "W_xc_x_2"
  top: "W_xc_x_3"
  top: "W_xc_x_4"
  top: "W_xc_x_5"
  top: "W_xc_x_6"
  top: "W_xc_x_7"
  top: "W_xc_x_8"
  top: "W_xc_x_9"
  top: "W_xc_x_10"
  top: "W_xc_x_11"
  top: "W_xc_x_12"
  top: "W_xc_x_13"
  top: "W_xc_x_14"
  top: "W_xc_x_15"
  top: "W_xc_x_16"
  top: "W_xc_x_17"
  top: "W_xc_x_18"
  slice_param {
    axis: 0
  }
}
layer {
  name: "lstm1_h_conted_0"
  type: "Eltwise"
  bottom: "h_0"
  bottom: "cont_1"
  top: "h_conted_0"
  eltwise_param {
    operation: SUM
    coeff_blob: true
  }
}
layer {
  name: "lstm1_transform_1"
  type: "InnerProduct"
  bottom: "h_conted_0"
  top: "W_hc_h_0"
  param {
    name: "W_hc"
  }
  inner_product_param {
    num_output: 1024
    bias_term: false
    weight_filler {
      type: "uniform"
      min: -0.01
      max: 0.01
    }
    axis: 2
  }
}
layer {
  name: "lstm1_gate_input_1"
  type: "Eltwise"
  bottom: "W_hc_h_0"
  bottom: "W_xc_x_1"
  top: "gate_input_1"
  eltwise_param {
    operation: SUM
  }
}
layer {
  name: "lstm1_unit_1"
  type: "LSTMUnit"
  bottom: "c_0"
  bottom: "gate_input_1"
  bottom: "cont_1"
  top: "c_1"
  top: "h_1"
}
layer {
  name: "lstm1_h_conted_1"
  type: "Eltwise"
  bottom: "h_1"
  bottom: "cont_2"
  top: "h_conted_1"
  eltwise_param {
    operation: SUM
    coeff_blob: true
  }
}
layer {
  name: "lstm1_transform_2"
  type: "InnerProduct"
  bottom: "h_conted_1"
  top: "W_hc_h_1"
  param {
    name: "W_hc"
  }
  inner_product_param {
    num_output: 1024
    bias_term: false
    weight_filler {
      type: "uniform"
      min: -0.01
      max: 0.01
    }
    axis: 2
  }
}
layer {
  name: "lstm1_gate_input_2"
  type: "Eltwise"
  bottom: "W_hc_h_1"
  bottom: "W_xc_x_2"
  top: "gate_input_2"
  eltwise_param {
    operation: SUM
  }
}
layer {
  name: "lstm1_unit_2"
  type: "LSTMUnit"
  bottom: "c_1"
  bottom: "gate_input_2"
  bottom: "cont_2"
  top: "c_2"
  top: "h_2"
}
layer {
  name: "lstm1_h_conted_2"
  type: "Eltwise"
  bottom: "h_2"
  bottom: "cont_3"
  top: "h_conted_2"
  eltwise_param {
    operation: SUM
    coeff_blob: true
  }
}
layer {
  name: "lstm1_transform_3"
  type: "InnerProduct"
  bottom: "h_conted_2"
  top: "W_hc_h_2"
  param {
    name: "W_hc"
  }
  inner_product_param {
    num_output: 1024
    bias_term: false
    weight_filler {
      type: "uniform"
      min: -0.01
      max: 0.01
    }
    axis: 2
  }
}
layer {
  name: "lstm1_gate_input_3"
  type: "Eltwise"
  bottom: "W_hc_h_2"
  bottom: "W_xc_x_3"
  top: "gate_input_3"
  eltwise_param {
    operation: SUM
  }
}
layer {
  name: "lstm1_unit_3"
  type: "LSTMUnit"
  bottom: "c_2"
  bottom: "gate_input_3"
  bottom: "cont_3"
  top: "c_3"
  top: "h_3"
}
layer {
  name: "lstm1_h_conted_3"
  type: "Eltwise"
  bottom: "h_3"
  bottom: "cont_4"
  top: "h_conted_3"
  eltwise_param {
    operation: SUM
    coeff_blob: true
  }
}
layer {
  name: "lstm1_transform_4"
  type: "InnerProduct"
  bottom: "h_conted_3"
  top: "W_hc_h_3"
  param {
    name: "W_hc"
  }
  inner_product_param {
    num_output: 1024
    bias_term: false
    weight_filler {
      type: "uniform"
      min: -0.01
      max: 0.01
    }
    axis: 2
  }
}
layer {
  name: "lstm1_gate_input_4"
  type: "Eltwise"
  bottom: "W_hc_h_3"
  bottom: "W_xc_x_4"
  top: "gate_input_4"
  eltwise_param {
    operation: SUM
  }
}
layer {
  name: "lstm1_unit_4"
  type: "LSTMUnit"
  bottom: "c_3"
  bottom: "gate_input_4"
  bottom: "cont_4"
  top: "c_4"
  top: "h_4"
}
layer {
  name: "lstm1_h_conted_4"
  type: "Eltwise"
  bottom: "h_4"
  bottom: "cont_5"
  top: "h_conted_4"
  eltwise_param {
    operation: SUM
    coeff_blob: true
  }
}
layer {
  name: "lstm1_transform_5"
  type: "InnerProduct"
  bottom: "h_conted_4"
  top: "W_hc_h_4"
  param {
    name: "W_hc"
  }
  inner_product_param {
    num_output: 1024
    bias_term: false
    weight_filler {
      type: "uniform"
      min: -0.01
      max: 0.01
    }
    axis: 2
  }
}
layer {
  name: "lstm1_gate_input_5"
  type: "Eltwise"
  bottom: "W_hc_h_4"
  bottom: "W_xc_x_5"
  top: "gate_input_5"
  eltwise_param {
    operation: SUM
  }
}
layer {
  name: "lstm1_unit_5"
  type: "LSTMUnit"
  bottom: "c_4"
  bottom: "gate_input_5"
  bottom: "cont_5"
  top: "c_5"
  top: "h_5"
}
layer {
  name: "lstm1_h_conted_5"
  type: "Eltwise"
  bottom: "h_5"
  bottom: "cont_6"
  top: "h_conted_5"
  eltwise_param {
    operation: SUM
    coeff_blob: true
  }
}
layer {
  name: "lstm1_transform_6"
  type: "InnerProduct"
  bottom: "h_conted_5"
  top: "W_hc_h_5"
  param {
    name: "W_hc"
  }
  inner_product_param {
    num_output: 1024
    bias_term: false
    weight_filler {
      type: "uniform"
      min: -0.01
      max: 0.01
    }
    axis: 2
  }
}
layer {
  name: "lstm1_gate_input_6"
  type: "Eltwise"
  bottom: "W_hc_h_5"
  bottom: "W_xc_x_6"
  top: "gate_input_6"
  eltwise_param {
    operation: SUM
  }
}
layer {
  name: "lstm1_unit_6"
  type: "LSTMUnit"
  bottom: "c_5"
  bottom: "gate_input_6"
  bottom: "cont_6"
  top: "c_6"
  top: "h_6"
}
layer {
  name: "lstm1_h_conted_6"
  type: "Eltwise"
  bottom: "h_6"
  bottom: "cont_7"
  top: "h_conted_6"
  eltwise_param {
    operation: SUM
    coeff_blob: true
  }
}
layer {
  name: "lstm1_transform_7"
  type: "InnerProduct"
  bottom: "h_conted_6"
  top: "W_hc_h_6"
  param {
    name: "W_hc"
  }
  inner_product_param {
    num_output: 1024
    bias_term: false
    weight_filler {
      type: "uniform"
      min: -0.01
      max: 0.01
    }
    axis: 2
  }
}
layer {
  name: "lstm1_gate_input_7"
  type: "Eltwise"
  bottom: "W_hc_h_6"
  bottom: "W_xc_x_7"
  top: "gate_input_7"
  eltwise_param {
    operation: SUM
  }
}
layer {
  name: "lstm1_unit_7"
  type: "LSTMUnit"
  bottom: "c_6"
  bottom: "gate_input_7"
  bottom: "cont_7"
  top: "c_7"
  top: "h_7"
}
layer {
  name: "lstm1_h_conted_7"
  type: "Eltwise"
  bottom: "h_7"
  bottom: "cont_8"
  top: "h_conted_7"
  eltwise_param {
    operation: SUM
    coeff_blob: true
  }
}
layer {
  name: "lstm1_transform_8"
  type: "InnerProduct"
  bottom: "h_conted_7"
  top: "W_hc_h_7"
  param {
    name: "W_hc"
  }
  inner_product_param {
    num_output: 1024
    bias_term: false
    weight_filler {
      type: "uniform"
      min: -0.01
      max: 0.01
    }
    axis: 2
  }
}
layer {
  name: "lstm1_gate_input_8"
  type: "Eltwise"
  bottom: "W_hc_h_7"
  bottom: "W_xc_x_8"
  top: "gate_input_8"
  eltwise_param {
    operation: SUM
  }
}
layer {
  name: "lstm1_unit_8"
  type: "LSTMUnit"
  bottom: "c_7"
  bottom: "gate_input_8"
  bottom: "cont_8"
  top: "c_8"
  top: "h_8"
}
layer {
  name: "lstm1_h_conted_8"
  type: "Eltwise"
  bottom: "h_8"
  bottom: "cont_9"
  top: "h_conted_8"
  eltwise_param {
    operation: SUM
    coeff_blob: true
  }
}
layer {
  name: "lstm1_transform_9"
  type: "InnerProduct"
  bottom: "h_conted_8"
  top: "W_hc_h_8"
  param {
    name: "W_hc"
  }
  inner_product_param {
    num_output: 1024
    bias_term: false
    weight_filler {
      type: "uniform"
      min: -0.01
      max: 0.01
    }
    axis: 2
  }
}
layer {
  name: "lstm1_gate_input_9"
  type: "Eltwise"
  bottom: "W_hc_h_8"
  bottom: "W_xc_x_9"
  top: "gate_input_9"
  eltwise_param {
    operation: SUM
  }
}
layer {
  name: "lstm1_unit_9"
  type: "LSTMUnit"
  bottom: "c_8"
  bottom: "gate_input_9"
  bottom: "cont_9"
  top: "c_9"
  top: "h_9"
}
layer {
  name: "lstm1_h_conted_9"
  type: "Eltwise"
  bottom: "h_9"
  bottom: "cont_10"
  top: "h_conted_9"
  eltwise_param {
    operation: SUM
    coeff_blob: true
  }
}
layer {
  name: "lstm1_transform_10"
  type: "InnerProduct"
  bottom: "h_conted_9"
  top: "W_hc_h_9"
  param {
    name: "W_hc"
  }
  inner_product_param {
    num_output: 1024
    bias_term: false
    weight_filler {
      type: "uniform"
      min: -0.01
      max: 0.01
    }
    axis: 2
  }
}
layer {
  name: "lstm1_gate_input_10"
  type: "Eltwise"
  bottom: "W_hc_h_9"
  bottom: "W_xc_x_10"
  top: "gate_input_10"
  eltwise_param {
    operation: SUM
  }
}
layer {
  name: "lstm1_unit_10"
  type: "LSTMUnit"
  bottom: "c_9"
  bottom: "gate_input_10"
  bottom: "cont_10"
  top: "c_10"
  top: "h_10"
}
layer {
  name: "lstm1_h_conted_10"
  type: "Eltwise"
  bottom: "h_10"
  bottom: "cont_11"
  top: "h_conted_10"
  eltwise_param {
    operation: SUM
    coeff_blob: true
  }
}
layer {
  name: "lstm1_transform_11"
  type: "InnerProduct"
  bottom: "h_conted_10"
  top: "W_hc_h_10"
  param {
    name: "W_hc"
  }
  inner_product_param {
    num_output: 1024
    bias_term: false
    weight_filler {
      type: "uniform"
      min: -0.01
      max: 0.01
    }
    axis: 2
  }
}
layer {
  name: "lstm1_gate_input_11"
  type: "Eltwise"
  bottom: "W_hc_h_10"
  bottom: "W_xc_x_11"
  top: "gate_input_11"
  eltwise_param {
    operation: SUM
  }
}
layer {
  name: "lstm1_unit_11"
  type: "LSTMUnit"
  bottom: "c_10"
  bottom: "gate_input_11"
  bottom: "cont_11"
  top: "c_11"
  top: "h_11"
}
layer {
  name: "lstm1_h_conted_11"
  type: "Eltwise"
  bottom: "h_11"
  bottom: "cont_12"
  top: "h_conted_11"
  eltwise_param {
    operation: SUM
    coeff_blob: true
  }
}
layer {
  name: "lstm1_transform_12"
  type: "InnerProduct"
  bottom: "h_conted_11"
  top: "W_hc_h_11"
  param {
    name: "W_hc"
  }
  inner_product_param {
    num_output: 1024
    bias_term: false
    weight_filler {
      type: "uniform"
      min: -0.01
      max: 0.01
    }
    axis: 2
  }
}
layer {
  name: "lstm1_gate_input_12"
  type: "Eltwise"
  bottom: "W_hc_h_11"
  bottom: "W_xc_x_12"
  top: "gate_input_12"
  eltwise_param {
    operation: SUM
  }
}
layer {
  name: "lstm1_unit_12"
  type: "LSTMUnit"
  bottom: "c_11"
  bottom: "gate_input_12"
  bottom: "cont_12"
  top: "c_12"
  top: "h_12"
}
layer {
  name: "lstm1_h_conted_12"
  type: "Eltwise"
  bottom: "h_12"
  bottom: "cont_13"
  top: "h_conted_12"
  eltwise_param {
    operation: SUM
    coeff_blob: true
  }
}
layer {
  name: "lstm1_transform_13"
  type: "InnerProduct"
  bottom: "h_conted_12"
  top: "W_hc_h_12"
  param {
    name: "W_hc"
  }
  inner_product_param {
    num_output: 1024
    bias_term: false
    weight_filler {
      type: "uniform"
      min: -0.01
      max: 0.01
    }
    axis: 2
  }
}
layer {
  name: "lstm1_gate_input_13"
  type: "Eltwise"
  bottom: "W_hc_h_12"
  bottom: "W_xc_x_13"
  top: "gate_input_13"
  eltwise_param {
    operation: SUM
  }
}
layer {
  name: "lstm1_unit_13"
  type: "LSTMUnit"
  bottom: "c_12"
  bottom: "gate_input_13"
  bottom: "cont_13"
  top: "c_13"
  top: "h_13"
}
layer {
  name: "lstm1_h_conted_13"
  type: "Eltwise"
  bottom: "h_13"
  bottom: "cont_14"
  top: "h_conted_13"
  eltwise_param {
    operation: SUM
    coeff_blob: true
  }
}
layer {
  name: "lstm1_transform_14"
  type: "InnerProduct"
  bottom: "h_conted_13"
  top: "W_hc_h_13"
  param {
    name: "W_hc"
  }
  inner_product_param {
    num_output: 1024
    bias_term: false
    weight_filler {
      type: "uniform"
      min: -0.01
      max: 0.01
    }
    axis: 2
  }
}
layer {
  name: "lstm1_gate_input_14"
  type: "Eltwise"
  bottom: "W_hc_h_13"
  bottom: "W_xc_x_14"
  top: "gate_input_14"
  eltwise_param {
    operation: SUM
  }
}
layer {
  name: "lstm1_unit_14"
  type: "LSTMUnit"
  bottom: "c_13"
  bottom: "gate_input_14"
  bottom: "cont_14"
  top: "c_14"
  top: "h_14"
}
layer {
  name: "lstm1_h_conted_14"
  type: "Eltwise"
  bottom: "h_14"
  bottom: "cont_15"
  top: "h_conted_14"
  eltwise_param {
    operation: SUM
    coeff_blob: true
  }
}
layer {
  name: "lstm1_transform_15"
  type: "InnerProduct"
  bottom: "h_conted_14"
  top: "W_hc_h_14"
  param {
    name: "W_hc"
  }
  inner_product_param {
    num_output: 1024
    bias_term: false
    weight_filler {
      type: "uniform"
      min: -0.01
      max: 0.01
    }
    axis: 2
  }
}
layer {
  name: "lstm1_gate_input_15"
  type: "Eltwise"
  bottom: "W_hc_h_14"
  bottom: "W_xc_x_15"
  top: "gate_input_15"
  eltwise_param {
    operation: SUM
  }
}
layer {
  name: "lstm1_unit_15"
  type: "LSTMUnit"
  bottom: "c_14"
  bottom: "gate_input_15"
  bottom: "cont_15"
  top: "c_15"
  top: "h_15"
}
layer {
  name: "lstm1_h_conted_15"
  type: "Eltwise"
  bottom: "h_15"
  bottom: "cont_16"
  top: "h_conted_15"
  eltwise_param {
    operation: SUM
    coeff_blob: true
  }
}
layer {
  name: "lstm1_transform_16"
  type: "InnerProduct"
  bottom: "h_conted_15"
  top: "W_hc_h_15"
  param {
    name: "W_hc"
  }
  inner_product_param {
    num_output: 1024
    bias_term: false
    weight_filler {
      type: "uniform"
      min: -0.01
      max: 0.01
    }
    axis: 2
  }
}
layer {
  name: "lstm1_gate_input_16"
  type: "Eltwise"
  bottom: "W_hc_h_15"
  bottom: "W_xc_x_16"
  top: "gate_input_16"
  eltwise_param {
    operation: SUM
  }
}
layer {
  name: "lstm1_unit_16"
  type: "LSTMUnit"
  bottom: "c_15"
  bottom: "gate_input_16"
  bottom: "cont_16"
  top: "c_16"
  top: "h_16"
}
layer {
  name: "lstm1_h_conted_16"
  type: "Eltwise"
  bottom: "h_16"
  bottom: "cont_17"
  top: "h_conted_16"
  eltwise_param {
    operation: SUM
    coeff_blob: true
  }
}
layer {
  name: "lstm1_transform_17"
  type: "InnerProduct"
  bottom: "h_conted_16"
  top: "W_hc_h_16"
  param {
    name: "W_hc"
  }
  inner_product_param {
    num_output: 1024
    bias_term: false
    weight_filler {
      type: "uniform"
      min: -0.01
      max: 0.01
    }
    axis: 2
  }
}
layer {
  name: "lstm1_gate_input_17"
  type: "Eltwise"
  bottom: "W_hc_h_16"
  bottom: "W_xc_x_17"
  top: "gate_input_17"
  eltwise_param {
    operation: SUM
  }
}
layer {
  name: "lstm1_unit_17"
  type: "LSTMUnit"
  bottom: "c_16"
  bottom: "gate_input_17"
  bottom: "cont_17"
  top: "c_17"
  top: "h_17"
}
layer {
  name: "lstm1_h_conted_17"
  type: "Eltwise"
  bottom: "h_17"
  bottom: "cont_18"
  top: "h_conted_17"
  eltwise_param {
    operation: SUM
    coeff_blob: true
  }
}
layer {
  name: "lstm1_transform_18"
  type: "InnerProduct"
  bottom: "h_conted_17"
  top: "W_hc_h_17"
  param {
    name: "W_hc"
  }
  inner_product_param {
    num_output: 1024
    bias_term: false
    weight_filler {
      type: "uniform"
      min: -0.01
      max: 0.01
    }
    axis: 2
  }
}
layer {
  name: "lstm1_gate_input_18"
  type: "Eltwise"
  bottom: "W_hc_h_17"
  bottom: "W_xc_x_18"
  top: "gate_input_18"
  eltwise_param {
    operation: SUM
  }
}
layer {
  name: "lstm1_unit_18"
  type: "LSTMUnit"
  bottom: "c_17"
  bottom: "gate_input_18"
  bottom: "cont_18"
  top: "c_18"
  top: "h_18"
}
layer {
  name: "lstm1_"
  type: "Split"
  bottom: "c_18"
  top: "c_T"
}
layer {
  name: "lstm1_h_concat"
  type: "Concat"
  bottom: "h_1"
  bottom: "h_2"
  bottom: "h_3"
  bottom: "h_4"
  bottom: "h_5"
  bottom: "h_6"
  bottom: "h_7"
  bottom: "h_8"
  bottom: "h_9"
  bottom: "h_10"
  bottom: "h_11"
  bottom: "h_12"
  bottom: "h_13"
  bottom: "h_14"
  bottom: "h_15"
  bottom: "h_16"
  bottom: "h_17"
  bottom: "h_18"
  top: "h"
  concat_param {
    axis: 0
  }
}
I0202 14:16:52.224509 133479 net.cpp:341] Input 0 -> x
I0202 14:16:52.224519 133479 net.cpp:341] Input 1 -> cont
I0202 14:16:52.224524 133479 net.cpp:341] Input 2 -> c_0
I0202 14:16:52.224529 133479 net.cpp:341] Input 3 -> h_0
I0202 14:16:52.224556 133479 layer_factory.hpp:74] Creating layer lstm1_cont_slice
I0202 14:16:52.224565 133479 net.cpp:84] Creating Layer lstm1_cont_slice
…
I0202 14:16:52.224637 133479 net.cpp:339] lstm1_cont_slice -> cont_12
I0202 14:16:52.224642 133479 net.cpp:339] lstm1_cont_slice -> cont_13
I0202 14:16:52.224648 133479 net.cpp:339] lstm1_cont_slice -> cont_14
I0202 14:16:52.224653 133479 net.cpp:339] lstm1_cont_slice -> cont_15
I0202 14:16:52.224658 133479 net.cpp:339] lstm1_cont_slice -> cont_16
I0202 14:16:52.224664 133479 net.cpp:339] lstm1_cont_slice -> cont_17
I0202 14:16:52.224669 133479 net.cpp:339] lstm1_cont_slice -> cont_18
I0202 14:16:52.224674 133479 net.cpp:113] Setting up lstm1_cont_slice
I0202 14:16:52.224684 133479 net.cpp:120] Top shape: 1 1 8 (8)
I0202 14:16:52.224710 133479 net.cpp:120] Top shape: 1 1 8 (8)
I0202 14:16:52.224716 133479 net.cpp:120] Top shape: 1 1 8 (8)
I0202 14:16:52.224720 133479 net.cpp:120] Top shape: 1 1 8 (8)
I0202 14:16:52.224722 133479 net.cpp:120] Top shape: 1 1 8 (8)
I0202 14:16:52.224725 133479 net.cpp:120] Top shape: 1 1 8 (8)
I0202 14:16:52.224730 133479 net.cpp:120] Top shape: 1 1 8 (8)
I0202 14:16:52.224732 133479 net.cpp:120] Top shape: 1 1 8 (8)
I0202 14:16:52.224735 133479 net.cpp:120] Top shape: 1 1 8 (8)
I0202 14:16:52.224737 133479 net.cpp:120] Top shape: 1 1 8 (8)
I0202 14:16:52.224740 133479 net.cpp:120] Top shape: 1 1 8 (8)
I0202 14:16:52.224743 133479 net.cpp:120] Top shape: 1 1 8 (8)
I0202 14:16:52.224746 133479 net.cpp:120] Top shape: 1 1 8 (8)
I0202 14:16:52.224750 133479 net.cpp:120] Top shape: 1 1 8 (8)
I0202 14:16:52.224752 133479 net.cpp:120] Top shape: 1 1 8 (8)
I0202 14:16:52.224756 133479 net.cpp:120] Top shape: 1 1 8 (8)
I0202 14:16:52.224758 133479 net.cpp:120] Top shape: 1 1 8 (8)
I0202 14:16:52.224761 133479 net.cpp:120] Top shape: 1 1 8 (8)
I0202 14:16:52.224764 133479 layer_factory.hpp:74] Creating layer cont_1_lstm1_cont_slice_0_split
I0202 14:16:52.224769 133479 net.cpp:84] Creating Layer cont_1_lstm1_cont_slice_0_split
I0202 14:16:52.224772 133479 net.cpp:381] cont_1_lstm1_cont_slice_0_split <- cont_1
I0202 14:16:52.224777 133479 net.cpp:339] cont_1_lstm1_cont_slice_0_split -> cont_1_lstm1_cont_slice_0_split_0
I0202 14:16:52.224783 133479 net.cpp:339] cont_1_lstm1_cont_slice_0_split -> cont_1_lstm1_cont_slice_0_split_1
I0202 14:16:52.224788 133479 net.cpp:113] Setting up cont_1_lstm1_cont_slice_0_split
I0202 14:16:52.224792 133479 net.cpp:120] Top shape: 1 1 8 (8)
I0202 14:16:52.224795 133479 net.cpp:120] Top shape: 1 1 8 (8)
I0202 14:16:52.224798 133479 layer_factory.hpp:74] Creating layer cont_2_lstm1_cont_slice_1_split
I0202 14:16:52.224810 133479 net.cpp:84] Creating Layer cont_2_lstm1_cont_slice_1_split
I0202 14:16:52.224814 133479 net.cpp:381] cont_2_lstm1_cont_slice_1_split <- cont_2
I0202 14:16:52.224818 133479 net.cpp:339] cont_2_lstm1_cont_slice_1_split -> cont_2_lstm1_cont_slice_1_split_0
I0202 14:16:52.224824 133479 net.cpp:339] cont_2_lstm1_cont_slice_1_split -> cont_2_lstm1_cont_slice_1_split_1
I0202 14:16:52.224828 133479 net.cpp:113] Setting up cont_2_lstm1_cont_slice_1_split
I0202 14:16:52.224833 133479 net.cpp:120] Top shape: 1 1 8 (8)
I0202 14:16:52.224835 133479 net.cpp:120] Top shape: 1 1 8 (8)
I0202 14:16:52.224838 133479 layer_factory.hpp:74] Creating layer cont_3_lstm1_cont_slice_2_split
I0202 14:16:52.224841 133479 net.cpp:84] Creating Layer cont_3_lstm1_cont_slice_2_split
I0202 14:16:52.224843 133479 net.cpp:381] cont_3_lstm1_cont_slice_2_split <- cont_3
I0202 14:16:52.224848 133479 net.cpp:339] cont_3_lstm1_cont_slice_2_split -> cont_3_lstm1_cont_slice_2_split_0
I0202 14:16:52.224853 133479 net.cpp:339] cont_3_lstm1_cont_slice_2_split -> cont_3_lstm1_cont_slice_2_split_1
I0202 14:16:52.224856 133479 net.cpp:113] Setting up cont_3_lstm1_cont_slice_2_split
I0202 14:16:52.224860 133479 net.cpp:120] Top shape: 1 1 8 (8)
I0202 14:16:52.224864 133479 net.cpp:120] Top shape: 1 1 8 (8)
I0202 14:16:52.224865 133479 layer_factory.hpp:74] Creating layer cont_4_lstm1_cont_slice_3_split
I0202 14:16:52.224870 133479 net.cpp:84] Creating Layer cont_4_lstm1_cont_slice_3_split
I0202 14:16:52.224874 133479 net.cpp:381] cont_4_lstm1_cont_slice_3_split <- cont_4
I0202 14:16:52.224876 133479 net.cpp:339] cont_4_lstm1_cont_slice_3_split -> cont_4_lstm1_cont_slice_3_split_0
I0202 14:16:52.224881 133479 net.cpp:339] cont_4_lstm1_cont_slice_3_split -> cont_4_lstm1_cont_slice_3_split_1
I0202 14:16:52.224885 133479 net.cpp:113] Setting up cont_4_lstm1_cont_slice_3_split
I0202 14:16:52.224889 133479 net.cpp:120] Top shape: 1 1 8 (8)
I0202 14:16:52.224892 133479 net.cpp:120] Top shape: 1 1 8 (8)
I0202 14:16:52.224895 133479 layer_factory.hpp:74] Creating layer cont_5_lstm1_cont_slice_4_split
I0202 14:16:52.224898 133479 net.cpp:84] Creating Layer cont_5_lstm1_cont_slice_4_split
I0202 14:16:52.224900 133479 net.cpp:381] cont_5_lstm1_cont_slice_4_split <- cont_5
I0202 14:16:52.224905 133479 net.cpp:339] cont_5_lstm1_cont_slice_4_split -> cont_5_lstm1_cont_slice_4_split_0
I0202 14:16:52.224908 133479 net.cpp:339] cont_5_lstm1_cont_slice_4_split -> cont_5_lstm1_cont_slice_4_split_1
I0202 14:16:52.224912 133479 net.cpp:113] Setting up cont_5_lstm1_cont_slice_4_split
I0202 14:16:52.224916 133479 net.cpp:120] Top shape: 1 1 8 (8)
I0202 14:16:52.224920 133479 net.cpp:120] Top shape: 1 1 8 (8)
I0202 14:16:52.224921 133479 layer_factory.hpp:74] Creating layer cont_6_lstm1_cont_slice_5_split
I0202 14:16:52.224925 133479 net.cpp:84] Creating Layer cont_6_lstm1_cont_slice_5_split
I0202 14:16:52.224927 133479 net.cpp:381] cont_6_lstm1_cont_slice_5_split <- cont_6
I0202 14:16:52.224931 133479 net.cpp:339] cont_6_lstm1_cont_slice_5_split -> cont_6_lstm1_cont_slice_5_split_0
I0202 14:16:52.224938 133479 net.cpp:339] cont_6_lstm1_cont_slice_5_split -> cont_6_lstm1_cont_slice_5_split_1
I0202 14:16:52.224942 133479 net.cpp:113] Setting up cont_6_lstm1_cont_slice_5_split
I0202 14:16:52.224946 133479 net.cpp:120] Top shape: 1 1 8 (8)
I0202 14:16:52.224949 133479 net.cpp:120] Top shape: 1 1 8 (8)
I0202 14:16:52.224951 133479 layer_factory.hpp:74] Creating layer cont_7_lstm1_cont_slice_6_split
I0202 14:16:52.224954 133479 net.cpp:84] Creating Layer cont_7_lstm1_cont_slice_6_split
I0202 14:16:52.224964 133479 net.cpp:381] cont_7_lstm1_cont_slice_6_split <- cont_7
I0202 14:16:52.224968 133479 net.cpp:339] cont_7_lstm1_cont_slice_6_split -> cont_7_lstm1_cont_slice_6_split_0
I0202 14:16:52.224973 133479 net.cpp:339] cont_7_lstm1_cont_slice_6_split -> cont_7_lstm1_cont_slice_6_split_1
I0202 14:16:52.224977 133479 net.cpp:113] Setting up cont_7_lstm1_cont_slice_6_split
I0202 14:16:52.224982 133479 net.cpp:120] Top shape: 1 1 8 (8)
I0202 14:16:52.224984 133479 net.cpp:120] Top shape: 1 1 8 (8)
I0202 14:16:52.224987 133479 layer_factory.hpp:74] Creating layer cont_8_lstm1_cont_slice_7_split
I0202 14:16:52.224992 133479 net.cpp:84] Creating Layer cont_8_lstm1_cont_slice_7_split
I0202 14:16:52.224994 133479 net.cpp:381] cont_8_lstm1_cont_slice_7_split <- cont_8
I0202 14:16:52.224997 133479 net.cpp:339] cont_8_lstm1_cont_slice_7_split -> cont_8_lstm1_cont_slice_7_split_0
I0202 14:16:52.225003 133479 net.cpp:339] cont_8_lstm1_cont_slice_7_split -> cont_8_lstm1_cont_slice_7_split_1
I0202 14:16:52.225013 133479 net.cpp:113] Setting up cont_8_lstm1_cont_slice_7_split
I0202 14:16:52.225016 133479 net.cpp:120] Top shape: 1 1 8 (8)
I0202 14:16:52.225019 133479 net.cpp:120] Top shape: 1 1 8 (8)
I0202 14:16:52.225023 133479 layer_factory.hpp:74] Creating layer cont_9_lstm1_cont_slice_8_split
I0202 14:16:52.225026 133479 net.cpp:84] Creating Layer cont_9_lstm1_cont_slice_8_split
I0202 14:16:52.225028 133479 net.cpp:381] cont_9_lstm1_cont_slice_8_split <- cont_9
I0202 14:16:52.225033 133479 net.cpp:339] cont_9_lstm1_cont_slice_8_split -> cont_9_lstm1_cont_slice_8_split_0
I0202 14:16:52.225037 133479 net.cpp:339] cont_9_lstm1_cont_slice_8_split -> cont_9_lstm1_cont_slice_8_split_1
I0202 14:16:52.225041 133479 net.cpp:113] Setting up cont_9_lstm1_cont_slice_8_split
I0202 14:16:52.225045 133479 net.cpp:120] Top shape: 1 1 8 (8)
I0202 14:16:52.225049 133479 net.cpp:120] Top shape: 1 1 8 (8)
I0202 14:16:52.225050 133479 layer_factory.hpp:74] Creating layer cont_10_lstm1_cont_slice_9_split
I0202 14:16:52.225054 133479 net.cpp:84] Creating Layer cont_10_lstm1_cont_slice_9_split
I0202 14:16:52.225056 133479 net.cpp:381] cont_10_lstm1_cont_slice_9_split <- cont_10
I0202 14:16:52.225059 133479 net.cpp:339] cont_10_lstm1_cont_slice_9_split -> cont_10_lstm1_cont_slice_9_split_0
I0202 14:16:52.225064 133479 net.cpp:339] cont_10_lstm1_cont_slice_9_split -> cont_10_lstm1_cont_slice_9_split_1
I0202 14:16:52.225069 133479 net.cpp:113] Setting up cont_10_lstm1_cont_slice_9_split
I0202 14:16:52.225072 133479 net.cpp:120] Top shape: 1 1 8 (8)
I0202 14:16:52.225075 133479 net.cpp:120] Top shape: 1 1 8 (8)
I0202 14:16:52.225077 133479 layer_factory.hpp:74] Creating layer cont_11_lstm1_cont_slice_10_split
I0202 14:16:52.225080 133479 net.cpp:84] Creating Layer cont_11_lstm1_cont_slice_10_split
I0202 14:16:52.225088 133479 net.cpp:381] cont_11_lstm1_cont_slice_10_split <- cont_11
I0202 14:16:52.225093 133479 net.cpp:339] cont_11_lstm1_cont_slice_10_split -> cont_11_lstm1_cont_slice_10_split_0
I0202 14:16:52.225097 133479 net.cpp:339] cont_11_lstm1_cont_slice_10_split -> cont_11_lstm1_cont_slice_10_split_1
I0202 14:16:52.225101 133479 net.cpp:113] Setting up cont_11_lstm1_cont_slice_10_split
I0202 14:16:52.225106 133479 net.cpp:120] Top shape: 1 1 8 (8)
I0202 14:16:52.225108 133479 net.cpp:120] Top shape: 1 1 8 (8)
I0202 14:16:52.225111 133479 layer_factory.hpp:74] Creating layer cont_12_lstm1_cont_slice_11_split
I0202 14:16:52.225114 133479 net.cpp:84] Creating Layer cont_12_lstm1_cont_slice_11_split
I0202 14:16:52.225116 133479 net.cpp:381] cont_12_lstm1_cont_slice_11_split <- cont_12
I0202 14:16:52.225121 133479 net.cpp:339] cont_12_lstm1_cont_slice_11_split -> cont_12_lstm1_cont_slice_11_split_0
I0202 14:16:52.225124 133479 net.cpp:339] cont_12_lstm1_cont_slice_11_split -> cont_12_lstm1_cont_slice_11_split_1
I0202 14:16:52.225129 133479 net.cpp:113] Setting up cont_12_lstm1_cont_slice_11_split
I0202 14:16:52.225132 133479 net.cpp:120] Top shape: 1 1 8 (8)
I0202 14:16:52.225136 133479 net.cpp:120] Top shape: 1 1 8 (8)
I0202 14:16:52.225137 133479 layer_factory.hpp:74] Creating layer cont_13_lstm1_cont_slice_12_split
I0202 14:16:52.225141 133479 net.cpp:84] Creating Layer cont_13_lstm1_cont_slice_12_split
I0202 14:16:52.225143 133479 net.cpp:381] cont_13_lstm1_cont_slice_12_split <- cont_13
I0202 14:16:52.225147 133479 net.cpp:339] cont_13_lstm1_cont_slice_12_split -> cont_13_lstm1_cont_slice_12_split_0
I0202 14:16:52.225152 133479 net.cpp:339] cont_13_lstm1_cont_slice_12_split -> cont_13_lstm1_cont_slice_12_split_1
I0202 14:16:52.225155 133479 net.cpp:113] Setting up cont_13_lstm1_cont_slice_12_split
I0202 14:16:52.225158 133479 net.cpp:120] Top shape: 1 1 8 (8)
I0202 14:16:52.225162 133479 net.cpp:120] Top shape: 1 1 8 (8)
I0202 14:16:52.225163 133479 layer_factory.hpp:74] Creating layer cont_14_lstm1_cont_slice_13_split
I0202 14:16:52.225167 133479 net.cpp:84] Creating Layer cont_14_lstm1_cont_slice_13_split
I0202 14:16:52.225169 133479 net.cpp:381] cont_14_lstm1_cont_slice_13_split <- cont_14
I0202 14:16:52.225172 133479 net.cpp:339] cont_14_lstm1_cont_slice_13_split -> cont_14_lstm1_cont_slice_13_split_0
I0202 14:16:52.225178 133479 net.cpp:339] cont_14_lstm1_cont_slice_13_split -> cont_14_lstm1_cont_slice_13_split_1
I0202 14:16:52.225181 133479 net.cpp:113] Setting up cont_14_lstm1_cont_slice_13_split
I0202 14:16:52.225185 133479 net.cpp:120] Top shape: 1 1 8 (8)
I0202 14:16:52.225188 133479 net.cpp:120] Top shape: 1 1 8 (8)
I0202 14:16:52.225190 133479 layer_factory.hpp:74] Creating layer cont_15_lstm1_cont_slice_14_split
I0202 14:16:52.225193 133479 net.cpp:84] Creating Layer cont_15_lstm1_cont_slice_14_split
I0202 14:16:52.225196 133479 net.cpp:381] cont_15_lstm1_cont_slice_14_split <- cont_15
I0202 14:16:52.225199 133479 net.cpp:339] cont_15_lstm1_cont_slice_14_split -> cont_15_lstm1_cont_slice_14_split_0
I0202 14:16:52.225204 133479 net.cpp:339] cont_15_lstm1_cont_slice_14_split -> cont_15_lstm1_cont_slice_14_split_1
I0202 14:16:52.225208 133479 net.cpp:113] Setting up cont_15_lstm1_cont_slice_14_split
I0202 14:16:52.225215 133479 net.cpp:120] Top shape: 1 1 8 (8)
I0202 14:16:52.225219 133479 net.cpp:120] Top shape: 1 1 8 (8)
I0202 14:16:52.225220 133479 layer_factory.hpp:74] Creating layer cont_16_lstm1_cont_slice_15_split
I0202 14:16:52.225226 133479 net.cpp:84] Creating Layer cont_16_lstm1_cont_slice_15_split
I0202 14:16:52.225229 133479 net.cpp:381] cont_16_lstm1_cont_slice_15_split <- cont_16
I0202 14:16:52.225234 133479 net.cpp:339] cont_16_lstm1_cont_slice_15_split -> cont_16_lstm1_cont_slice_15_split_0
I0202 14:16:52.225237 133479 net.cpp:339] cont_16_lstm1_cont_slice_15_split -> cont_16_lstm1_cont_slice_15_split_1
I0202 14:16:52.225241 133479 net.cpp:113] Setting up cont_16_lstm1_cont_slice_15_split
I0202 14:16:52.225245 133479 net.cpp:120] Top shape: 1 1 8 (8)
I0202 14:16:52.225248 133479 net.cpp:120] Top shape: 1 1 8 (8)
I0202 14:16:52.225250 133479 layer_factory.hpp:74] Creating layer cont_17_lstm1_cont_slice_16_split
I0202 14:16:52.225253 133479 net.cpp:84] Creating Layer cont_17_lstm1_cont_slice_16_split
I0202 14:16:52.225256 133479 net.cpp:381] cont_17_lstm1_cont_slice_16_split <- cont_17
I0202 14:16:52.225260 133479 net.cpp:339] cont_17_lstm1_cont_slice_16_split -> cont_17_lstm1_cont_slice_16_split_0
I0202 14:16:52.225265 133479 net.cpp:339] cont_17_lstm1_cont_slice_16_split -> cont_17_lstm1_cont_slice_16_split_1
I0202 14:16:52.225268 133479 net.cpp:113] Setting up cont_17_lstm1_cont_slice_16_split
I0202 14:16:52.225272 133479 net.cpp:120] Top shape: 1 1 8 (8)
I0202 14:16:52.225275 133479 net.cpp:120] Top shape: 1 1 8 (8)
I0202 14:16:52.225277 133479 layer_factory.hpp:74] Creating layer cont_18_lstm1_cont_slice_17_split
I0202 14:16:52.225281 133479 net.cpp:84] Creating Layer cont_18_lstm1_cont_slice_17_split
I0202 14:16:52.225283 133479 net.cpp:381] cont_18_lstm1_cont_slice_17_split <- cont_18
I0202 14:16:52.225286 133479 net.cpp:339] cont_18_lstm1_cont_slice_17_split -> cont_18_lstm1_cont_slice_17_split_0
I0202 14:16:52.225291 133479 net.cpp:339] cont_18_lstm1_cont_slice_17_split -> cont_18_lstm1_cont_slice_17_split_1
I0202 14:16:52.225294 133479 net.cpp:113] Setting up cont_18_lstm1_cont_slice_17_split
I0202 14:16:52.225298 133479 net.cpp:120] Top shape: 1 1 8 (8)
I0202 14:16:52.225301 133479 net.cpp:120] Top shape: 1 1 8 (8)
I0202 14:16:52.225303 133479 layer_factory.hpp:74] Creating layer lstm1_x_transform
I0202 14:16:52.225308 133479 net.cpp:84] Creating Layer lstm1_x_transform
I0202 14:16:52.225314 133479 net.cpp:381] lstm1_x_transform <- x
I0202 14:16:52.225319 133479 net.cpp:339] lstm1_x_transform -> W_xc_x
I0202 14:16:52.225324 133479 net.cpp:113] Setting up lstm1_x_transform
I0202 14:16:52.250033 133479 net.cpp:120] Top shape: 18 8 1024 (147456)
I0202 14:16:52.250064 133479 layer_factory.hpp:74] Creating layer lstm1_W_xc_x_slice
I0202 14:16:52.250075 133479 net.cpp:84] Creating Layer lstm1_W_xc_x_slice
I0202 14:16:52.250079 133479 net.cpp:381] lstm1_W_xc_x_slice <- W_xc_x
I0202 14:16:52.250087 133479 net.cpp:339] lstm1_W_xc_x_slice -> W_xc_x_1
I0202 14:16:52.250097 133479 net.cpp:339] lstm1_W_xc_x_slice -> W_xc_x_2
I0202 14:16:52.250103 133479 net.cpp:339] lstm1_W_xc_x_slice -> W_xc_x_3
…
I0202 14:16:52.250164 133479 net.cpp:339] lstm1_W_xc_x_slice -> W_xc_x_12
I0202 14:16:52.250170 133479 net.cpp:339] lstm1_W_xc_x_slice -> W_xc_x_13
I0202 14:16:52.250175 133479 net.cpp:339] lstm1_W_xc_x_slice -> W_xc_x_14
I0202 14:16:52.250181 133479 net.cpp:339] lstm1_W_xc_x_slice -> W_xc_x_15
I0202 14:16:52.250186 133479 net.cpp:339] lstm1_W_xc_x_slice -> W_xc_x_16
I0202 14:16:52.250193 133479 net.cpp:339] lstm1_W_xc_x_slice -> W_xc_x_17
I0202 14:16:52.250200 133479 net.cpp:339] lstm1_W_xc_x_slice -> W_xc_x_18
I0202 14:16:52.250205 133479 net.cpp:113] Setting up lstm1_W_xc_x_slice
I0202 14:16:52.250212 133479 net.cpp:120] Top shape: 1 8 1024 (8192)
I0202 14:16:52.250216 133479 net.cpp:120] Top shape: 1 8 1024 (8192)
I0202 14:16:52.250219 133479 net.cpp:120] Top shape: 1 8 1024 (8192)
I0202 14:16:52.250222 133479 net.cpp:120] Top shape: 1 8 1024 (8192)
I0202 14:16:52.250226 133479 net.cpp:120] Top shape: 1 8 1024 (8192)
I0202 14:16:52.250228 133479 net.cpp:120] Top shape: 1 8 1024 (8192)
I0202 14:16:52.250231 133479 net.cpp:120] Top shape: 1 8 1024 (8192)
I0202 14:16:52.250234 133479 net.cpp:120] Top shape: 1 8 1024 (8192)
I0202 14:16:52.250237 133479 net.cpp:120] Top shape: 1 8 1024 (8192)
I0202 14:16:52.250241 133479 net.cpp:120] Top shape: 1 8 1024 (8192)
I0202 14:16:52.250243 133479 net.cpp:120] Top shape: 1 8 1024 (8192)
I0202 14:16:52.250247 133479 net.cpp:120] Top shape: 1 8 1024 (8192)
I0202 14:16:52.250250 133479 net.cpp:120] Top shape: 1 8 1024 (8192)
I0202 14:16:52.250253 133479 net.cpp:120] Top shape: 1 8 1024 (8192)
I0202 14:16:52.250257 133479 net.cpp:120] Top shape: 1 8 1024 (8192)
I0202 14:16:52.250258 133479 net.cpp:120] Top shape: 1 8 1024 (8192)
I0202 14:16:52.250262 133479 net.cpp:120] Top shape: 1 8 1024 (8192)
I0202 14:16:52.250264 133479 net.cpp:120] Top shape: 1 8 1024 (8192)
I0202 14:16:52.250267 133479 layer_factory.hpp:74] Creating layer lstm1_h_conted_0
I0202 14:16:52.250272 133479 net.cpp:84] Creating Layer lstm1_h_conted_0
I0202 14:16:52.250277 133479 net.cpp:381] lstm1_h_conted_0 <- h_0
I0202 14:16:52.250280 133479 net.cpp:381] lstm1_h_conted_0 <- cont_1_lstm1_cont_slice_0_split_0
I0202 14:16:52.250286 133479 net.cpp:339] lstm1_h_conted_0 -> h_conted_0
I0202 14:16:52.250290 133479 net.cpp:113] Setting up lstm1_h_conted_0
I0202 14:16:52.250296 133479 net.cpp:120] Top shape: 1 8 256 (2048)
I0202 14:16:52.250298 133479 layer_factory.hpp:74] Creating layer lstm1_transform_1
I0202 14:16:52.250305 133479 net.cpp:84] Creating Layer lstm1_transform_1
I0202 14:16:52.250308 133479 net.cpp:381] lstm1_transform_1 <- h_conted_0
I0202 14:16:52.250313 133479 net.cpp:339] lstm1_transform_1 -> W_hc_h_0
I0202 14:16:52.250319 133479 net.cpp:113] Setting up lstm1_transform_1
I0202 14:16:52.252080 133479 net.cpp:120] Top shape: 1 8 1024 (8192)
I0202 14:16:52.252090 133479 layer_factory.hpp:74] Creating layer lstm1_gate_input_1
I0202 14:16:52.252095 133479 net.cpp:84] Creating Layer lstm1_gate_input_1
I0202 14:16:52.252099 133479 net.cpp:381] lstm1_gate_input_1 <- W_hc_h_0
I0202 14:16:52.252102 133479 net.cpp:381] lstm1_gate_input_1 <- W_xc_x_1
I0202 14:16:52.252107 133479 net.cpp:339] lstm1_gate_input_1 -> gate_input_1
I0202 14:16:52.252112 133479 net.cpp:113] Setting up lstm1_gate_input_1
I0202 14:16:52.252116 133479 net.cpp:120] Top shape: 1 8 1024 (8192)
I0202 14:16:52.252120 133479 layer_factory.hpp:74] Creating layer lstm1_unit_1
I0202 14:16:52.252125 133479 net.cpp:84] Creating Layer lstm1_unit_1
I0202 14:16:52.252126 133479 net.cpp:381] lstm1_unit_1 <- c_0
I0202 14:16:52.252131 133479 net.cpp:381] lstm1_unit_1 <- gate_input_1
I0202 14:16:52.252135 133479 net.cpp:381] lstm1_unit_1 <- cont_1_lstm1_cont_slice_0_split_1
I0202 14:16:52.252140 133479 net.cpp:339] lstm1_unit_1 -> c_1
I0202 14:16:52.252144 133479 net.cpp:339] lstm1_unit_1 -> h_1
I0202 14:16:52.252149 133479 net.cpp:113] Setting up lstm1_unit_1
I0202 14:16:52.252156 133479 net.cpp:120] Top shape: 1 8 256 (2048)
I0202 14:16:52.252158 133479 net.cpp:120] Top shape: 1 8 256 (2048)
I0202 14:16:52.252161 133479 layer_factory.hpp:74] Creating layer h_1_lstm1_unit_1_1_split
I0202 14:16:52.252166 133479 net.cpp:84] Creating Layer h_1_lstm1_unit_1_1_split
I0202 14:16:52.252168 133479 net.cpp:381] h_1_lstm1_unit_1_1_split <- h_1
I0202 14:16:52.252172 133479 net.cpp:339] h_1_lstm1_unit_1_1_split -> h_1_lstm1_unit_1_1_split_0
I0202 14:16:52.252178 133479 net.cpp:339] h_1_lstm1_unit_1_1_split -> h_1_lstm1_unit_1_1_split_1
I0202 14:16:52.252183 133479 net.cpp:113] Setting up h_1_lstm1_unit_1_1_split
I0202 14:16:52.252187 133479 net.cpp:120] Top shape: 1 8 256 (2048)
I0202 14:16:52.252190 133479 net.cpp:120] Top shape: 1 8 256 (2048)
I0202 14:16:52.252192 133479 layer_factory.hpp:74] Creating layer lstm1_h_conted_1
I0202 14:16:52.252197 133479 net.cpp:84] Creating Layer lstm1_h_conted_1
I0202 14:16:52.252199 133479 net.cpp:381] lstm1_h_conted_1 <- h_1_lstm1_unit_1_1_split_0
I0202 14:16:52.252203 133479 net.cpp:381] lstm1_h_conted_1 <- cont_2_lstm1_cont_slice_1_split_0
I0202 14:16:52.252207 133479 net.cpp:339] lstm1_h_conted_1 -> h_conted_1
I0202 14:16:52.252212 133479 net.cpp:113] Setting up lstm1_h_conted_1
I0202 14:16:52.252215 133479 net.cpp:120] Top shape: 1 8 256 (2048)
I0202 14:16:52.252218 133479 layer_factory.hpp:74] Creating layer lstm1_transform_2
I0202 14:16:52.252223 133479 net.cpp:84] Creating Layer lstm1_transform_2
I0202 14:16:52.252225 133479 net.cpp:381] lstm1_transform_2 <- h_conted_1
I0202 14:16:52.252229 133479 net.cpp:339] lstm1_transform_2 -> W_hc_h_1
I0202 14:16:52.252233 133479 net.cpp:113] Setting up lstm1_transform_2
I0202 14:16:52.253978 133479 net.cpp:120] Top shape: 1 8 1024 (8192)
I0202 14:16:52.253985 133479 net.cpp:425] Sharing parameters 'W_hc' owned by layer 'lstm1_transform_1', param index 0
I0202 14:16:52.253989 133479 layer_factory.hpp:74] Creating layer lstm1_gate_input_2
I0202 14:16:52.253993 133479 net.cpp:84] Creating Layer lstm1_gate_input_2
I0202 14:16:52.253996 133479 net.cpp:381] lstm1_gate_input_2 <- W_hc_h_1
I0202 14:16:52.254001 133479 net.cpp:381] lstm1_gate_input_2 <- W_xc_x_2
I0202 14:16:52.254005 133479 net.cpp:339] lstm1_gate_input_2 -> gate_input_2
I0202 14:16:52.254010 133479 net.cpp:113] Setting up lstm1_gate_input_2
I0202 14:16:52.254015 133479 net.cpp:120] Top shape: 1 8 1024 (8192)
I0202 14:16:52.254017 133479 layer_factory.hpp:74] Creating layer lstm1_unit_2
I0202 14:16:52.254022 133479 net.cpp:84] Creating Layer lstm1_unit_2
I0202 14:16:52.254024 133479 net.cpp:381] lstm1_unit_2 <- c_1
I0202 14:16:52.254029 133479 net.cpp:381] lstm1_unit_2 <- gate_input_2
I0202 14:16:52.254031 133479 net.cpp:381] lstm1_unit_2 <- cont_2_lstm1_cont_slice_1_split_1
I0202 14:16:52.254035 133479 net.cpp:339] lstm1_unit_2 -> c_2
I0202 14:16:52.254040 133479 net.cpp:339] lstm1_unit_2 -> h_2
I0202 14:16:52.254045 133479 net.cpp:113] Setting up lstm1_unit_2
I0202 14:16:52.254050 133479 net.cpp:120] Top shape: 1 8 256 (2048)
I0202 14:16:52.254052 133479 net.cpp:120] Top shape: 1 8 256 (2048)
I0202 14:16:52.254055 133479 layer_factory.hpp:74] Creating layer h_2_lstm1_unit_2_1_split
I0202 14:16:52.254058 133479 net.cpp:84] Creating Layer h_2_lstm1_unit_2_1_split
I0202 14:16:52.254061 133479 net.cpp:381] h_2_lstm1_unit_2_1_split <- h_2
I0202 14:16:52.254065 133479 net.cpp:339] h_2_lstm1_unit_2_1_split -> h_2_lstm1_unit_2_1_split_0
I0202 14:16:52.254070 133479 net.cpp:339] h_2_lstm1_unit_2_1_split -> h_2_lstm1_unit_2_1_split_1
I0202 14:16:52.254075 133479 net.cpp:113] Setting up h_2_lstm1_unit_2_1_split
I0202 14:16:52.254078 133479 net.cpp:120] Top shape: 1 8 256 (2048)
I0202 14:16:52.254081 133479 net.cpp:120] Top shape: 1 8 256 (2048)
I0202 14:16:52.254083 133479 layer_factory.hpp:74] Creating layer lstm1_h_conted_2
I0202 14:16:52.254087 133479 net.cpp:84] Creating Layer lstm1_h_conted_2
I0202 14:16:52.254091 133479 net.cpp:381] lstm1_h_conted_2 <- h_2_lstm1_unit_2_1_split_0
I0202 14:16:52.254093 133479 net.cpp:381] lstm1_h_conted_2 <- cont_3_lstm1_cont_slice_2_split_0
I0202 14:16:52.254097 133479 net.cpp:339] lstm1_h_conted_2 -> h_conted_2
I0202 14:16:52.254101 133479 net.cpp:113] Setting up lstm1_h_conted_2
I0202 14:16:52.254106 133479 net.cpp:120] Top shape: 1 8 256 (2048)
I0202 14:16:52.254108 133479 layer_factory.hpp:74] Creating layer lstm1_transform_3
I0202 14:16:52.254118 133479 net.cpp:84] Creating Layer lstm1_transform_3
I0202 14:16:52.254122 133479 net.cpp:381] lstm1_transform_3 <- h_conted_2
I0202 14:16:52.254127 133479 net.cpp:339] lstm1_transform_3 -> W_hc_h_2
I0202 14:16:52.254132 133479 net.cpp:113] Setting up lstm1_transform_3
I0202 14:16:52.255867 133479 net.cpp:120] Top shape: 1 8 1024 (8192)
I0202 14:16:52.255875 133479 net.cpp:425] Sharing parameters 'W_hc' owned by layer 'lstm1_transform_1', param index 0
I0202 14:16:52.255878 133479 layer_factory.hpp:74] Creating layer lstm1_gate_input_3
I0202 14:16:52.255883 133479 net.cpp:84] Creating Layer lstm1_gate_input_3
I0202 14:16:52.255887 133479 net.cpp:381] lstm1_gate_input_3 <- W_hc_h_2
I0202 14:16:52.255889 133479 net.cpp:381] lstm1_gate_input_3 <- W_xc_x_3
I0202 14:16:52.255894 133479 net.cpp:339] lstm1_gate_input_3 -> gate_input_3
I0202 14:16:52.255899 133479 net.cpp:113] Setting up lstm1_gate_input_3
I0202 14:16:52.255903 133479 net.cpp:120] Top shape: 1 8 1024 (8192)
I0202 14:16:52.255905 133479 layer_factory.hpp:74] Creating layer lstm1_unit_3
I0202 14:16:52.255909 133479 net.cpp:84] Creating Layer lstm1_unit_3
I0202 14:16:52.255913 133479 net.cpp:381] lstm1_unit_3 <- c_2
I0202 14:16:52.255916 133479 net.cpp:381] lstm1_unit_3 <- gate_input_3
I0202 14:16:52.255919 133479 net.cpp:381] lstm1_unit_3 <- cont_3_lstm1_cont_slice_2_split_1
I0202 14:16:52.255923 133479 net.cpp:339] lstm1_unit_3 -> c_3
I0202 14:16:52.255928 133479 net.cpp:339] lstm1_unit_3 -> h_3
I0202 14:16:52.255931 133479 net.cpp:113] Setting up lstm1_unit_3
I0202 14:16:52.255936 133479 net.cpp:120] Top shape: 1 8 256 (2048)
I0202 14:16:52.255939 133479 net.cpp:120] Top shape: 1 8 256 (2048)
I0202 14:16:52.255941 133479 layer_factory.hpp:74] Creating layer h_3_lstm1_unit_3_1_split
I0202 14:16:52.255945 133479 net.cpp:84] Creating Layer h_3_lstm1_unit_3_1_split
I0202 14:16:52.255947 133479 net.cpp:381] h_3_lstm1_unit_3_1_split <- h_3
I0202 14:16:52.255951 133479 net.cpp:339] h_3_lstm1_unit_3_1_split -> h_3_lstm1_unit_3_1_split_0
I0202 14:16:52.255956 133479 net.cpp:339] h_3_lstm1_unit_3_1_split -> h_3_lstm1_unit_3_1_split_1
I0202 14:16:52.255961 133479 net.cpp:113] Setting up h_3_lstm1_unit_3_1_split
I0202 14:16:52.255964 133479 net.cpp:120] Top shape: 1 8 256 (2048)
I0202 14:16:52.255969 133479 net.cpp:120] Top shape: 1 8 256 (2048)
I0202 14:16:52.255970 133479 layer_factory.hpp:74] Creating layer lstm1_h_conted_3
I0202 14:16:52.255975 133479 net.cpp:84] Creating Layer lstm1_h_conted_3
I0202 14:16:52.255977 133479 net.cpp:381] lstm1_h_conted_3 <- h_3_lstm1_unit_3_1_split_0
I0202 14:16:52.255980 133479 net.cpp:381] lstm1_h_conted_3 <- cont_4_lstm1_cont_slice_3_split_0
I0202 14:16:52.255985 133479 net.cpp:339] lstm1_h_conted_3 -> h_conted_3
I0202 14:16:52.255988 133479 net.cpp:113] Setting up lstm1_h_conted_3
I0202 14:16:52.255992 133479 net.cpp:120] Top shape: 1 8 256 (2048)
I0202 14:16:52.255995 133479 layer_factory.hpp:74] Creating layer lstm1_transform_4
I0202 14:16:52.256000 133479 net.cpp:84] Creating Layer lstm1_transform_4
I0202 14:16:52.256002 133479 net.cpp:381] lstm1_transform_4 <- h_conted_3
I0202 14:16:52.256006 133479 net.cpp:339] lstm1_transform_4 -> W_hc_h_3
I0202 14:16:52.256011 133479 net.cpp:113] Setting up lstm1_transform_4
I0202 14:16:52.257751 133479 net.cpp:120] Top shape: 1 8 1024 (8192)
I0202 14:16:52.257760 133479 net.cpp:425] Sharing parameters 'W_hc' owned by layer 'lstm1_transform_1', param index 0
I0202 14:16:52.257762 133479 layer_factory.hpp:74] Creating layer lstm1_gate_input_4
I0202 14:16:52.257766 133479 net.cpp:84] Creating Layer lstm1_gate_input_4
I0202 14:16:52.257769 133479 net.cpp:381] lstm1_gate_input_4 <- W_hc_h_3
I0202 14:16:52.257773 133479 net.cpp:381] lstm1_gate_input_4 <- W_xc_x_4
I0202 14:16:52.257778 133479 net.cpp:339] lstm1_gate_input_4 -> gate_input_4
I0202 14:16:52.257782 133479 net.cpp:113] Setting up lstm1_gate_input_4
I0202 14:16:52.257786 133479 net.cpp:120] Top shape: 1 8 1024 (8192)
I0202 14:16:52.257789 133479 layer_factory.hpp:74] Creating layer lstm1_unit_4
I0202 14:16:52.257793 133479 net.cpp:84] Creating Layer lstm1_unit_4
I0202 14:16:52.257797 133479 net.cpp:381] lstm1_unit_4 <- c_3
I0202 14:16:52.257799 133479 net.cpp:381] lstm1_unit_4 <- gate_input_4
I0202 14:16:52.257802 133479 net.cpp:381] lstm1_unit_4 <- cont_4_lstm1_cont_slice_3_split_1
I0202 14:16:52.257807 133479 net.cpp:339] lstm1_unit_4 -> c_4
I0202 14:16:52.257812 133479 net.cpp:339] lstm1_unit_4 -> h_4
I0202 14:16:52.257814 133479 net.cpp:113] Setting up lstm1_unit_4
I0202 14:16:52.257819 133479 net.cpp:120] Top shape: 1 8 256 (2048)
I0202 14:16:52.257822 133479 net.cpp:120] Top shape: 1 8 256 (2048)
I0202 14:16:52.257824 133479 layer_factory.hpp:74] Creating layer h_4_lstm1_unit_4_1_split
I0202 14:16:52.257828 133479 net.cpp:84] Creating Layer h_4_lstm1_unit_4_1_split
I0202 14:16:52.257832 133479 net.cpp:381] h_4_lstm1_unit_4_1_split <- h_4
I0202 14:16:52.257834 133479 net.cpp:339] h_4_lstm1_unit_4_1_split -> h_4_lstm1_unit_4_1_split_0
I0202 14:16:52.257839 133479 net.cpp:339] h_4_lstm1_unit_4_1_split -> h_4_lstm1_unit_4_1_split_1
I0202 14:16:52.257844 133479 net.cpp:113] Setting up h_4_lstm1_unit_4_1_split
I0202 14:16:52.257848 133479 net.cpp:120] Top shape: 1 8 256 (2048)
I0202 14:16:52.257851 133479 net.cpp:120] Top shape: 1 8 256 (2048)
I0202 14:16:52.257853 133479 layer_factory.hpp:74] Creating layer lstm1_h_conted_4
I0202 14:16:52.257858 133479 net.cpp:84] Creating Layer lstm1_h_conted_4
I0202 14:16:52.257859 133479 net.cpp:381] lstm1_h_conted_4 <- h_4_lstm1_unit_4_1_split_0
I0202 14:16:52.257863 133479 net.cpp:381] lstm1_h_conted_4 <- cont_5_lstm1_cont_slice_4_split_0
I0202 14:16:52.257867 133479 net.cpp:339] lstm1_h_conted_4 -> h_conted_4
I0202 14:16:52.257871 133479 net.cpp:113] Setting up lstm1_h_conted_4
I0202 14:16:52.257874 133479 net.cpp:120] Top shape: 1 8 256 (2048)
I0202 14:16:52.257877 133479 layer_factory.hpp:74] Creating layer lstm1_transform_5
I0202 14:16:52.257881 133479 net.cpp:84] Creating Layer lstm1_transform_5
I0202 14:16:52.257884 133479 net.cpp:381] lstm1_transform_5 <- h_conted_4
I0202 14:16:52.257889 133479 net.cpp:339] lstm1_transform_5 -> W_hc_h_4
I0202 14:16:52.257892 133479 net.cpp:113] Setting up lstm1_transform_5
I0202 14:16:52.259634 133479 net.cpp:120] Top shape: 1 8 1024 (8192)
I0202 14:16:52.259640 133479 net.cpp:425] Sharing parameters 'W_hc' owned by layer 'lstm1_transform_1', param index 0
I0202 14:16:52.259644 133479 layer_factory.hpp:74] Creating layer lstm1_gate_input_5
I0202 14:16:52.259647 133479 net.cpp:84] Creating Layer lstm1_gate_input_5
I0202 14:16:52.259650 133479 net.cpp:381] lstm1_gate_input_5 <- W_hc_h_4
I0202 14:16:52.259654 133479 net.cpp:381] lstm1_gate_input_5 <- W_xc_x_5
I0202 14:16:52.259658 133479 net.cpp:339] lstm1_gate_input_5 -> gate_input_5
I0202 14:16:52.259662 133479 net.cpp:113] Setting up lstm1_gate_input_5
I0202 14:16:52.259666 133479 net.cpp:120] Top shape: 1 8 1024 (8192)
I0202 14:16:52.259668 133479 layer_factory.hpp:74] Creating layer lstm1_unit_5
I0202 14:16:52.259672 133479 net.cpp:84] Creating Layer lstm1_unit_5
I0202 14:16:52.259675 133479 net.cpp:381] lstm1_unit_5 <- c_4
I0202 14:16:52.259678 133479 net.cpp:381] lstm1_unit_5 <- gate_input_5
I0202 14:16:52.259681 133479 net.cpp:381] lstm1_unit_5 <- cont_5_lstm1_cont_slice_4_split_1
I0202 14:16:52.259685 133479 net.cpp:339] lstm1_unit_5 -> c_5
I0202 14:16:52.259690 133479 net.cpp:339] lstm1_unit_5 -> h_5
I0202 14:16:52.259694 133479 net.cpp:113] Setting up lstm1_unit_5
I0202 14:16:52.259699 133479 net.cpp:120] Top shape: 1 8 256 (2048)
I0202 14:16:52.259702 133479 net.cpp:120] Top shape: 1 8 256 (2048)
I0202 14:16:52.259704 133479 layer_factory.hpp:74] Creating layer h_5_lstm1_unit_5_1_split
I0202 14:16:52.259708 133479 net.cpp:84] Creating Layer h_5_lstm1_unit_5_1_split
I0202 14:16:52.259711 133479 net.cpp:381] h_5_lstm1_unit_5_1_split <- h_5
I0202 14:16:52.259714 133479 net.cpp:339] h_5_lstm1_unit_5_1_split -> h_5_lstm1_unit_5_1_split_0
I0202 14:16:52.259719 133479 net.cpp:339] h_5_lstm1_unit_5_1_split -> h_5_lstm1_unit_5_1_split_1
I0202 14:16:52.259723 133479 net.cpp:113] Setting up h_5_lstm1_unit_5_1_split
I0202 14:16:52.259727 133479 net.cpp:120] Top shape: 1 8 256 (2048)
I0202 14:16:52.259730 133479 net.cpp:120] Top shape: 1 8 256 (2048)
I0202 14:16:52.259733 133479 layer_factory.hpp:74] Creating layer lstm1_h_conted_5
I0202 14:16:52.259737 133479 net.cpp:84] Creating Layer lstm1_h_conted_5
I0202 14:16:52.259739 133479 net.cpp:381] lstm1_h_conted_5 <- h_5_lstm1_unit_5_1_split_0
I0202 14:16:52.259743 133479 net.cpp:381] lstm1_h_conted_5 <- cont_6_lstm1_cont_slice_5_split_0
I0202 14:16:52.259747 133479 net.cpp:339] lstm1_h_conted_5 -> h_conted_5
I0202 14:16:52.259750 133479 net.cpp:113] Setting up lstm1_h_conted_5
I0202 14:16:52.259754 133479 net.cpp:120] Top shape: 1 8 256 (2048)
I0202 14:16:52.259757 133479 layer_factory.hpp:74] Creating layer lstm1_transform_6
I0202 14:16:52.259762 133479 net.cpp:84] Creating Layer lstm1_transform_6
I0202 14:16:52.259764 133479 net.cpp:381] lstm1_transform_6 <- h_conted_5
I0202 14:16:52.259768 133479 net.cpp:339] lstm1_transform_6 -> W_hc_h_5
I0202 14:16:52.259773 133479 net.cpp:113] Setting up lstm1_transform_6
I0202 14:16:52.261515 133479 net.cpp:120] Top shape: 1 8 1024 (8192)
I0202 14:16:52.261523 133479 net.cpp:425] Sharing parameters 'W_hc' owned by layer 'lstm1_transform_1', param index 0
I0202 14:16:52.261526 133479 layer_factory.hpp:74] Creating layer lstm1_gate_input_6
I0202 14:16:52.261530 133479 net.cpp:84] Creating Layer lstm1_gate_input_6
I0202 14:16:52.261533 133479 net.cpp:381] lstm1_gate_input_6 <- W_hc_h_5
I0202 14:16:52.261538 133479 net.cpp:381] lstm1_gate_input_6 <- W_xc_x_6
I0202 14:16:52.261541 133479 net.cpp:339] lstm1_gate_input_6 -> gate_input_6
I0202 14:16:52.261546 133479 net.cpp:113] Setting up lstm1_gate_input_6
I0202 14:16:52.261550 133479 net.cpp:120] Top shape: 1 8 1024 (8192)
I0202 14:16:52.261553 133479 layer_factory.hpp:74] Creating layer lstm1_unit_6
I0202 14:16:52.261556 133479 net.cpp:84] Creating Layer lstm1_unit_6
I0202 14:16:52.261559 133479 net.cpp:381] lstm1_unit_6 <- c_5
I0202 14:16:52.261562 133479 net.cpp:381] lstm1_unit_6 <- gate_input_6
I0202 14:16:52.261565 133479 net.cpp:381] lstm1_unit_6 <- cont_6_lstm1_cont_slice_5_split_1
I0202 14:16:52.261569 133479 net.cpp:339] lstm1_unit_6 -> c_6
I0202 14:16:52.261574 133479 net.cpp:339] lstm1_unit_6 -> h_6
I0202 14:16:52.261579 133479 net.cpp:113] Setting up lstm1_unit_6
I0202 14:16:52.261582 133479 net.cpp:120] Top shape: 1 8 256 (2048)
I0202 14:16:52.261585 133479 net.cpp:120] Top shape: 1 8 256 (2048)
I0202 14:16:52.261587 133479 layer_factory.hpp:74] Creating layer h_6_lstm1_unit_6_1_split
I0202 14:16:52.261592 133479 net.cpp:84] Creating Layer h_6_lstm1_unit_6_1_split
I0202 14:16:52.261595 133479 net.cpp:381] h_6_lstm1_unit_6_1_split <- h_6
I0202 14:16:52.261598 133479 net.cpp:339] h_6_lstm1_unit_6_1_split -> h_6_lstm1_unit_6_1_split_0
I0202 14:16:52.261603 133479 net.cpp:339] h_6_lstm1_unit_6_1_split -> h_6_lstm1_unit_6_1_split_1
I0202 14:16:52.261607 133479 net.cpp:113] Setting up h_6_lstm1_unit_6_1_split
I0202 14:16:52.261611 133479 net.cpp:120] Top shape: 1 8 256 (2048)
I0202 14:16:52.261615 133479 net.cpp:120] Top shape: 1 8 256 (2048)
I0202 14:16:52.261616 133479 layer_factory.hpp:74] Creating layer lstm1_h_conted_6
I0202 14:16:52.261620 133479 net.cpp:84] Creating Layer lstm1_h_conted_6
I0202 14:16:52.261623 133479 net.cpp:381] lstm1_h_conted_6 <- h_6_lstm1_unit_6_1_split_0
I0202 14:16:52.261626 133479 net.cpp:381] lstm1_h_conted_6 <- cont_7_lstm1_cont_slice_6_split_0
I0202 14:16:52.261631 133479 net.cpp:339] lstm1_h_conted_6 -> h_conted_6
I0202 14:16:52.261634 133479 net.cpp:113] Setting up lstm1_h_conted_6
I0202 14:16:52.261638 133479 net.cpp:120] Top shape: 1 8 256 (2048)
I0202 14:16:52.261641 133479 layer_factory.hpp:74] Creating layer lstm1_transform_7
I0202 14:16:52.261644 133479 net.cpp:84] Creating Layer lstm1_transform_7
I0202 14:16:52.261646 133479 net.cpp:381] lstm1_transform_7 <- h_conted_6
I0202 14:16:52.261651 133479 net.cpp:339] lstm1_transform_7 -> W_hc_h_6
I0202 14:16:52.261656 133479 net.cpp:113] Setting up lstm1_transform_7
I0202 14:16:52.263394 133479 net.cpp:120] Top shape: 1 8 1024 (8192)
I0202 14:16:52.263403 133479 net.cpp:425] Sharing parameters 'W_hc' owned by layer 'lstm1_transform_1', param index 0
I0202 14:16:52.263406 133479 layer_factory.hpp:74] Creating layer lstm1_gate_input_7
I0202 14:16:52.263411 133479 net.cpp:84] Creating Layer lstm1_gate_input_7
I0202 14:16:52.263414 133479 net.cpp:381] lstm1_gate_input_7 <- W_hc_h_6
I0202 14:16:52.263417 133479 net.cpp:381] lstm1_gate_input_7 <- W_xc_x_7
I0202 14:16:52.263422 133479 net.cpp:339] lstm1_gate_input_7 -> gate_input_7
I0202 14:16:52.263427 133479 net.cpp:113] Setting up lstm1_gate_input_7
I0202 14:16:52.263432 133479 net.cpp:120] Top shape: 1 8 1024 (8192)
I0202 14:16:52.263433 133479 layer_factory.hpp:74] Creating layer lstm1_unit_7
I0202 14:16:52.263437 133479 net.cpp:84] Creating Layer lstm1_unit_7
I0202 14:16:52.263440 133479 net.cpp:381] lstm1_unit_7 <- c_6
I0202 14:16:52.263443 133479 net.cpp:381] lstm1_unit_7 <- gate_input_7
I0202 14:16:52.263447 133479 net.cpp:381] lstm1_unit_7 <- cont_7_lstm1_cont_slice_6_split_1
I0202 14:16:52.263450 133479 net.cpp:339] lstm1_unit_7 -> c_7
I0202 14:16:52.263455 133479 net.cpp:339] lstm1_unit_7 -> h_7
I0202 14:16:52.263459 133479 net.cpp:113] Setting up lstm1_unit_7
I0202 14:16:52.263463 133479 net.cpp:120] Top shape: 1 8 256 (2048)
I0202 14:16:52.263466 133479 net.cpp:120] Top shape: 1 8 256 (2048)
I0202 14:16:52.263468 133479 layer_factory.hpp:74] Creating layer h_7_lstm1_unit_7_1_split
I0202 14:16:52.263473 133479 net.cpp:84] Creating Layer h_7_lstm1_unit_7_1_split
I0202 14:16:52.263474 133479 net.cpp:381] h_7_lstm1_unit_7_1_split <- h_7
I0202 14:16:52.263478 133479 net.cpp:339] h_7_lstm1_unit_7_1_split -> h_7_lstm1_unit_7_1_split_0
I0202 14:16:52.263484 133479 net.cpp:339] h_7_lstm1_unit_7_1_split -> h_7_lstm1_unit_7_1_split_1
I0202 14:16:52.263487 133479 net.cpp:113] Setting up h_7_lstm1_unit_7_1_split
I0202 14:16:52.263490 133479 net.cpp:120] Top shape: 1 8 256 (2048)
I0202 14:16:52.263494 133479 net.cpp:120] Top shape: 1 8 256 (2048)
I0202 14:16:52.263496 133479 layer_factory.hpp:74] Creating layer lstm1_h_conted_7
I0202 14:16:52.263500 133479 net.cpp:84] Creating Layer lstm1_h_conted_7
I0202 14:16:52.263502 133479 net.cpp:381] lstm1_h_conted_7 <- h_7_lstm1_unit_7_1_split_0
I0202 14:16:52.263505 133479 net.cpp:381] lstm1_h_conted_7 <- cont_8_lstm1_cont_slice_7_split_0
I0202 14:16:52.263510 133479 net.cpp:339] lstm1_h_conted_7 -> h_conted_7
I0202 14:16:52.263514 133479 net.cpp:113] Setting up lstm1_h_conted_7
I0202 14:16:52.263519 133479 net.cpp:120] Top shape: 1 8 256 (2048)
I0202 14:16:52.263520 133479 layer_factory.hpp:74] Creating layer lstm1_transform_8
I0202 14:16:52.263525 133479 net.cpp:84] Creating Layer lstm1_transform_8
I0202 14:16:52.263527 133479 net.cpp:381] lstm1_transform_8 <- h_conted_7
I0202 14:16:52.263532 133479 net.cpp:339] lstm1_transform_8 -> W_hc_h_7
I0202 14:16:52.263536 133479 net.cpp:113] Setting up lstm1_transform_8
I0202 14:16:52.265280 133479 net.cpp:120] Top shape: 1 8 1024 (8192)
I0202 14:16:52.265286 133479 net.cpp:425] Sharing parameters 'W_hc' owned by layer 'lstm1_transform_1', param index 0
I0202 14:16:52.265290 133479 layer_factory.hpp:74] Creating layer lstm1_gate_input_8
I0202 14:16:52.265295 133479 net.cpp:84] Creating Layer lstm1_gate_input_8
I0202 14:16:52.265297 133479 net.cpp:381] lstm1_gate_input_8 <- W_hc_h_7
I0202 14:16:52.265300 133479 net.cpp:381] lstm1_gate_input_8 <- W_xc_x_8
I0202 14:16:52.265305 133479 net.cpp:339] lstm1_gate_input_8 -> gate_input_8
I0202 14:16:52.265324 133479 net.cpp:113] Setting up lstm1_gate_input_8
I0202 14:16:52.265329 133479 net.cpp:120] Top shape: 1 8 1024 (8192)
I0202 14:16:52.265332 133479 layer_factory.hpp:74] Creating layer lstm1_unit_8
I0202 14:16:52.265336 133479 net.cpp:84] Creating Layer lstm1_unit_8
I0202 14:16:52.265339 133479 net.cpp:381] lstm1_unit_8 <- c_7
I0202 14:16:52.265342 133479 net.cpp:381] lstm1_unit_8 <- gate_input_8
I0202 14:16:52.265347 133479 net.cpp:381] lstm1_unit_8 <- cont_8_lstm1_cont_slice_7_split_1
I0202 14:16:52.265350 133479 net.cpp:339] lstm1_unit_8 -> c_8
I0202 14:16:52.265355 133479 net.cpp:339] lstm1_unit_8 -> h_8
I0202 14:16:52.265359 133479 net.cpp:113] Setting up lstm1_unit_8
I0202 14:16:52.265364 133479 net.cpp:120] Top shape: 1 8 256 (2048)
I0202 14:16:52.265367 133479 net.cpp:120] Top shape: 1 8 256 (2048)
I0202 14:16:52.265369 133479 layer_factory.hpp:74] Creating layer h_8_lstm1_unit_8_1_split
I0202 14:16:52.265373 133479 net.cpp:84] Creating Layer h_8_lstm1_unit_8_1_split
I0202 14:16:52.265377 133479 net.cpp:381] h_8_lstm1_unit_8_1_split <- h_8
I0202 14:16:52.265380 133479 net.cpp:339] h_8_lstm1_unit_8_1_split -> h_8_lstm1_unit_8_1_split_0
I0202 14:16:52.265385 133479 net.cpp:339] h_8_lstm1_unit_8_1_split -> h_8_lstm1_unit_8_1_split_1
I0202 14:16:52.265389 133479 net.cpp:113] Setting up h_8_lstm1_unit_8_1_split
I0202 14:16:52.265393 133479 net.cpp:120] Top shape: 1 8 256 (2048)
I0202 14:16:52.265396 133479 net.cpp:120] Top shape: 1 8 256 (2048)
I0202 14:16:52.265398 133479 layer_factory.hpp:74] Creating layer lstm1_h_conted_8
I0202 14:16:52.265403 133479 net.cpp:84] Creating Layer lstm1_h_conted_8
I0202 14:16:52.265405 133479 net.cpp:381] lstm1_h_conted_8 <- h_8_lstm1_unit_8_1_split_0
I0202 14:16:52.265408 133479 net.cpp:381] lstm1_h_conted_8 <- cont_9_lstm1_cont_slice_8_split_0
I0202 14:16:52.265413 133479 net.cpp:339] lstm1_h_conted_8 -> h_conted_8
I0202 14:16:52.265416 133479 net.cpp:113] Setting up lstm1_h_conted_8
I0202 14:16:52.265420 133479 net.cpp:120] Top shape: 1 8 256 (2048)
I0202 14:16:52.265424 133479 layer_factory.hpp:74] Creating layer lstm1_transform_9
I0202 14:16:52.265427 133479 net.cpp:84] Creating Layer lstm1_transform_9
I0202 14:16:52.265430 133479 net.cpp:381] lstm1_transform_9 <- h_conted_8
I0202 14:16:52.265434 133479 net.cpp:339] lstm1_transform_9 -> W_hc_h_8
I0202 14:16:52.265439 133479 net.cpp:113] Setting up lstm1_transform_9
I0202 14:16:52.267171 133479 net.cpp:120] Top shape: 1 8 1024 (8192)
I0202 14:16:52.267179 133479 net.cpp:425] Sharing parameters 'W_hc' owned by layer 'lstm1_transform_1', param index 0
I0202 14:16:52.267182 133479 layer_factory.hpp:74] Creating layer lstm1_gate_input_9
I0202 14:16:52.267186 133479 net.cpp:84] Creating Layer lstm1_gate_input_9
I0202 14:16:52.267189 133479 net.cpp:381] lstm1_gate_input_9 <- W_hc_h_8
I0202 14:16:52.267192 133479 net.cpp:381] lstm1_gate_input_9 <- W_xc_x_9
I0202 14:16:52.267196 133479 net.cpp:339] lstm1_gate_input_9 -> gate_input_9
I0202 14:16:52.267201 133479 net.cpp:113] Setting up lstm1_gate_input_9
I0202 14:16:52.267205 133479 net.cpp:120] Top shape: 1 8 1024 (8192)
I0202 14:16:52.267207 133479 layer_factory.hpp:74] Creating layer lstm1_unit_9
I0202 14:16:52.267223 133479 net.cpp:84] Creating Layer lstm1_unit_9
I0202 14:16:52.267230 133479 net.cpp:381] lstm1_unit_9 <- c_8
I0202 14:16:52.267233 133479 net.cpp:381] lstm1_unit_9 <- gate_input_9
I0202 14:16:52.267236 133479 net.cpp:381] lstm1_unit_9 <- cont_9_lstm1_cont_slice_8_split_1
I0202 14:16:52.267241 133479 net.cpp:339] lstm1_unit_9 -> c_9
I0202 14:16:52.267246 133479 net.cpp:339] lstm1_unit_9 -> h_9
I0202 14:16:52.267251 133479 net.cpp:113] Setting up lstm1_unit_9
I0202 14:16:52.267254 133479 net.cpp:120] Top shape: 1 8 256 (2048)
I0202 14:16:52.267257 133479 net.cpp:120] Top shape: 1 8 256 (2048)
I0202 14:16:52.267261 133479 layer_factory.hpp:74] Creating layer h_9_lstm1_unit_9_1_split
I0202 14:16:52.267267 133479 net.cpp:84] Creating Layer h_9_lstm1_unit_9_1_split
I0202 14:16:52.267271 133479 net.cpp:381] h_9_lstm1_unit_9_1_split <- h_9
I0202 14:16:52.267274 133479 net.cpp:339] h_9_lstm1_unit_9_1_split -> h_9_lstm1_unit_9_1_split_0
I0202 14:16:52.267279 133479 net.cpp:339] h_9_lstm1_unit_9_1_split -> h_9_lstm1_unit_9_1_split_1
I0202 14:16:52.267284 133479 net.cpp:113] Setting up h_9_lstm1_unit_9_1_split
I0202 14:16:52.267288 133479 net.cpp:120] Top shape: 1 8 256 (2048)
I0202 14:16:52.267292 133479 net.cpp:120] Top shape: 1 8 256 (2048)
I0202 14:16:52.267294 133479 layer_factory.hpp:74] Creating layer lstm1_h_conted_9
I0202 14:16:52.267298 133479 net.cpp:84] Creating Layer lstm1_h_conted_9
I0202 14:16:52.267302 133479 net.cpp:381] lstm1_h_conted_9 <- h_9_lstm1_unit_9_1_split_0
I0202 14:16:52.267305 133479 net.cpp:381] lstm1_h_conted_9 <- cont_10_lstm1_cont_slice_9_split_0
I0202 14:16:52.267312 133479 net.cpp:339] lstm1_h_conted_9 -> h_conted_9
I0202 14:16:52.267316 133479 net.cpp:113] Setting up lstm1_h_conted_9
I0202 14:16:52.267320 133479 net.cpp:120] Top shape: 1 8 256 (2048)
I0202 14:16:52.267323 133479 layer_factory.hpp:74] Creating layer lstm1_transform_10
I0202 14:16:52.267328 133479 net.cpp:84] Creating Layer lstm1_transform_10
I0202 14:16:52.267329 133479 net.cpp:381] lstm1_transform_10 <- h_conted_9
I0202 14:16:52.267334 133479 net.cpp:339] lstm1_transform_10 -> W_hc_h_9
I0202 14:16:52.267339 133479 net.cpp:113] Setting up lstm1_transform_10
I0202 14:16:52.269088 133479 net.cpp:120] Top shape: 1 8 1024 (8192)
I0202 14:16:52.269095 133479 net.cpp:425] Sharing parameters 'W_hc' owned by layer 'lstm1_transform_1', param index 0
I0202 14:16:52.269098 133479 layer_factory.hpp:74] Creating layer lstm1_gate_input_10
I0202 14:16:52.269104 133479 net.cpp:84] Creating Layer lstm1_gate_input_10
I0202 14:16:52.269107 133479 net.cpp:381] lstm1_gate_input_10 <- W_hc_h_9
I0202 14:16:52.269110 133479 net.cpp:381] lstm1_gate_input_10 <- W_xc_x_10
I0202 14:16:52.269115 133479 net.cpp:339] lstm1_gate_input_10 -> gate_input_10
I0202 14:16:52.269120 133479 net.cpp:113] Setting up lstm1_gate_input_10
I0202 14:16:52.269124 133479 net.cpp:120] Top shape: 1 8 1024 (8192)
I0202 14:16:52.269127 133479 layer_factory.hpp:74] Creating layer lstm1_unit_10
I0202 14:16:52.269131 133479 net.cpp:84] Creating Layer lstm1_unit_10
I0202 14:16:52.269134 133479 net.cpp:381] lstm1_unit_10 <- c_9
I0202 14:16:52.269137 133479 net.cpp:381] lstm1_unit_10 <- gate_input_10
I0202 14:16:52.269141 133479 net.cpp:381] lstm1_unit_10 <- cont_10_lstm1_cont_slice_9_split_1
I0202 14:16:52.269145 133479 net.cpp:339] lstm1_unit_10 -> c_10
I0202 14:16:52.269150 133479 net.cpp:339] lstm1_unit_10 -> h_10
I0202 14:16:52.269155 133479 net.cpp:113] Setting up lstm1_unit_10
I0202 14:16:52.269160 133479 net.cpp:120] Top shape: 1 8 256 (2048)
I0202 14:16:52.269162 133479 net.cpp:120] Top shape: 1 8 256 (2048)
I0202 14:16:52.269165 133479 layer_factory.hpp:74] Creating layer h_10_lstm1_unit_10_1_split
I0202 14:16:52.269168 133479 net.cpp:84] Creating Layer h_10_lstm1_unit_10_1_split
I0202 14:16:52.269171 133479 net.cpp:381] h_10_lstm1_unit_10_1_split <- h_10
I0202 14:16:52.269176 133479 net.cpp:339] h_10_lstm1_unit_10_1_split -> h_10_lstm1_unit_10_1_split_0
I0202 14:16:52.269181 133479 net.cpp:339] h_10_lstm1_unit_10_1_split -> h_10_lstm1_unit_10_1_split_1
I0202 14:16:52.269186 133479 net.cpp:113] Setting up h_10_lstm1_unit_10_1_split
I0202 14:16:52.269194 133479 net.cpp:120] Top shape: 1 8 256 (2048)
I0202 14:16:52.269197 133479 net.cpp:120] Top shape: 1 8 256 (2048)
I0202 14:16:52.269201 133479 layer_factory.hpp:74] Creating layer lstm1_h_conted_10
I0202 14:16:52.269204 133479 net.cpp:84] Creating Layer lstm1_h_conted_10
I0202 14:16:52.269207 133479 net.cpp:381] lstm1_h_conted_10 <- h_10_lstm1_unit_10_1_split_0
I0202 14:16:52.269212 133479 net.cpp:381] lstm1_h_conted_10 <- cont_11_lstm1_cont_slice_10_split_0
I0202 14:16:52.269215 133479 net.cpp:339] lstm1_h_conted_10 -> h_conted_10
I0202 14:16:52.269219 133479 net.cpp:113] Setting up lstm1_h_conted_10
I0202 14:16:52.269223 133479 net.cpp:120] Top shape: 1 8 256 (2048)
I0202 14:16:52.269225 133479 layer_factory.hpp:74] Creating layer lstm1_transform_11
I0202 14:16:52.269230 133479 net.cpp:84] Creating Layer lstm1_transform_11
I0202 14:16:52.269233 133479 net.cpp:381] lstm1_transform_11 <- h_conted_10
I0202 14:16:52.269237 133479 net.cpp:339] lstm1_transform_11 -> W_hc_h_10
I0202 14:16:52.269243 133479 net.cpp:113] Setting up lstm1_transform_11
I0202 14:16:52.270984 133479 net.cpp:120] Top shape: 1 8 1024 (8192)
I0202 14:16:52.270992 133479 net.cpp:425] Sharing parameters 'W_hc' owned by layer 'lstm1_transform_1', param index 0
I0202 14:16:52.270994 133479 layer_factory.hpp:74] Creating layer lstm1_gate_input_11
I0202 14:16:52.270999 133479 net.cpp:84] Creating Layer lstm1_gate_input_11
I0202 14:16:52.271003 133479 net.cpp:381] lstm1_gate_input_11 <- W_hc_h_10
I0202 14:16:52.271005 133479 net.cpp:381] lstm1_gate_input_11 <- W_xc_x_11
I0202 14:16:52.271010 133479 net.cpp:339] lstm1_gate_input_11 -> gate_input_11
I0202 14:16:52.271015 133479 net.cpp:113] Setting up lstm1_gate_input_11
I0202 14:16:52.271019 133479 net.cpp:120] Top shape: 1 8 1024 (8192)
I0202 14:16:52.271021 133479 layer_factory.hpp:74] Creating layer lstm1_unit_11
I0202 14:16:52.271025 133479 net.cpp:84] Creating Layer lstm1_unit_11
I0202 14:16:52.271028 133479 net.cpp:381] lstm1_unit_11 <- c_10
I0202 14:16:52.271031 133479 net.cpp:381] lstm1_unit_11 <- gate_input_11
I0202 14:16:52.271035 133479 net.cpp:381] lstm1_unit_11 <- cont_11_lstm1_cont_slice_10_split_1
I0202 14:16:52.271039 133479 net.cpp:339] lstm1_unit_11 -> c_11
I0202 14:16:52.271044 133479 net.cpp:339] lstm1_unit_11 -> h_11
I0202 14:16:52.271049 133479 net.cpp:113] Setting up lstm1_unit_11
I0202 14:16:52.271052 133479 net.cpp:120] Top shape: 1 8 256 (2048)
I0202 14:16:52.271056 133479 net.cpp:120] Top shape: 1 8 256 (2048)
I0202 14:16:52.271059 133479 layer_factory.hpp:74] Creating layer h_11_lstm1_unit_11_1_split
I0202 14:16:52.271065 133479 net.cpp:84] Creating Layer h_11_lstm1_unit_11_1_split
I0202 14:16:52.271069 133479 net.cpp:381] h_11_lstm1_unit_11_1_split <- h_11
I0202 14:16:52.271072 133479 net.cpp:339] h_11_lstm1_unit_11_1_split -> h_11_lstm1_unit_11_1_split_0
I0202 14:16:52.271077 133479 net.cpp:339] h_11_lstm1_unit_11_1_split -> h_11_lstm1_unit_11_1_split_1
I0202 14:16:52.271082 133479 net.cpp:113] Setting up h_11_lstm1_unit_11_1_split
I0202 14:16:52.271085 133479 net.cpp:120] Top shape: 1 8 256 (2048)
I0202 14:16:52.271090 133479 net.cpp:120] Top shape: 1 8 256 (2048)
I0202 14:16:52.271091 133479 layer_factory.hpp:74] Creating layer lstm1_h_conted_11
I0202 14:16:52.271095 133479 net.cpp:84] Creating Layer lstm1_h_conted_11
I0202 14:16:52.271098 133479 net.cpp:381] lstm1_h_conted_11 <- h_11_lstm1_unit_11_1_split_0
I0202 14:16:52.271101 133479 net.cpp:381] lstm1_h_conted_11 <- cont_12_lstm1_cont_slice_11_split_0
I0202 14:16:52.271106 133479 net.cpp:339] lstm1_h_conted_11 -> h_conted_11
I0202 14:16:52.271111 133479 net.cpp:113] Setting up lstm1_h_conted_11
I0202 14:16:52.271113 133479 net.cpp:120] Top shape: 1 8 256 (2048)
I0202 14:16:52.271116 133479 layer_factory.hpp:74] Creating layer lstm1_transform_12
I0202 14:16:52.271123 133479 net.cpp:84] Creating Layer lstm1_transform_12
I0202 14:16:52.271126 133479 net.cpp:381] lstm1_transform_12 <- h_conted_11
I0202 14:16:52.271131 133479 net.cpp:339] lstm1_transform_12 -> W_hc_h_11
I0202 14:16:52.271137 133479 net.cpp:113] Setting up lstm1_transform_12
I0202 14:16:52.272879 133479 net.cpp:120] Top shape: 1 8 1024 (8192)
I0202 14:16:52.272886 133479 net.cpp:425] Sharing parameters 'W_hc' owned by layer 'lstm1_transform_1', param index 0
I0202 14:16:52.272889 133479 layer_factory.hpp:74] Creating layer lstm1_gate_input_12
I0202 14:16:52.272893 133479 net.cpp:84] Creating Layer lstm1_gate_input_12
I0202 14:16:52.272897 133479 net.cpp:381] lstm1_gate_input_12 <- W_hc_h_11
I0202 14:16:52.272900 133479 net.cpp:381] lstm1_gate_input_12 <- W_xc_x_12
I0202 14:16:52.272904 133479 net.cpp:339] lstm1_gate_input_12 -> gate_input_12
I0202 14:16:52.272908 133479 net.cpp:113] Setting up lstm1_gate_input_12
I0202 14:16:52.272912 133479 net.cpp:120] Top shape: 1 8 1024 (8192)
I0202 14:16:52.272914 133479 layer_factory.hpp:74] Creating layer lstm1_unit_12
I0202 14:16:52.272922 133479 net.cpp:84] Creating Layer lstm1_unit_12
I0202 14:16:52.272924 133479 net.cpp:381] lstm1_unit_12 <- c_11
I0202 14:16:52.272928 133479 net.cpp:381] lstm1_unit_12 <- gate_input_12
I0202 14:16:52.272931 133479 net.cpp:381] lstm1_unit_12 <- cont_12_lstm1_cont_slice_11_split_1
I0202 14:16:52.272935 133479 net.cpp:339] lstm1_unit_12 -> c_12
I0202 14:16:52.272940 133479 net.cpp:339] lstm1_unit_12 -> h_12
I0202 14:16:52.272944 133479 net.cpp:113] Setting up lstm1_unit_12
I0202 14:16:52.272948 133479 net.cpp:120] Top shape: 1 8 256 (2048)
I0202 14:16:52.272951 133479 net.cpp:120] Top shape: 1 8 256 (2048)
I0202 14:16:52.272954 133479 layer_factory.hpp:74] Creating layer h_12_lstm1_unit_12_1_split
I0202 14:16:52.272958 133479 net.cpp:84] Creating Layer h_12_lstm1_unit_12_1_split
I0202 14:16:52.272960 133479 net.cpp:381] h_12_lstm1_unit_12_1_split <- h_12
I0202 14:16:52.272964 133479 net.cpp:339] h_12_lstm1_unit_12_1_split -> h_12_lstm1_unit_12_1_split_0
I0202 14:16:52.272969 133479 net.cpp:339] h_12_lstm1_unit_12_1_split -> h_12_lstm1_unit_12_1_split_1
I0202 14:16:52.272976 133479 net.cpp:113] Setting up h_12_lstm1_unit_12_1_split
I0202 14:16:52.272980 133479 net.cpp:120] Top shape: 1 8 256 (2048)
I0202 14:16:52.272984 133479 net.cpp:120] Top shape: 1 8 256 (2048)
I0202 14:16:52.272987 133479 layer_factory.hpp:74] Creating layer lstm1_h_conted_12
I0202 14:16:52.272991 133479 net.cpp:84] Creating Layer lstm1_h_conted_12
I0202 14:16:52.272994 133479 net.cpp:381] lstm1_h_conted_12 <- h_12_lstm1_unit_12_1_split_0
I0202 14:16:52.272999 133479 net.cpp:381] lstm1_h_conted_12 <- cont_13_lstm1_cont_slice_12_split_0
I0202 14:16:52.273003 133479 net.cpp:339] lstm1_h_conted_12 -> h_conted_12
I0202 14:16:52.273007 133479 net.cpp:113] Setting up lstm1_h_conted_12
I0202 14:16:52.273011 133479 net.cpp:120] Top shape: 1 8 256 (2048)
I0202 14:16:52.273013 133479 layer_factory.hpp:74] Creating layer lstm1_transform_13
I0202 14:16:52.273018 133479 net.cpp:84] Creating Layer lstm1_transform_13
I0202 14:16:52.273020 133479 net.cpp:381] lstm1_transform_13 <- h_conted_12
I0202 14:16:52.273027 133479 net.cpp:339] lstm1_transform_13 -> W_hc_h_12
I0202 14:16:52.273031 133479 net.cpp:113] Setting up lstm1_transform_13
I0202 14:16:52.274773 133479 net.cpp:120] Top shape: 1 8 1024 (8192)
I0202 14:16:52.274780 133479 net.cpp:425] Sharing parameters 'W_hc' owned by layer 'lstm1_transform_1', param index 0
I0202 14:16:52.274783 133479 layer_factory.hpp:74] Creating layer lstm1_gate_input_13
I0202 14:16:52.274787 133479 net.cpp:84] Creating Layer lstm1_gate_input_13
I0202 14:16:52.274791 133479 net.cpp:381] lstm1_gate_input_13 <- W_hc_h_12
I0202 14:16:52.274794 133479 net.cpp:381] lstm1_gate_input_13 <- W_xc_x_13
I0202 14:16:52.274798 133479 net.cpp:339] lstm1_gate_input_13 -> gate_input_13
I0202 14:16:52.274803 133479 net.cpp:113] Setting up lstm1_gate_input_13
I0202 14:16:52.274807 133479 net.cpp:120] Top shape: 1 8 1024 (8192)
I0202 14:16:52.274809 133479 layer_factory.hpp:74] Creating layer lstm1_unit_13
I0202 14:16:52.274813 133479 net.cpp:84] Creating Layer lstm1_unit_13
I0202 14:16:52.274816 133479 net.cpp:381] lstm1_unit_13 <- c_12
I0202 14:16:52.274819 133479 net.cpp:381] lstm1_unit_13 <- gate_input_13
I0202 14:16:52.274822 133479 net.cpp:381] lstm1_unit_13 <- cont_13_lstm1_cont_slice_12_split_1
I0202 14:16:52.274827 133479 net.cpp:339] lstm1_unit_13 -> c_13
I0202 14:16:52.274832 133479 net.cpp:339] lstm1_unit_13 -> h_13
I0202 14:16:52.274838 133479 net.cpp:113] Setting up lstm1_unit_13
I0202 14:16:52.274843 133479 net.cpp:120] Top shape: 1 8 256 (2048)
I0202 14:16:52.274847 133479 net.cpp:120] Top shape: 1 8 256 (2048)
I0202 14:16:52.274848 133479 layer_factory.hpp:74] Creating layer h_13_lstm1_unit_13_1_split
I0202 14:16:52.274852 133479 net.cpp:84] Creating Layer h_13_lstm1_unit_13_1_split
I0202 14:16:52.274855 133479 net.cpp:381] h_13_lstm1_unit_13_1_split <- h_13
I0202 14:16:52.274859 133479 net.cpp:339] h_13_lstm1_unit_13_1_split -> h_13_lstm1_unit_13_1_split_0
I0202 14:16:52.274864 133479 net.cpp:339] h_13_lstm1_unit_13_1_split -> h_13_lstm1_unit_13_1_split_1
I0202 14:16:52.274869 133479 net.cpp:113] Setting up h_13_lstm1_unit_13_1_split
I0202 14:16:52.274873 133479 net.cpp:120] Top shape: 1 8 256 (2048)
I0202 14:16:52.274876 133479 net.cpp:120] Top shape: 1 8 256 (2048)
I0202 14:16:52.274878 133479 layer_factory.hpp:74] Creating layer lstm1_h_conted_13
I0202 14:16:52.274883 133479 net.cpp:84] Creating Layer lstm1_h_conted_13
I0202 14:16:52.274885 133479 net.cpp:381] lstm1_h_conted_13 <- h_13_lstm1_unit_13_1_split_0
I0202 14:16:52.274888 133479 net.cpp:381] lstm1_h_conted_13 <- cont_14_lstm1_cont_slice_13_split_0
I0202 14:16:52.274895 133479 net.cpp:339] lstm1_h_conted_13 -> h_conted_13
I0202 14:16:52.274899 133479 net.cpp:113] Setting up lstm1_h_conted_13
I0202 14:16:52.274904 133479 net.cpp:120] Top shape: 1 8 256 (2048)
I0202 14:16:52.274905 133479 layer_factory.hpp:74] Creating layer lstm1_transform_14
I0202 14:16:52.274910 133479 net.cpp:84] Creating Layer lstm1_transform_14
I0202 14:16:52.274912 133479 net.cpp:381] lstm1_transform_14 <- h_conted_13
I0202 14:16:52.274917 133479 net.cpp:339] lstm1_transform_14 -> W_hc_h_13
I0202 14:16:52.274921 133479 net.cpp:113] Setting up lstm1_transform_14
I0202 14:16:52.276657 133479 net.cpp:120] Top shape: 1 8 1024 (8192)
I0202 14:16:52.276664 133479 net.cpp:425] Sharing parameters 'W_hc' owned by layer 'lstm1_transform_1', param index 0
I0202 14:16:52.276667 133479 layer_factory.hpp:74] Creating layer lstm1_gate_input_14
I0202 14:16:52.276671 133479 net.cpp:84] Creating Layer lstm1_gate_input_14
I0202 14:16:52.276674 133479 net.cpp:381] lstm1_gate_input_14 <- W_hc_h_13
I0202 14:16:52.276679 133479 net.cpp:381] lstm1_gate_input_14 <- W_xc_x_14
I0202 14:16:52.276685 133479 net.cpp:339] lstm1_gate_input_14 -> gate_input_14
I0202 14:16:52.276693 133479 net.cpp:113] Setting up lstm1_gate_input_14
I0202 14:16:52.276698 133479 net.cpp:120] Top shape: 1 8 1024 (8192)
I0202 14:16:52.276701 133479 layer_factory.hpp:74] Creating layer lstm1_unit_14
I0202 14:16:52.276705 133479 net.cpp:84] Creating Layer lstm1_unit_14
I0202 14:16:52.276707 133479 net.cpp:381] lstm1_unit_14 <- c_13
I0202 14:16:52.276711 133479 net.cpp:381] lstm1_unit_14 <- gate_input_14
I0202 14:16:52.276715 133479 net.cpp:381] lstm1_unit_14 <- cont_14_lstm1_cont_slice_13_split_1
I0202 14:16:52.276720 133479 net.cpp:339] lstm1_unit_14 -> c_14
I0202 14:16:52.276723 133479 net.cpp:339] lstm1_unit_14 -> h_14
I0202 14:16:52.276727 133479 net.cpp:113] Setting up lstm1_unit_14
I0202 14:16:52.276731 133479 net.cpp:120] Top shape: 1 8 256 (2048)
I0202 14:16:52.276736 133479 net.cpp:120] Top shape: 1 8 256 (2048)
I0202 14:16:52.276737 133479 layer_factory.hpp:74] Creating layer h_14_lstm1_unit_14_1_split
I0202 14:16:52.276741 133479 net.cpp:84] Creating Layer h_14_lstm1_unit_14_1_split
I0202 14:16:52.276744 133479 net.cpp:381] h_14_lstm1_unit_14_1_split <- h_14
I0202 14:16:52.276751 133479 net.cpp:339] h_14_lstm1_unit_14_1_split -> h_14_lstm1_unit_14_1_split_0
I0202 14:16:52.276757 133479 net.cpp:339] h_14_lstm1_unit_14_1_split -> h_14_lstm1_unit_14_1_split_1
I0202 14:16:52.276760 133479 net.cpp:113] Setting up h_14_lstm1_unit_14_1_split
I0202 14:16:52.276764 133479 net.cpp:120] Top shape: 1 8 256 (2048)
I0202 14:16:52.276767 133479 net.cpp:120] Top shape: 1 8 256 (2048)
I0202 14:16:52.276770 133479 layer_factory.hpp:74] Creating layer lstm1_h_conted_14
I0202 14:16:52.276774 133479 net.cpp:84] Creating Layer lstm1_h_conted_14
I0202 14:16:52.276777 133479 net.cpp:381] lstm1_h_conted_14 <- h_14_lstm1_unit_14_1_split_0
I0202 14:16:52.276780 133479 net.cpp:381] lstm1_h_conted_14 <- cont_15_lstm1_cont_slice_14_split_0
I0202 14:16:52.276785 133479 net.cpp:339] lstm1_h_conted_14 -> h_conted_14
I0202 14:16:52.276789 133479 net.cpp:113] Setting up lstm1_h_conted_14
I0202 14:16:52.276793 133479 net.cpp:120] Top shape: 1 8 256 (2048)
I0202 14:16:52.276795 133479 layer_factory.hpp:74] Creating layer lstm1_transform_15
I0202 14:16:52.276799 133479 net.cpp:84] Creating Layer lstm1_transform_15
I0202 14:16:52.276803 133479 net.cpp:381] lstm1_transform_15 <- h_conted_14
I0202 14:16:52.276808 133479 net.cpp:339] lstm1_transform_15 -> W_hc_h_14
I0202 14:16:52.276813 133479 net.cpp:113] Setting up lstm1_transform_15
I0202 14:16:52.278553 133479 net.cpp:120] Top shape: 1 8 1024 (8192)
I0202 14:16:52.278563 133479 net.cpp:425] Sharing parameters 'W_hc' owned by layer 'lstm1_transform_1', param index 0
I0202 14:16:52.278565 133479 layer_factory.hpp:74] Creating layer lstm1_gate_input_15
I0202 14:16:52.278570 133479 net.cpp:84] Creating Layer lstm1_gate_input_15
I0202 14:16:52.278573 133479 net.cpp:381] lstm1_gate_input_15 <- W_hc_h_14
I0202 14:16:52.278576 133479 net.cpp:381] lstm1_gate_input_15 <- W_xc_x_15
I0202 14:16:52.278581 133479 net.cpp:339] lstm1_gate_input_15 -> gate_input_15
I0202 14:16:52.278585 133479 net.cpp:113] Setting up lstm1_gate_input_15
I0202 14:16:52.278590 133479 net.cpp:120] Top shape: 1 8 1024 (8192)
I0202 14:16:52.278592 133479 layer_factory.hpp:74] Creating layer lstm1_unit_15
I0202 14:16:52.278596 133479 net.cpp:84] Creating Layer lstm1_unit_15
I0202 14:16:52.278599 133479 net.cpp:381] lstm1_unit_15 <- c_14
I0202 14:16:52.278604 133479 net.cpp:381] lstm1_unit_15 <- gate_input_15
I0202 14:16:52.278606 133479 net.cpp:381] lstm1_unit_15 <- cont_15_lstm1_cont_slice_14_split_1
I0202 14:16:52.278614 133479 net.cpp:339] lstm1_unit_15 -> c_15
I0202 14:16:52.278620 133479 net.cpp:339] lstm1_unit_15 -> h_15
I0202 14:16:52.278623 133479 net.cpp:113] Setting up lstm1_unit_15
I0202 14:16:52.278627 133479 net.cpp:120] Top shape: 1 8 256 (2048)
I0202 14:16:52.278630 133479 net.cpp:120] Top shape: 1 8 256 (2048)
I0202 14:16:52.278633 133479 layer_factory.hpp:74] Creating layer h_15_lstm1_unit_15_1_split
I0202 14:16:52.278637 133479 net.cpp:84] Creating Layer h_15_lstm1_unit_15_1_split
I0202 14:16:52.278640 133479 net.cpp:381] h_15_lstm1_unit_15_1_split <- h_15
I0202 14:16:52.278643 133479 net.cpp:339] h_15_lstm1_unit_15_1_split -> h_15_lstm1_unit_15_1_split_0
I0202 14:16:52.278648 133479 net.cpp:339] h_15_lstm1_unit_15_1_split -> h_15_lstm1_unit_15_1_split_1
I0202 14:16:52.278653 133479 net.cpp:113] Setting up h_15_lstm1_unit_15_1_split
I0202 14:16:52.278659 133479 net.cpp:120] Top shape: 1 8 256 (2048)
I0202 14:16:52.278663 133479 net.cpp:120] Top shape: 1 8 256 (2048)
I0202 14:16:52.278666 133479 layer_factory.hpp:74] Creating layer lstm1_h_conted_15
I0202 14:16:52.278669 133479 net.cpp:84] Creating Layer lstm1_h_conted_15
I0202 14:16:52.278672 133479 net.cpp:381] lstm1_h_conted_15 <- h_15_lstm1_unit_15_1_split_0
I0202 14:16:52.278676 133479 net.cpp:381] lstm1_h_conted_15 <- cont_16_lstm1_cont_slice_15_split_0
I0202 14:16:52.278681 133479 net.cpp:339] lstm1_h_conted_15 -> h_conted_15
I0202 14:16:52.278684 133479 net.cpp:113] Setting up lstm1_h_conted_15
I0202 14:16:52.278688 133479 net.cpp:120] Top shape: 1 8 256 (2048)
I0202 14:16:52.278690 133479 layer_factory.hpp:74] Creating layer lstm1_transform_16
I0202 14:16:52.278694 133479 net.cpp:84] Creating Layer lstm1_transform_16
I0202 14:16:52.278697 133479 net.cpp:381] lstm1_transform_16 <- h_conted_15
I0202 14:16:52.278702 133479 net.cpp:339] lstm1_transform_16 -> W_hc_h_15
I0202 14:16:52.278705 133479 net.cpp:113] Setting up lstm1_transform_16
I0202 14:16:52.280453 133479 net.cpp:120] Top shape: 1 8 1024 (8192)
I0202 14:16:52.280460 133479 net.cpp:425] Sharing parameters 'W_hc' owned by layer 'lstm1_transform_1', param index 0
I0202 14:16:52.280463 133479 layer_factory.hpp:74] Creating layer lstm1_gate_input_16
I0202 14:16:52.280467 133479 net.cpp:84] Creating Layer lstm1_gate_input_16
I0202 14:16:52.280472 133479 net.cpp:381] lstm1_gate_input_16 <- W_hc_h_15
I0202 14:16:52.280475 133479 net.cpp:381] lstm1_gate_input_16 <- W_xc_x_16
I0202 14:16:52.280479 133479 net.cpp:339] lstm1_gate_input_16 -> gate_input_16
I0202 14:16:52.280483 133479 net.cpp:113] Setting up lstm1_gate_input_16
I0202 14:16:52.280488 133479 net.cpp:120] Top shape: 1 8 1024 (8192)
I0202 14:16:52.280490 133479 layer_factory.hpp:74] Creating layer lstm1_unit_16
I0202 14:16:52.280494 133479 net.cpp:84] Creating Layer lstm1_unit_16
I0202 14:16:52.280496 133479 net.cpp:381] lstm1_unit_16 <- c_15
I0202 14:16:52.280500 133479 net.cpp:381] lstm1_unit_16 <- gate_input_16
I0202 14:16:52.280503 133479 net.cpp:381] lstm1_unit_16 <- cont_16_lstm1_cont_slice_15_split_1
I0202 14:16:52.280508 133479 net.cpp:339] lstm1_unit_16 -> c_16
I0202 14:16:52.280513 133479 net.cpp:339] lstm1_unit_16 -> h_16
I0202 14:16:52.280516 133479 net.cpp:113] Setting up lstm1_unit_16
I0202 14:16:52.280520 133479 net.cpp:120] Top shape: 1 8 256 (2048)
I0202 14:16:52.280524 133479 net.cpp:120] Top shape: 1 8 256 (2048)
I0202 14:16:52.280525 133479 layer_factory.hpp:74] Creating layer h_16_lstm1_unit_16_1_split
I0202 14:16:52.280532 133479 net.cpp:84] Creating Layer h_16_lstm1_unit_16_1_split
I0202 14:16:52.280534 133479 net.cpp:381] h_16_lstm1_unit_16_1_split <- h_16
I0202 14:16:52.280539 133479 net.cpp:339] h_16_lstm1_unit_16_1_split -> h_16_lstm1_unit_16_1_split_0
I0202 14:16:52.280544 133479 net.cpp:339] h_16_lstm1_unit_16_1_split -> h_16_lstm1_unit_16_1_split_1
I0202 14:16:52.280549 133479 net.cpp:113] Setting up h_16_lstm1_unit_16_1_split
I0202 14:16:52.280552 133479 net.cpp:120] Top shape: 1 8 256 (2048)
I0202 14:16:52.280555 133479 net.cpp:120] Top shape: 1 8 256 (2048)
I0202 14:16:52.280557 133479 layer_factory.hpp:74] Creating layer lstm1_h_conted_16
I0202 14:16:52.280561 133479 net.cpp:84] Creating Layer lstm1_h_conted_16
I0202 14:16:52.280565 133479 net.cpp:381] lstm1_h_conted_16 <- h_16_lstm1_unit_16_1_split_0
I0202 14:16:52.280567 133479 net.cpp:381] lstm1_h_conted_16 <- cont_17_lstm1_cont_slice_16_split_0
I0202 14:16:52.280572 133479 net.cpp:339] lstm1_h_conted_16 -> h_conted_16
I0202 14:16:52.280576 133479 net.cpp:113] Setting up lstm1_h_conted_16
I0202 14:16:52.280580 133479 net.cpp:120] Top shape: 1 8 256 (2048)
I0202 14:16:52.280583 133479 layer_factory.hpp:74] Creating layer lstm1_transform_17
I0202 14:16:52.280589 133479 net.cpp:84] Creating Layer lstm1_transform_17
I0202 14:16:52.280592 133479 net.cpp:381] lstm1_transform_17 <- h_conted_16
I0202 14:16:52.280596 133479 net.cpp:339] lstm1_transform_17 -> W_hc_h_16
I0202 14:16:52.280601 133479 net.cpp:113] Setting up lstm1_transform_17
I0202 14:16:52.282346 133479 net.cpp:120] Top shape: 1 8 1024 (8192)
I0202 14:16:52.282353 133479 net.cpp:425] Sharing parameters 'W_hc' owned by layer 'lstm1_transform_1', param index 0
I0202 14:16:52.282356 133479 layer_factory.hpp:74] Creating layer lstm1_gate_input_17
I0202 14:16:52.282361 133479 net.cpp:84] Creating Layer lstm1_gate_input_17
I0202 14:16:52.282363 133479 net.cpp:381] lstm1_gate_input_17 <- W_hc_h_16
I0202 14:16:52.282367 133479 net.cpp:381] lstm1_gate_input_17 <- W_xc_x_17
I0202 14:16:52.282371 133479 net.cpp:339] lstm1_gate_input_17 -> gate_input_17
I0202 14:16:52.282375 133479 net.cpp:113] Setting up lstm1_gate_input_17
I0202 14:16:52.282379 133479 net.cpp:120] Top shape: 1 8 1024 (8192)
I0202 14:16:52.282382 133479 layer_factory.hpp:74] Creating layer lstm1_unit_17
I0202 14:16:52.282387 133479 net.cpp:84] Creating Layer lstm1_unit_17
I0202 14:16:52.282388 133479 net.cpp:381] lstm1_unit_17 <- c_16
I0202 14:16:52.282394 133479 net.cpp:381] lstm1_unit_17 <- gate_input_17
I0202 14:16:52.282398 133479 net.cpp:381] lstm1_unit_17 <- cont_17_lstm1_cont_slice_16_split_1
I0202 14:16:52.282402 133479 net.cpp:339] lstm1_unit_17 -> c_17
I0202 14:16:52.282407 133479 net.cpp:339] lstm1_unit_17 -> h_17
I0202 14:16:52.282410 133479 net.cpp:113] Setting up lstm1_unit_17
I0202 14:16:52.282415 133479 net.cpp:120] Top shape: 1 8 256 (2048)
I0202 14:16:52.282418 133479 net.cpp:120] Top shape: 1 8 256 (2048)
I0202 14:16:52.282420 133479 layer_factory.hpp:74] Creating layer h_17_lstm1_unit_17_1_split
I0202 14:16:52.282424 133479 net.cpp:84] Creating Layer h_17_lstm1_unit_17_1_split
I0202 14:16:52.282428 133479 net.cpp:381] h_17_lstm1_unit_17_1_split <- h_17
I0202 14:16:52.282431 133479 net.cpp:339] h_17_lstm1_unit_17_1_split -> h_17_lstm1_unit_17_1_split_0
I0202 14:16:52.282436 133479 net.cpp:339] h_17_lstm1_unit_17_1_split -> h_17_lstm1_unit_17_1_split_1
I0202 14:16:52.282443 133479 net.cpp:113] Setting up h_17_lstm1_unit_17_1_split
I0202 14:16:52.282447 133479 net.cpp:120] Top shape: 1 8 256 (2048)
I0202 14:16:52.282450 133479 net.cpp:120] Top shape: 1 8 256 (2048)
I0202 14:16:52.282452 133479 layer_factory.hpp:74] Creating layer lstm1_h_conted_17
I0202 14:16:52.282456 133479 net.cpp:84] Creating Layer lstm1_h_conted_17
I0202 14:16:52.282459 133479 net.cpp:381] lstm1_h_conted_17 <- h_17_lstm1_unit_17_1_split_0
I0202 14:16:52.282462 133479 net.cpp:381] lstm1_h_conted_17 <- cont_18_lstm1_cont_slice_17_split_0
I0202 14:16:52.282467 133479 net.cpp:339] lstm1_h_conted_17 -> h_conted_17
I0202 14:16:52.282471 133479 net.cpp:113] Setting up lstm1_h_conted_17
I0202 14:16:52.282475 133479 net.cpp:120] Top shape: 1 8 256 (2048)
I0202 14:16:52.282477 133479 layer_factory.hpp:74] Creating layer lstm1_transform_18
I0202 14:16:52.282481 133479 net.cpp:84] Creating Layer lstm1_transform_18
I0202 14:16:52.282485 133479 net.cpp:381] lstm1_transform_18 <- h_conted_17
I0202 14:16:52.282488 133479 net.cpp:339] lstm1_transform_18 -> W_hc_h_17
I0202 14:16:52.282492 133479 net.cpp:113] Setting up lstm1_transform_18
I0202 14:16:52.284237 133479 net.cpp:120] Top shape: 1 8 1024 (8192)
I0202 14:16:52.284245 133479 net.cpp:425] Sharing parameters 'W_hc' owned by layer 'lstm1_transform_1', param index 0
I0202 14:16:52.284247 133479 layer_factory.hpp:74] Creating layer lstm1_gate_input_18
I0202 14:16:52.284252 133479 net.cpp:84] Creating Layer lstm1_gate_input_18
I0202 14:16:52.284255 133479 net.cpp:381] lstm1_gate_input_18 <- W_hc_h_17
I0202 14:16:52.284260 133479 net.cpp:381] lstm1_gate_input_18 <- W_xc_x_18
I0202 14:16:52.284265 133479 net.cpp:339] lstm1_gate_input_18 -> gate_input_18
I0202 14:16:52.284268 133479 net.cpp:113] Setting up lstm1_gate_input_18
I0202 14:16:52.284272 133479 net.cpp:120] Top shape: 1 8 1024 (8192)
I0202 14:16:52.284276 133479 layer_factory.hpp:74] Creating layer lstm1_unit_18
I0202 14:16:52.284279 133479 net.cpp:84] Creating Layer lstm1_unit_18
I0202 14:16:52.284281 133479 net.cpp:381] lstm1_unit_18 <- c_17
I0202 14:16:52.284286 133479 net.cpp:381] lstm1_unit_18 <- gate_input_18
I0202 14:16:52.284288 133479 net.cpp:381] lstm1_unit_18 <- cont_18_lstm1_cont_slice_17_split_1
I0202 14:16:52.284292 133479 net.cpp:339] lstm1_unit_18 -> c_18
I0202 14:16:52.284297 133479 net.cpp:339] lstm1_unit_18 -> h_18
I0202 14:16:52.284301 133479 net.cpp:113] Setting up lstm1_unit_18
I0202 14:16:52.284306 133479 net.cpp:120] Top shape: 1 8 256 (2048)
I0202 14:16:52.284309 133479 net.cpp:120] Top shape: 1 8 256 (2048)
I0202 14:16:52.284312 133479 layer_factory.hpp:74] Creating layer lstm1_
I0202 14:16:52.284315 133479 net.cpp:84] Creating Layer lstm1_
I0202 14:16:52.284318 133479 net.cpp:381] lstm1_ <- c_18
I0202 14:16:52.284324 133479 net.cpp:339] lstm1_ -> c_T
I0202 14:16:52.284329 133479 net.cpp:113] Setting up lstm1_
I0202 14:16:52.284333 133479 net.cpp:120] Top shape: 1 8 256 (2048)
I0202 14:16:52.284335 133479 layer_factory.hpp:74] Creating layer lstm1_h_concat
I0202 14:16:52.284343 133479 net.cpp:84] Creating Layer lstm1_h_concat
I0202 14:16:52.284346 133479 net.cpp:381] lstm1_h_concat <- h_1_lstm1_unit_1_1_split_1
I0202 14:16:52.284350 133479 net.cpp:381] lstm1_h_concat <- h_2_lstm1_unit_2_1_split_1
I0202 14:16:52.284353 133479 net.cpp:381] lstm1_h_concat <- h_3_lstm1_unit_3_1_split_1
…
I0202 14:16:52.284698 133479 net.cpp:205] This network produces output c_T
I0202 14:16:52.284703 133479 net.cpp:205] This network produces output h
I0202 14:16:52.284812 133479 net.cpp:446] Collecting Learning Rate and Weight Decay.
I0202 14:16:52.285663 133479 net.cpp:218] Network initialization done.
I0202 14:16:52.285679 133479 net.cpp:219] Memory required for data: 3237568
I0202 14:16:52.285866 133479 recurrent_layer.cpp:135] Adding parameter 0: W_xc
I0202 14:16:52.285872 133479 recurrent_layer.cpp:135] Adding parameter 1: b_c
I0202 14:16:52.285876 133479 recurrent_layer.cpp:135] Adding parameter 2: W_hc
I0202 14:16:52.285949 133479 net.cpp:120] Top shape: 18 8 256 (36864)
I0202 14:16:52.285969 133479 layer_factory.hpp:74] Creating layer lstm1-drop
I0202 14:16:52.285987 133479 net.cpp:84] Creating Layer lstm1-drop
I0202 14:16:52.285992 133479 net.cpp:381] lstm1-drop <- lstm1
I0202 14:16:52.285997 133479 net.cpp:339] lstm1-drop -> lstm1-drop
I0202 14:16:52.286003 133479 net.cpp:113] Setting up lstm1-drop
I0202 14:16:52.286010 133479 net.cpp:120] Top shape: 18 8 256 (36864)
I0202 14:16:52.286012 133479 layer_factory.hpp:74] Creating layer fc8-final
I0202 14:16:52.286018 133479 net.cpp:84] Creating Layer fc8-final
I0202 14:16:52.286021 133479 net.cpp:381] fc8-final <- lstm1-drop
I0202 14:16:52.286026 133479 net.cpp:339] fc8-final -> fc8-final
I0202 14:16:52.286031 133479 net.cpp:113] Setting up fc8-final
I0202 14:16:52.286051 133479 net.cpp:120] Top shape: 18 8 3 (432)
I0202 14:16:52.286067 133479 layer_factory.hpp:74] Creating layer fc8-final_fc8-final_0_split
I0202 14:16:52.286073 133479 net.cpp:84] Creating Layer fc8-final_fc8-final_0_split
I0202 14:16:52.286077 133479 net.cpp:381] fc8-final_fc8-final_0_split <- fc8-final
I0202 14:16:52.286080 133479 net.cpp:339] fc8-final_fc8-final_0_split -> fc8-final_fc8-final_0_split_0
I0202 14:16:52.286087 133479 net.cpp:339] fc8-final_fc8-final_0_split -> fc8-final_fc8-final_0_split_1
I0202 14:16:52.286092 133479 net.cpp:113] Setting up fc8-final_fc8-final_0_split
I0202 14:16:52.286097 133479 net.cpp:120] Top shape: 18 8 3 (432)
I0202 14:16:52.286100 133479 net.cpp:120] Top shape: 18 8 3 (432)
I0202 14:16:52.286103 133479 layer_factory.hpp:74] Creating layer loss
I0202 14:16:52.286108 133479 net.cpp:84] Creating Layer loss
I0202 14:16:52.286111 133479 net.cpp:381] loss <- fc8-final_fc8-final_0_split_0
I0202 14:16:52.286115 133479 net.cpp:381] loss <- reshape-label_reshape-label_0_split_0
I0202 14:16:52.286119 133479 net.cpp:339] loss -> loss
I0202 14:16:52.286126 133479 net.cpp:113] Setting up loss
…
