…
I0123 21:07:12.287837 63713 net.cpp:258] The NetState phase (0) differed from the phase (1) specified by a rule in layer reshape-cm
I0123 21:07:12.288204 63713 net.cpp:42] Initializing net from parameters: 
name: "lstm_joints"
state {
  phase: TRAIN
}
layer {
  name: "data"
  type: "Python"
  top: "data"
  top: "label"
  top: "clip_markers"
  include {
    phase: TRAIN
  }
  python_param {
    module: "image_input_layer"
    layer: "videoReadTrain_RGB"
  }
}
layer {
  name: "data2"
  type: "Python"
  top: "data2"
  include {
    phase: TRAIN
  }
  python_param {
    module: "audio_input_layer"
    layer: "audioReadTrain_RGB"
  }
}
layer {
  name: "conv1_l"
  type: "Convolution"
  bottom: "data"
  top: "conv1_l"
  param {
    lr_mult: 1
    decay_mult: 1
  }
  param {
    lr_mult: 2
    decay_mult: 0
  }
  convolution_param {
    num_output: 96
    kernel_size: 11
    stride: 4
    weight_filler {
      type: "gaussian"
      std: 0.01
    }
    bias_filler {
      type: "constant"
      value: 0.1
    }
  }
}
layer {
  name: "relu1_l"
  type: "ReLU"
  bottom: "conv1_l"
  top: "conv1_l"
}
layer {
  name: "pool1_l"
  type: "Pooling"
  bottom: "conv1_l"
  top: "pool1_l"
  pooling_param {
    pool: MAX
    kernel_size: 3
    stride: 2
  }
}
layer {
  name: "norm1_l"
  type: "LRN"
  bottom: "pool1_l"
  top: "norm1_l"
  lrn_param {
    local_size: 5
    alpha: 0.0001
    beta: 0.75
  }
}
layer {
  name: "conv2_l"
  type: "Convolution"
  bottom: "norm1_l"
  top: "conv2_l"
  param {
    lr_mult: 1
    decay_mult: 1
  }
  param {
    lr_mult: 2
    decay_mult: 0
  }
  convolution_param {
    num_output: 256
    pad: 2
    kernel_size: 5
    group: 2
    weight_filler {
      type: "gaussian"
      std: 0.01
    }
    bias_filler {
      type: "constant"
      value: 1
    }
  }
}
layer {
  name: "relu2_l"
  type: "ReLU"
  bottom: "conv2_l"
  top: "conv2_l"
}
layer {
  name: "pool2_l"
  type: "Pooling"
  bottom: "conv2_l"
  top: "pool2_l"
  pooling_param {
    pool: MAX
    kernel_size: 3
    stride: 2
  }
}
layer {
  name: "norm2_l"
  type: "LRN"
  bottom: "pool2_l"
  top: "norm2_l"
  lrn_param {
    local_size: 5
    alpha: 0.0001
    beta: 0.75
  }
}
layer {
  name: "fc6_l"
  type: "InnerProduct"
  bottom: "norm2_l"
  top: "fc6_l"
  param {
    lr_mult: 1
    decay_mult: 1
  }
  param {
    lr_mult: 2
    decay_mult: 0
  }
  inner_product_param {
    num_output: 4096
    weight_filler {
      type: "gaussian"
      std: 0.005
    }
    bias_filler {
      type: "constant"
      value: 1
    }
  }
}
layer {
  name: "relu6_l"
  type: "ReLU"
  bottom: "fc6_l"
  top: "fc6_l"
}
layer {
  name: "drop6_l"
  type: "Dropout"
  bottom: "fc6_l"
  top: "fc6_l"
  dropout_param {
    dropout_ratio: 0.9
  }
}
layer {
  name: "conv1_r"
  type: "Convolution"
  bottom: "data2"
  top: "conv1_r"
  param {
    lr_mult: 1
    decay_mult: 1
  }
  param {
    lr_mult: 2
    decay_mult: 0
  }
  convolution_param {
    num_output: 96
    kernel_size: 11
    stride: 4
    weight_filler {
      type: "gaussian"
      std: 0.01
    }
    bias_filler {
      type: "constant"
      value: 0.1
    }
  }
}
layer {
  name: "relu1_r"
  type: "ReLU"
  bottom: "conv1_r"
  top: "conv1_r"
}
layer {
  name: "pool1_r"
  type: "Pooling"
  bottom: "conv1_r"
  top: "pool1_r"
  pooling_param {
    pool: MAX
    kernel_size: 3
    stride: 2
  }
}
layer {
  name: "norm1_r"
  type: "LRN"
  bottom: "pool1_r"
  top: "norm1_r"
  lrn_param {
    local_size: 5
    alpha: 0.0001
    beta: 0.75
  }
}
layer {
  name: "conv2_r"
  type: "Convolution"
  bottom: "norm1_r"
  top: "conv2_r"
  param {
    lr_mult: 1
    decay_mult: 1
  }
  param {
    lr_mult: 2
    decay_mult: 0
  }
  convolution_param {
    num_output: 256
    pad: 2
    kernel_size: 5
    group: 2
    weight_filler {
      type: "gaussian"
      std: 0.01
    }
    bias_filler {
      type: "constant"
      value: 1
    }
  }
}
layer {
  name: "relu2_r"
  type: "ReLU"
  bottom: "conv2_r"
  top: "conv2_r"
}
layer {
  name: "pool2_r"
  type: "Pooling"
  bottom: "conv2_r"
  top: "pool2_r"
  pooling_param {
    pool: MAX
    kernel_size: 3
    stride: 2
  }
}
layer {
  name: "norm2_r"
  type: "LRN"
  bottom: "pool2_r"
  top: "norm2_r"
  lrn_param {
    local_size: 5
    alpha: 0.0001
    beta: 0.75
  }
}
layer {
  name: "fc6_r"
  type: "InnerProduct"
  bottom: "norm2_r"
  top: "fc6_r"
  param {
    lr_mult: 1
    decay_mult: 1
  }
  param {
    lr_mult: 2
    decay_mult: 0
  }
  inner_product_param {
    num_output: 4096
    weight_filler {
      type: "gaussian"
      std: 0.005
    }
    bias_filler {
      type: "constant"
      value: 1
    }
  }
}
layer {
  name: "relu6_r"
  type: "ReLU"
  bottom: "fc6_r"
  top: "fc6_r"
}
layer {
  name: "drop6_r"
  type: "Dropout"
  bottom: "fc6_r"
  top: "fc6_r"
  dropout_param {
    dropout_ratio: 0.9
  }
}
layer {
  name: "fusion_point"
  type: "Concat"
  bottom: "fc6_l"
  bottom: "fc6_r"
  top: "fusion_point"
  concat_param {
    axis: 1
  }
}
layer {
  name: "fc1_fusionA"
  type: "InnerProduct"
  bottom: "fusion_point"
  top: "fc1_fusionA"
  param {
    lr_mult: 1
    decay_mult: 1
  }
  param {
    lr_mult: 2
    decay_mult: 0
  }
  inner_product_param {
    num_output: 4096
    weight_filler {
      type: "gaussian"
      std: 0.01
    }
    bias_filler {
      type: "constant"
      value: 0.1
    }
  }
}
layer {
  name: "relu1_fusionA"
  type: "ReLU"
  bottom: "fc1_fusionA"
  top: "fc1_fusionA"
}
layer {
  name: "drop1_fusionA"
  type: "Dropout"
  bottom: "fc1_fusionA"
  top: "fc1_fusionA"
  dropout_param {
    dropout_ratio: 0.9
  }
}
layer {
  name: "reshape-data"
  type: "Reshape"
  bottom: "fc1_fusionA"
  top: "fc6-reshape"
  include {
    phase: TRAIN
  }
  reshape_param {
    shape {
      dim: 18
      dim: 8
      dim: 4096
    }
  }
}
layer {
  name: "reshape-label"
  type: "Reshape"
  bottom: "label"
  top: "reshape-label"
  include {
    phase: TRAIN
  }
  reshape_param {
    shape {
      dim: 18
      dim: 8
    }
  }
}
layer {
  name: "reshape-cm"
  type: "Reshape"
  bottom: "clip_markers"
  top: "reshape-cm"
  include {
    phase: TRAIN
  }
  reshape_param {
    shape {
      dim: 18
      dim: 8
    }
  }
}
layer {
  name: "lstm1"
  type: "LSTM"
  bottom: "fc6-reshape"
  bottom: "reshape-cm"
  top: "lstm1"
  recurrent_param {
    num_output: 256
    weight_filler {
      type: "uniform"
      min: -0.01
      max: 0.01
    }
    bias_filler {
      type: "constant"
      value: 0
    }
  }
}
layer {
  name: "lstm1-drop"
  type: "Dropout"
  bottom: "lstm1"
  top: "lstm1-drop"
  dropout_param {
    dropout_ratio: 0.5
  }
}
layer {
  name: "fc8-final"
  type: "InnerProduct"
  bottom: "lstm1-drop"
  top: "fc8-final"
  param {
    lr_mult: 10
    decay_mult: 1
  }
  param {
    lr_mult: 20
    decay_mult: 0
  }
  inner_product_param {
    num_output: 3
    weight_filler {
      type: "gaussian"
      std: 0.01
    }
    bias_filler {
      type: "constant"
      value: 0
    }
    axis: 2
  }
}
layer {
  name: "loss"
  type: "SoftmaxWithLoss"
  bottom: "fc8-final"
  bottom: "reshape-label"
  top: "loss"
  softmax_param {
    axis: 2
  }
}
layer {
  name: "accuracy"
  type: "Accuracy"
  bottom: "fc8-final"
  bottom: "reshape-label"
  top: "accuracy"
  accuracy_param {
    axis: 2
  }
}
I0123 21:07:12.288529 63713 layer_factory.hpp:74] Creating layer data
I0123 21:07:13.349472 63713 net.cpp:84] Creating Layer data
I0123 21:07:13.349584 63713 net.cpp:339] data -> data
I0123 21:07:13.349647 63713 net.cpp:339] data -> label
I0123 21:07:13.349694 63713 net.cpp:339] data -> clip_markers
I0123 21:07:13.349730 63713 net.cpp:113] Setting up data
I0123 21:07:25.561589 63713 net.cpp:120] Top shape: 144 3 227 227 (22260528)
I0123 21:07:25.561642 63713 net.cpp:120] Top shape: 144 (144)
I0123 21:07:25.561652 63713 net.cpp:120] Top shape: 144 (144)
I0123 21:07:25.561668 63713 layer_factory.hpp:74] Creating layer data2
I0123 21:07:25.566243 63713 net.cpp:84] Creating Layer data2
I0123 21:07:25.566270 63713 net.cpp:339] data2 -> data2
I0123 21:07:25.566293 63713 net.cpp:113] Setting up data2
Outputs: ['data', 'label', 'clip_markers']
I0123 21:07:35.216130 63713 net.cpp:120] Top shape: 144 3 227 227 (22260528)
I0123 21:07:35.216203 63713 layer_factory.hpp:74] Creating layer conv1_l
I0123 21:07:35.216249 63713 net.cpp:84] Creating Layer conv1_l
I0123 21:07:35.216270 63713 net.cpp:381] conv1_l <- data
I0123 21:07:35.216332 63713 net.cpp:339] conv1_l -> conv1_l
I0123 21:07:35.216426 63713 net.cpp:113] Setting up conv1_l
I0123 21:07:35.217461 63713 net.cpp:120] Top shape: 144 96 55 55 (41817600)
I0123 21:07:35.217542 63713 layer_factory.hpp:74] Creating layer relu1_l
I0123 21:07:35.217566 63713 net.cpp:84] Creating Layer relu1_l
I0123 21:07:35.217577 63713 net.cpp:381] relu1_l <- conv1_l
I0123 21:07:35.217597 63713 net.cpp:328] relu1_l -> conv1_l (in-place)
I0123 21:07:35.217612 63713 net.cpp:113] Setting up relu1_l
I0123 21:07:35.217628 63713 net.cpp:120] Top shape: 144 96 55 55 (41817600)
I0123 21:07:35.217640 63713 layer_factory.hpp:74] Creating layer pool1_l
I0123 21:07:35.217658 63713 net.cpp:84] Creating Layer pool1_l
I0123 21:07:35.217667 63713 net.cpp:381] pool1_l <- conv1_l
I0123 21:07:35.217679 63713 net.cpp:339] pool1_l -> pool1_l
I0123 21:07:35.217695 63713 net.cpp:113] Setting up pool1_l
I0123 21:07:35.217726 63713 net.cpp:120] Top shape: 144 96 27 27 (10077696)
I0123 21:07:35.217741 63713 layer_factory.hpp:74] Creating layer norm1_l
I0123 21:07:35.217754 63713 net.cpp:84] Creating Layer norm1_l
I0123 21:07:35.217762 63713 net.cpp:381] norm1_l <- pool1_l
I0123 21:07:35.217774 63713 net.cpp:339] norm1_l -> norm1_l
I0123 21:07:35.217790 63713 net.cpp:113] Setting up norm1_l
I0123 21:07:35.217806 63713 net.cpp:120] Top shape: 144 96 27 27 (10077696)
I0123 21:07:35.217814 63713 layer_factory.hpp:74] Creating layer conv2_l
I0123 21:07:35.217828 63713 net.cpp:84] Creating Layer conv2_l
I0123 21:07:35.217836 63713 net.cpp:381] conv2_l <- norm1_l
I0123 21:07:35.217864 63713 net.cpp:339] conv2_l -> conv2_l
I0123 21:07:35.217885 63713 net.cpp:113] Setting up conv2_l
I0123 21:07:35.225744 63713 net.cpp:120] Top shape: 144 256 27 27 (26873856)
I0123 21:07:35.225802 63713 layer_factory.hpp:74] Creating layer relu2_l
I0123 21:07:35.225826 63713 net.cpp:84] Creating Layer relu2_l
I0123 21:07:35.225837 63713 net.cpp:381] relu2_l <- conv2_l
I0123 21:07:35.225857 63713 net.cpp:328] relu2_l -> conv2_l (in-place)
I0123 21:07:35.225875 63713 net.cpp:113] Setting up relu2_l
I0123 21:07:35.225891 63713 net.cpp:120] Top shape: 144 256 27 27 (26873856)
I0123 21:07:35.225899 63713 layer_factory.hpp:74] Creating layer pool2_l
I0123 21:07:35.225914 63713 net.cpp:84] Creating Layer pool2_l
I0123 21:07:35.225924 63713 net.cpp:381] pool2_l <- conv2_l
I0123 21:07:35.225935 63713 net.cpp:339] pool2_l -> pool2_l
I0123 21:07:35.225951 63713 net.cpp:113] Setting up pool2_l
I0123 21:07:35.226011 63713 net.cpp:120] Top shape: 144 256 13 13 (6230016)
I0123 21:07:35.226027 63713 layer_factory.hpp:74] Creating layer norm2_l
I0123 21:07:35.226042 63713 net.cpp:84] Creating Layer norm2_l
I0123 21:07:35.226049 63713 net.cpp:381] norm2_l <- pool2_l
I0123 21:07:35.226061 63713 net.cpp:339] norm2_l -> norm2_l
I0123 21:07:35.226075 63713 net.cpp:113] Setting up norm2_l
I0123 21:07:35.226094 63713 net.cpp:120] Top shape: 144 256 13 13 (6230016)
I0123 21:07:35.226102 63713 layer_factory.hpp:74] Creating layer fc6_l
I0123 21:07:35.226116 63713 net.cpp:84] Creating Layer fc6_l
I0123 21:07:35.226125 63713 net.cpp:381] fc6_l <- norm2_l
I0123 21:07:35.226147 63713 net.cpp:339] fc6_l -> fc6_l
I0123 21:07:35.226169 63713 net.cpp:113] Setting up fc6_l
I0123 21:07:40.063587 63713 net.cpp:120] Top shape: 144 4096 (589824)
I0123 21:07:40.063720 63713 layer_factory.hpp:74] Creating layer relu6_l
I0123 21:07:40.063767 63713 net.cpp:84] Creating Layer relu6_l
I0123 21:07:40.063802 63713 net.cpp:381] relu6_l <- fc6_l
I0123 21:07:40.063824 63713 net.cpp:328] relu6_l -> fc6_l (in-place)
I0123 21:07:40.063840 63713 net.cpp:113] Setting up relu6_l
I0123 21:07:40.063853 63713 net.cpp:120] Top shape: 144 4096 (589824)
I0123 21:07:40.063860 63713 layer_factory.hpp:74] Creating layer drop6_l
I0123 21:07:40.063885 63713 net.cpp:84] Creating Layer drop6_l
I0123 21:07:40.063897 63713 net.cpp:381] drop6_l <- fc6_l
I0123 21:07:40.063918 63713 net.cpp:328] drop6_l -> fc6_l (in-place)
I0123 21:07:40.063936 63713 net.cpp:113] Setting up drop6_l
I0123 21:07:40.063958 63713 net.cpp:120] Top shape: 144 4096 (589824)
I0123 21:07:40.063969 63713 layer_factory.hpp:74] Creating layer conv1_r
I0123 21:07:40.063984 63713 net.cpp:84] Creating Layer conv1_r
I0123 21:07:40.063995 63713 net.cpp:381] conv1_r <- data2
I0123 21:07:40.064009 63713 net.cpp:339] conv1_r -> conv1_r
I0123 21:07:40.064028 63713 net.cpp:113] Setting up conv1_r
I0123 21:07:40.064844 63713 net.cpp:120] Top shape: 144 96 55 55 (41817600)
I0123 21:07:40.064868 63713 layer_factory.hpp:74] Creating layer relu1_r
I0123 21:07:40.064882 63713 net.cpp:84] Creating Layer relu1_r
I0123 21:07:40.064893 63713 net.cpp:381] relu1_r <- conv1_r
I0123 21:07:40.064903 63713 net.cpp:328] relu1_r -> conv1_r (in-place)
I0123 21:07:40.064918 63713 net.cpp:113] Setting up relu1_r
I0123 21:07:40.064930 63713 net.cpp:120] Top shape: 144 96 55 55 (41817600)
I0123 21:07:40.064947 63713 layer_factory.hpp:74] Creating layer pool1_r
I0123 21:07:40.064992 63713 net.cpp:84] Creating Layer pool1_r
I0123 21:07:40.065024 63713 net.cpp:381] pool1_r <- conv1_r
I0123 21:07:40.065058 63713 net.cpp:339] pool1_r -> pool1_r
I0123 21:07:40.065095 63713 net.cpp:113] Setting up pool1_r
I0123 21:07:40.065141 63713 net.cpp:120] Top shape: 144 96 27 27 (10077696)
I0123 21:07:40.065172 63713 layer_factory.hpp:74] Creating layer norm1_r
I0123 21:07:40.065214 63713 net.cpp:84] Creating Layer norm1_r
I0123 21:07:40.065245 63713 net.cpp:381] norm1_r <- pool1_r
I0123 21:07:40.065279 63713 net.cpp:339] norm1_r -> norm1_r
I0123 21:07:40.065315 63713 net.cpp:113] Setting up norm1_r
I0123 21:07:40.065352 63713 net.cpp:120] Top shape: 144 96 27 27 (10077696)
I0123 21:07:40.065383 63713 layer_factory.hpp:74] Creating layer conv2_r
I0123 21:07:40.065423 63713 net.cpp:84] Creating Layer conv2_r
I0123 21:07:40.065454 63713 net.cpp:381] conv2_r <- norm1_r
I0123 21:07:40.065488 63713 net.cpp:339] conv2_r -> conv2_r
I0123 21:07:40.065526 63713 net.cpp:113] Setting up conv2_r
I0123 21:07:40.075888 63713 net.cpp:120] Top shape: 144 256 27 27 (26873856)
I0123 21:07:40.075996 63713 layer_factory.hpp:74] Creating layer relu2_r
I0123 21:07:40.076040 63713 net.cpp:84] Creating Layer relu2_r
I0123 21:07:40.076074 63713 net.cpp:381] relu2_r <- conv2_r
I0123 21:07:40.076118 63713 net.cpp:328] relu2_r -> conv2_r (in-place)
I0123 21:07:40.076141 63713 net.cpp:113] Setting up relu2_r
I0123 21:07:40.076159 63713 net.cpp:120] Top shape: 144 256 27 27 (26873856)
I0123 21:07:40.076174 63713 layer_factory.hpp:74] Creating layer pool2_r
I0123 21:07:40.076189 63713 net.cpp:84] Creating Layer pool2_r
I0123 21:07:40.076202 63713 net.cpp:381] pool2_r <- conv2_r
I0123 21:07:40.076215 63713 net.cpp:339] pool2_r -> pool2_r
I0123 21:07:40.076228 63713 net.cpp:113] Setting up pool2_r
I0123 21:07:40.076253 63713 net.cpp:120] Top shape: 144 256 13 13 (6230016)
I0123 21:07:40.076270 63713 layer_factory.hpp:74] Creating layer norm2_r
I0123 21:07:40.076287 63713 net.cpp:84] Creating Layer norm2_r
I0123 21:07:40.076297 63713 net.cpp:381] norm2_r <- pool2_r
I0123 21:07:40.076305 63713 net.cpp:339] norm2_r -> norm2_r
I0123 21:07:40.076331 63713 net.cpp:113] Setting up norm2_r
I0123 21:07:40.076352 63713 net.cpp:120] Top shape: 144 256 13 13 (6230016)
I0123 21:07:40.076361 63713 layer_factory.hpp:74] Creating layer fc6_r
I0123 21:07:40.076375 63713 net.cpp:84] Creating Layer fc6_r
I0123 21:07:40.076385 63713 net.cpp:381] fc6_r <- norm2_r
I0123 21:07:40.076402 63713 net.cpp:339] fc6_r -> fc6_r
I0123 21:07:40.076419 63713 net.cpp:113] Setting up fc6_r
I0123 21:07:45.521317 63713 net.cpp:120] Top shape: 144 4096 (589824)
I0123 21:07:45.521368 63713 layer_factory.hpp:74] Creating layer relu6_r
I0123 21:07:45.521387 63713 net.cpp:84] Creating Layer relu6_r
I0123 21:07:45.521397 63713 net.cpp:381] relu6_r <- fc6_r
I0123 21:07:45.521410 63713 net.cpp:328] relu6_r -> fc6_r (in-place)
I0123 21:07:45.521425 63713 net.cpp:113] Setting up relu6_r
I0123 21:07:45.521438 63713 net.cpp:120] Top shape: 144 4096 (589824)
I0123 21:07:45.521451 63713 layer_factory.hpp:74] Creating layer drop6_r
I0123 21:07:45.521466 63713 net.cpp:84] Creating Layer drop6_r
I0123 21:07:45.521486 63713 net.cpp:381] drop6_r <- fc6_r
I0123 21:07:45.521499 63713 net.cpp:328] drop6_r -> fc6_r (in-place)
I0123 21:07:45.521514 63713 net.cpp:113] Setting up drop6_r
I0123 21:07:45.521546 63713 net.cpp:120] Top shape: 144 4096 (589824)
I0123 21:07:45.521564 63713 layer_factory.hpp:74] Creating layer fusion_point
I0123 21:07:45.521589 63713 net.cpp:84] Creating Layer fusion_point
I0123 21:07:45.521598 63713 net.cpp:381] fusion_point <- fc6_l
I0123 21:07:45.521608 63713 net.cpp:381] fusion_point <- fc6_r
I0123 21:07:45.521627 63713 net.cpp:339] fusion_point -> fusion_point
I0123 21:07:45.521649 63713 net.cpp:113] Setting up fusion_point
I0123 21:07:45.521667 63713 net.cpp:120] Top shape: 144 8192 (1179648)
I0123 21:07:45.521684 63713 layer_factory.hpp:74] Creating layer fc1_fusionA
I0123 21:07:45.521700 63713 net.cpp:84] Creating Layer fc1_fusionA
I0123 21:07:45.521710 63713 net.cpp:381] fc1_fusionA <- fusion_point
I0123 21:07:45.521731 63713 net.cpp:339] fc1_fusionA -> fc1_fusionA
I0123 21:07:45.521754 63713 net.cpp:113] Setting up fc1_fusionA
I0123 21:07:47.064931 63713 net.cpp:120] Top shape: 144 4096 (589824)
I0123 21:07:47.065060 63713 layer_factory.hpp:74] Creating layer relu1_fusionA
I0123 21:07:47.065114 63713 net.cpp:84] Creating Layer relu1_fusionA
I0123 21:07:47.065171 63713 net.cpp:381] relu1_fusionA <- fc1_fusionA
I0123 21:07:47.065222 63713 net.cpp:328] relu1_fusionA -> fc1_fusionA (in-place)
I0123 21:07:47.065273 63713 net.cpp:113] Setting up relu1_fusionA
I0123 21:07:47.065320 63713 net.cpp:120] Top shape: 144 4096 (589824)
I0123 21:07:47.065357 63713 layer_factory.hpp:74] Creating layer drop1_fusionA
I0123 21:07:47.065404 63713 net.cpp:84] Creating Layer drop1_fusionA
I0123 21:07:47.065461 63713 net.cpp:381] drop1_fusionA <- fc1_fusionA
I0123 21:07:47.065503 63713 net.cpp:328] drop1_fusionA -> fc1_fusionA (in-place)
I0123 21:07:47.065563 63713 net.cpp:113] Setting up drop1_fusionA
I0123 21:07:47.065613 63713 net.cpp:120] Top shape: 144 4096 (589824)
I0123 21:07:47.065650 63713 layer_factory.hpp:74] Creating layer reshape-data
I0123 21:07:47.065699 63713 net.cpp:84] Creating Layer reshape-data
I0123 21:07:47.065749 63713 net.cpp:381] reshape-data <- fc1_fusionA
I0123 21:07:47.065798 63713 net.cpp:339] reshape-data -> fc6-reshape
I0123 21:07:47.065866 63713 net.cpp:113] Setting up reshape-data
I0123 21:07:47.065930 63713 net.cpp:120] Top shape: 18 8 4096 (589824)
I0123 21:07:47.065970 63713 layer_factory.hpp:74] Creating layer reshape-label
I0123 21:07:47.065991 63713 net.cpp:84] Creating Layer reshape-label
I0123 21:07:47.066004 63713 net.cpp:381] reshape-label <- label
I0123 21:07:47.066017 63713 net.cpp:339] reshape-label -> reshape-label
I0123 21:07:47.066032 63713 net.cpp:113] Setting up reshape-label
I0123 21:07:47.066051 63713 net.cpp:120] Top shape: 18 8 (144)
I0123 21:07:47.066063 63713 layer_factory.hpp:74] Creating layer reshape-label_reshape-label_0_split
I0123 21:07:47.066074 63713 net.cpp:84] Creating Layer reshape-label_reshape-label_0_split
I0123 21:07:47.066082 63713 net.cpp:381] reshape-label_reshape-label_0_split <- reshape-label
I0123 21:07:47.066092 63713 net.cpp:339] reshape-label_reshape-label_0_split -> reshape-label_reshape-label_0_split_0
I0123 21:07:47.066104 63713 net.cpp:339] reshape-label_reshape-label_0_split -> reshape-label_reshape-label_0_split_1
I0123 21:07:47.066128 63713 net.cpp:113] Setting up reshape-label_reshape-label_0_split
I0123 21:07:47.066141 63713 net.cpp:120] Top shape: 18 8 (144)
I0123 21:07:47.066154 63713 net.cpp:120] Top shape: 18 8 (144)
I0123 21:07:47.066160 63713 layer_factory.hpp:74] Creating layer reshape-cm
I0123 21:07:47.066172 63713 net.cpp:84] Creating Layer reshape-cm
I0123 21:07:47.066179 63713 net.cpp:381] reshape-cm <- clip_markers
I0123 21:07:47.066191 63713 net.cpp:339] reshape-cm -> reshape-cm
I0123 21:07:47.066210 63713 net.cpp:113] Setting up reshape-cm
I0123 21:07:47.066223 63713 net.cpp:120] Top shape: 18 8 (144)
I0123 21:07:47.066229 63713 layer_factory.hpp:74] Creating layer lstm1
I0123 21:07:47.066252 63713 net.cpp:84] Creating Layer lstm1
I0123 21:07:47.066263 63713 net.cpp:381] lstm1 <- fc6-reshape
I0123 21:07:47.066273 63713 net.cpp:381] lstm1 <- reshape-cm
I0123 21:07:47.066285 63713 net.cpp:339] lstm1 -> lstm1
I0123 21:07:47.066300 63713 net.cpp:113] Setting up lstm1
I0123 21:07:47.066310 63713 recurrent_layer.cpp:27] Initializing recurrent layer: assuming input batch contains 18 timesteps of 8 independent streams.
I0123 21:07:47.067760 63713 net.cpp:42] Initializing net from parameters: 
input: "x"
input: "cont"
input: "c_0"
input: "h_0"
force_backward: true
input_shape {
  dim: 18
  dim: 8
  dim: 4096
}
input_shape {
  dim: 1
  dim: 18
  dim: 8
}
input_shape {
  dim: 1
  dim: 8
  dim: 256
}
input_shape {
  dim: 1
  dim: 8
  dim: 256
}
layer {
  name: "lstm1_cont_slice"
  type: "Slice"
  bottom: "cont"
  top: "cont_1"
  top: "cont_2"
  top: "cont_3"
  top: "cont_4"
  top: "cont_5"
  top: "cont_6"
  top: "cont_7"
  top: "cont_8"
  top: "cont_9"
  top: "cont_10"
  top: "cont_11"
  top: "cont_12"
  top: "cont_13"
  top: "cont_14"
  top: "cont_15"
  top: "cont_16"
  top: "cont_17"
  top: "cont_18"
  slice_param {
    axis: 1
  }
}
layer {
  name: "lstm1_x_transform"
  type: "InnerProduct"
  bottom: "x"
  top: "W_xc_x"
  param {
    name: "W_xc"
  }
  param {
    name: "b_c"
  }
  inner_product_param {
    num_output: 1024
    bias_term: true
    weight_filler {
      type: "uniform"
      min: -0.01
      max: 0.01
    }
    bias_filler {
      type: "constant"
      value: 0
    }
    axis: 2
  }
}
layer {
  name: "lstm1_W_xc_x_slice"
  type: "Slice"
  bottom: "W_xc_x"
  top: "W_xc_x_1"
  top: "W_xc_x_2"
  top: "W_xc_x_3"
  top: "W_xc_x_4"
  top: "W_xc_x_5"
  top: "W_xc_x_6"
  top: "W_xc_x_7"
  top: "W_xc_x_8"
  top: "W_xc_x_9"
  top: "W_xc_x_10"
  top: "W_xc_x_11"
  top: "W_xc_x_12"
  top: "W_xc_x_13"
  top: "W_xc_x_14"
  top: "W_xc_x_15"
  top: "W_xc_x_16"
  top: "W_xc_x_17"
  top: "W_xc_x_18"
  slice_param {
    axis: 0
  }
}
layer {
  name: "lstm1_h_conted_0"
  type: "Eltwise"
  bottom: "h_0"
  bottom: "cont_1"
  top: "h_conted_0"
  eltwise_param {
    operation: SUM
    coeff_blob: true
  }
}
layer {
  name: "lstm1_transform_1"
  type: "InnerProduct"
  bottom: "h_conted_0"
  top: "W_hc_h_0"
  param {
    name: "W_hc"
  }
  inner_product_param {
    num_output: 1024
    bias_term: false
    weight_filler {
      type: "uniform"
      min: -0.01
      max: 0.01
    }
    axis: 2
  }
}
layer {
  name: "lstm1_gate_input_1"
  type: "Eltwise"
  bottom: "W_hc_h_0"
  bottom: "W_xc_x_1"
  top: "gate_input_1"
  eltwise_param {
    operation: SUM
  }
}
layer {
  name: "lstm1_unit_1"
  type: "LSTMUnit"
  bottom: "c_0"
  bottom: "gate_input_1"
  bottom: "cont_1"
  top: "c_1"
  top: "h_1"
}
layer {
  name: "lstm1_h_conted_1"
  type: "Eltwise"
  bottom: "h_1"
  bottom: "cont_2"
  top: "h_conted_1"
  eltwise_param {
    operation: SUM
    coeff_blob: true
  }
}
layer {
  name: "lstm1_transform_2"
  type: "InnerProduct"
  bottom: "h_conted_1"
  top: "W_hc_h_1"
  param {
    name: "W_hc"
  }
  inner_product_param {
    num_output: 1024
    bias_term: false
    weight_filler {
      type: "uniform"
      min: -0.01
      max: 0.01
    }
    axis: 2
  }
}
layer {
  name: "lstm1_gate_input_2"
  type: "Eltwise"
  bottom: "W_hc_h_1"
  bottom: "W_xc_x_2"
  top: "gate_input_2"
  eltwise_param {
    operation: SUM
  }
}
layer {
  name: "lstm1_unit_2"
  type: "LSTMUnit"
  bottom: "c_1"
  bottom: "gate_input_2"
  bottom: "cont_2"
  top: "c_2"
  top: "h_2"
}
layer {
  name: "lstm1_h_conted_2"
  type: "Eltwise"
  bottom: "h_2"
  bottom: "cont_3"
  top: "h_conted_2"
  eltwise_param {
    operation: SUM
    coeff_blob: true
  }
}
layer {
  name: "lstm1_transform_3"
  type: "InnerProduct"
  bottom: "h_conted_2"
  top: "W_hc_h_2"
  param {
    name: "W_hc"
  }
  inner_product_param {
    num_output: 1024
    bias_term: false
    weight_filler {
      type: "uniform"
      min: -0.01
      max: 0.01
    }
    axis: 2
  }
}
layer {
  name: "lstm1_gate_input_3"
  type: "Eltwise"
  bottom: "W_hc_h_2"
  bottom: "W_xc_x_3"
  top: "gate_input_3"
  eltwise_param {
    operation: SUM
  }
}
layer {
  name: "lstm1_unit_3"
  type: "LSTMUnit"
  bottom: "c_2"
  bottom: "gate_input_3"
  bottom: "cont_3"
  top: "c_3"
  top: "h_3"
}
layer {
  name: "lstm1_h_conted_3"
  type: "Eltwise"
  bottom: "h_3"
  bottom: "cont_4"
  top: "h_conted_3"
  eltwise_param {
    operation: SUM
    coeff_blob: true
  }
}
layer {
  name: "lstm1_transform_4"
  type: "InnerProduct"
  bottom: "h_conted_3"
  top: "W_hc_h_3"
  param {
    name: "W_hc"
  }
  inner_product_param {
    num_output: 1024
    bias_term: false
    weight_filler {
      type: "uniform"
      min: -0.01
      max: 0.01
    }
    axis: 2
  }
}
layer {
  name: "lstm1_gate_input_4"
  type: "Eltwise"
  bottom: "W_hc_h_3"
  bottom: "W_xc_x_4"
  top: "gate_input_4"
  eltwise_param {
    operation: SUM
  }
}
layer {
  name: "lstm1_unit_4"
  type: "LSTMUnit"
  bottom: "c_3"
  bottom: "gate_input_4"
  bottom: "cont_4"
  top: "c_4"
  top: "h_4"
}
layer {
  name: "lstm1_h_conted_4"
  type: "Eltwise"
  bottom: "h_4"
  bottom: "cont_5"
  top: "h_conted_4"
  eltwise_param {
    operation: SUM
    coeff_blob: true
  }
}
layer {
  name: "lstm1_transform_5"
  type: "InnerProduct"
  bottom: "h_conted_4"
  top: "W_hc_h_4"
  param {
    name: "W_hc"
  }
  inner_product_param {
    num_output: 1024
    bias_term: false
    weight_filler {
      type: "uniform"
      min: -0.01
      max: 0.01
    }
    axis: 2
  }
}
layer {
  name: "lstm1_gate_input_5"
  type: "Eltwise"
  bottom: "W_hc_h_4"
  bottom: "W_xc_x_5"
  top: "gate_input_5"
  eltwise_param {
    operation: SUM
  }
}
layer {
  name: "lstm1_unit_5"
  type: "LSTMUnit"
  bottom: "c_4"
  bottom: "gate_input_5"
  bottom: "cont_5"
  top: "c_5"
  top: "h_5"
}
layer {
  name: "lstm1_h_conted_5"
  type: "Eltwise"
  bottom: "h_5"
  bottom: "cont_6"
  top: "h_conted_5"
  eltwise_param {
    operation: SUM
    coeff_blob: true
  }
}
layer {
  name: "lstm1_transform_6"
  type: "InnerProduct"
  bottom: "h_conted_5"
  top: "W_hc_h_5"
  param {
    name: "W_hc"
  }
  inner_product_param {
    num_output: 1024
    bias_term: false
    weight_filler {
      type: "uniform"
      min: -0.01
      max: 0.01
    }
    axis: 2
  }
}
layer {
  name: "lstm1_gate_input_6"
  type: "Eltwise"
  bottom: "W_hc_h_5"
  bottom: "W_xc_x_6"
  top: "gate_input_6"
  eltwise_param {
    operation: SUM
  }
}
layer {
  name: "lstm1_unit_6"
  type: "LSTMUnit"
  bottom: "c_5"
  bottom: "gate_input_6"
  bottom: "cont_6"
  top: "c_6"
  top: "h_6"
}
layer {
  name: "lstm1_h_conted_6"
  type: "Eltwise"
  bottom: "h_6"
  bottom: "cont_7"
  top: "h_conted_6"
  eltwise_param {
    operation: SUM
    coeff_blob: true
  }
}
layer {
  name: "lstm1_transform_7"
  type: "InnerProduct"
  bottom: "h_conted_6"
  top: "W_hc_h_6"
  param {
    name: "W_hc"
  }
  inner_product_param {
    num_output: 1024
    bias_term: false
    weight_filler {
      type: "uniform"
      min: -0.01
      max: 0.01
    }
    axis: 2
  }
}
layer {
  name: "lstm1_gate_input_7"
  type: "Eltwise"
  bottom: "W_hc_h_6"
  bottom: "W_xc_x_7"
  top: "gate_input_7"
  eltwise_param {
    operation: SUM
  }
}
layer {
  name: "lstm1_unit_7"
  type: "LSTMUnit"
  bottom: "c_6"
  bottom: "gate_input_7"
  bottom: "cont_7"
  top: "c_7"
  top: "h_7"
}
layer {
  name: "lstm1_h_conted_7"
  type: "Eltwise"
  bottom: "h_7"
  bottom: "cont_8"
  top: "h_conted_7"
  eltwise_param {
    operation: SUM
    coeff_blob: true
  }
}
layer {
  name: "lstm1_transform_8"
  type: "InnerProduct"
  bottom: "h_conted_7"
  top: "W_hc_h_7"
  param {
    name: "W_hc"
  }
  inner_product_param {
    num_output: 1024
    bias_term: false
    weight_filler {
      type: "uniform"
      min: -0.01
      max: 0.01
    }
    axis: 2
  }
}
layer {
  name: "lstm1_gate_input_8"
  type: "Eltwise"
  bottom: "W_hc_h_7"
  bottom: "W_xc_x_8"
  top: "gate_input_8"
  eltwise_param {
    operation: SUM
  }
}
layer {
  name: "lstm1_unit_8"
  type: "LSTMUnit"
  bottom: "c_7"
  bottom: "gate_input_8"
  bottom: "cont_8"
  top: "c_8"
  top: "h_8"
}
layer {
  name: "lstm1_h_conted_8"
  type: "Eltwise"
  bottom: "h_8"
  bottom: "cont_9"
  top: "h_conted_8"
  eltwise_param {
    operation: SUM
    coeff_blob: true
  }
}
layer {
  name: "lstm1_transform_9"
  type: "InnerProduct"
  bottom: "h_conted_8"
  top: "W_hc_h_8"
  param {
    name: "W_hc"
  }
  inner_product_param {
    num_output: 1024
    bias_term: false
    weight_filler {
      type: "uniform"
      min: -0.01
      max: 0.01
    }
    axis: 2
  }
}
layer {
  name: "lstm1_gate_input_9"
  type: "Eltwise"
  bottom: "W_hc_h_8"
  bottom: "W_xc_x_9"
  top: "gate_input_9"
  eltwise_param {
    operation: SUM
  }
}
layer {
  name: "lstm1_unit_9"
  type: "LSTMUnit"
  bottom: "c_8"
  bottom: "gate_input_9"
  bottom: "cont_9"
  top: "c_9"
  top: "h_9"
}
layer {
  name: "lstm1_h_conted_9"
  type: "Eltwise"
  bottom: "h_9"
  bottom: "cont_10"
  top: "h_conted_9"
  eltwise_param {
    operation: SUM
    coeff_blob: true
  }
}
layer {
  name: "lstm1_transform_10"
  type: "InnerProduct"
  bottom: "h_conted_9"
  top: "W_hc_h_9"
  param {
    name: "W_hc"
  }
  inner_product_param {
    num_output: 1024
    bias_term: false
    weight_filler {
      type: "uniform"
      min: -0.01
      max: 0.01
    }
    axis: 2
  }
}
layer {
  name: "lstm1_gate_input_10"
  type: "Eltwise"
  bottom: "W_hc_h_9"
  bottom: "W_xc_x_10"
  top: "gate_input_10"
  eltwise_param {
    operation: SUM
  }
}
layer {
  name: "lstm1_unit_10"
  type: "LSTMUnit"
  bottom: "c_9"
  bottom: "gate_input_10"
  bottom: "cont_10"
  top: "c_10"
  top: "h_10"
}
layer {
  name: "lstm1_h_conted_10"
  type: "Eltwise"
  bottom: "h_10"
  bottom: "cont_11"
  top: "h_conted_10"
  eltwise_param {
    operation: SUM
    coeff_blob: true
  }
}
layer {
  name: "lstm1_transform_11"
  type: "InnerProduct"
  bottom: "h_conted_10"
  top: "W_hc_h_10"
  param {
    name: "W_hc"
  }
  inner_product_param {
    num_output: 1024
    bias_term: false
    weight_filler {
      type: "uniform"
      min: -0.01
      max: 0.01
    }
    axis: 2
  }
}
layer {
  name: "lstm1_gate_input_11"
  type: "Eltwise"
  bottom: "W_hc_h_10"
  bottom: "W_xc_x_11"
  top: "gate_input_11"
  eltwise_param {
    operation: SUM
  }
}
layer {
  name: "lstm1_unit_11"
  type: "LSTMUnit"
  bottom: "c_10"
  bottom: "gate_input_11"
  bottom: "cont_11"
  top: "c_11"
  top: "h_11"
}
layer {
  name: "lstm1_h_conted_11"
  type: "Eltwise"
  bottom: "h_11"
  bottom: "cont_12"
  top: "h_conted_11"
  eltwise_param {
    operation: SUM
    coeff_blob: true
  }
}
layer {
  name: "lstm1_transform_12"
  type: "InnerProduct"
  bottom: "h_conted_11"
  top: "W_hc_h_11"
  param {
    name: "W_hc"
  }
  inner_product_param {
    num_output: 1024
    bias_term: false
    weight_filler {
      type: "uniform"
      min: -0.01
      max: 0.01
    }
    axis: 2
  }
}
layer {
  name: "lstm1_gate_input_12"
  type: "Eltwise"
  bottom: "W_hc_h_11"
  bottom: "W_xc_x_12"
  top: "gate_input_12"
  eltwise_param {
    operation: SUM
  }
}
layer {
  name: "lstm1_unit_12"
  type: "LSTMUnit"
  bottom: "c_11"
  bottom: "gate_input_12"
  bottom: "cont_12"
  top: "c_12"
  top: "h_12"
}
layer {
  name: "lstm1_h_conted_12"
  type: "Eltwise"
  bottom: "h_12"
  bottom: "cont_13"
  top: "h_conted_12"
  eltwise_param {
    operation: SUM
    coeff_blob: true
  }
}
layer {
  name: "lstm1_transform_13"
  type: "InnerProduct"
  bottom: "h_conted_12"
  top: "W_hc_h_12"
  param {
    name: "W_hc"
  }
  inner_product_param {
    num_output: 1024
    bias_term: false
    weight_filler {
      type: "uniform"
      min: -0.01
      max: 0.01
    }
    axis: 2
  }
}
layer {
  name: "lstm1_gate_input_13"
  type: "Eltwise"
  bottom: "W_hc_h_12"
  bottom: "W_xc_x_13"
  top: "gate_input_13"
  eltwise_param {
    operation: SUM
  }
}
layer {
  name: "lstm1_unit_13"
  type: "LSTMUnit"
  bottom: "c_12"
  bottom: "gate_input_13"
  bottom: "cont_13"
  top: "c_13"
  top: "h_13"
}
layer {
  name: "lstm1_h_conted_13"
  type: "Eltwise"
  bottom: "h_13"
  bottom: "cont_14"
  top: "h_conted_13"
  eltwise_param {
    operation: SUM
    coeff_blob: true
  }
}
layer {
  name: "lstm1_transform_14"
  type: "InnerProduct"
  bottom: "h_conted_13"
  top: "W_hc_h_13"
  param {
    name: "W_hc"
  }
  inner_product_param {
    num_output: 1024
    bias_term: false
    weight_filler {
      type: "uniform"
      min: -0.01
      max: 0.01
    }
    axis: 2
  }
}
layer {
  name: "lstm1_gate_input_14"
  type: "Eltwise"
  bottom: "W_hc_h_13"
  bottom: "W_xc_x_14"
  top: "gate_input_14"
  eltwise_param {
    operation: SUM
  }
}
layer {
  name: "lstm1_unit_14"
  type: "LSTMUnit"
  bottom: "c_13"
  bottom: "gate_input_14"
  bottom: "cont_14"
  top: "c_14"
  top: "h_14"
}
layer {
  name: "lstm1_h_conted_14"
  type: "Eltwise"
  bottom: "h_14"
  bottom: "cont_15"
  top: "h_conted_14"
  eltwise_param {
    operation: SUM
    coeff_blob: true
  }
}
layer {
  name: "lstm1_transform_15"
  type: "InnerProduct"
  bottom: "h_conted_14"
  top: "W_hc_h_14"
  param {
    name: "W_hc"
  }
  inner_product_param {
    num_output: 1024
    bias_term: false
    weight_filler {
      type: "uniform"
      min: -0.01
      max: 0.01
    }
    axis: 2
  }
}
layer {
  name: "lstm1_gate_input_15"
  type: "Eltwise"
  bottom: "W_hc_h_14"
  bottom: "W_xc_x_15"
  top: "gate_input_15"
  eltwise_param {
    operation: SUM
  }
}
layer {
  name: "lstm1_unit_15"
  type: "LSTMUnit"
  bottom: "c_14"
  bottom: "gate_input_15"
  bottom: "cont_15"
  top: "c_15"
  top: "h_15"
}
layer {
  name: "lstm1_h_conted_15"
  type: "Eltwise"
  bottom: "h_15"
  bottom: "cont_16"
  top: "h_conted_15"
  eltwise_param {
    operation: SUM
    coeff_blob: true
  }
}
layer {
  name: "lstm1_transform_16"
  type: "InnerProduct"
  bottom: "h_conted_15"
  top: "W_hc_h_15"
  param {
    name: "W_hc"
  }
  inner_product_param {
    num_output: 1024
    bias_term: false
    weight_filler {
      type: "uniform"
      min: -0.01
      max: 0.01
    }
    axis: 2
  }
}
layer {
  name: "lstm1_gate_input_16"
  type: "Eltwise"
  bottom: "W_hc_h_15"
  bottom: "W_xc_x_16"
  top: "gate_input_16"
  eltwise_param {
    operation: SUM
  }
}
layer {
  name: "lstm1_unit_16"
  type: "LSTMUnit"
  bottom: "c_15"
  bottom: "gate_input_16"
  bottom: "cont_16"
  top: "c_16"
  top: "h_16"
}
layer {
  name: "lstm1_h_conted_16"
  type: "Eltwise"
  bottom: "h_16"
  bottom: "cont_17"
  top: "h_conted_16"
  eltwise_param {
    operation: SUM
    coeff_blob: true
  }
}
layer {
  name: "lstm1_transform_17"
  type: "InnerProduct"
  bottom: "h_conted_16"
  top: "W_hc_h_16"
  param {
    name: "W_hc"
  }
  inner_product_param {
    num_output: 1024
    bias_term: false
    weight_filler {
      type: "uniform"
      min: -0.01
      max: 0.01
    }
    axis: 2
  }
}
layer {
  name: "lstm1_gate_input_17"
  type: "Eltwise"
  bottom: "W_hc_h_16"
  bottom: "W_xc_x_17"
  top: "gate_input_17"
  eltwise_param {
    operation: SUM
  }
}
layer {
  name: "lstm1_unit_17"
  type: "LSTMUnit"
  bottom: "c_16"
  bottom: "gate_input_17"
  bottom: "cont_17"
  top: "c_17"
  top: "h_17"
}
layer {
  name: "lstm1_h_conted_17"
  type: "Eltwise"
  bottom: "h_17"
  bottom: "cont_18"
  top: "h_conted_17"
  eltwise_param {
    operation: SUM
    coeff_blob: true
  }
}
layer {
  name: "lstm1_transform_18"
  type: "InnerProduct"
  bottom: "h_conted_17"
  top: "W_hc_h_17"
  param {
    name: "W_hc"
  }
  inner_product_param {
    num_output: 1024
    bias_term: false
    weight_filler {
      type: "uniform"
      min: -0.01
      max: 0.01
    }
    axis: 2
  }
}
layer {
  name: "lstm1_gate_input_18"
  type: "Eltwise"
  bottom: "W_hc_h_17"
  bottom: "W_xc_x_18"
  top: "gate_input_18"
  eltwise_param {
    operation: SUM
  }
}
layer {
  name: "lstm1_unit_18"
  type: "LSTMUnit"
  bottom: "c_17"
  bottom: "gate_input_18"
  bottom: "cont_18"
  top: "c_18"
  top: "h_18"
}
layer {
  name: "lstm1_"
  type: "Split"
  bottom: "c_18"
  top: "c_T"
}
layer {
  name: "lstm1_h_concat"
  type: "Concat"
  bottom: "h_1"
  bottom: "h_2"
  bottom: "h_3"
  bottom: "h_4"
  bottom: "h_5"
  bottom: "h_6"
  bottom: "h_7"
  bottom: "h_8"
  bottom: "h_9"
  bottom: "h_10"
  bottom: "h_11"
  bottom: "h_12"
  bottom: "h_13"
  bottom: "h_14"
  bottom: "h_15"
  bottom: "h_16"
  bottom: "h_17"
  bottom: "h_18"
  top: "h"
  concat_param {
    axis: 0
  }
}
I0123 21:07:47.068948 63713 net.cpp:341] Input 0 -> x
I0123 21:07:47.068972 63713 net.cpp:341] Input 1 -> cont
I0123 21:07:47.068985 63713 net.cpp:341] Input 2 -> c_0
I0123 21:07:47.068996 63713 net.cpp:341] Input 3 -> h_0
I0123 21:07:47.069031 63713 layer_factory.hpp:74] Creating layer lstm1_cont_slice
I0123 21:07:47.069044 63713 net.cpp:84] Creating Layer lstm1_cont_slice
…
I0123 21:07:47.069201 63713 net.cpp:339] lstm1_cont_slice -> cont_11
I0123 21:07:47.069214 63713 net.cpp:339] lstm1_cont_slice -> cont_12
I0123 21:07:47.069226 63713 net.cpp:339] lstm1_cont_slice -> cont_13
I0123 21:07:47.069242 63713 net.cpp:339] lstm1_cont_slice -> cont_14
I0123 21:07:47.069253 63713 net.cpp:339] lstm1_cont_slice -> cont_15
I0123 21:07:47.069265 63713 net.cpp:339] lstm1_cont_slice -> cont_16
I0123 21:07:47.069278 63713 net.cpp:339] lstm1_cont_slice -> cont_17
I0123 21:07:47.069290 63713 net.cpp:339] lstm1_cont_slice -> cont_18
I0123 21:07:47.069301 63713 net.cpp:113] Setting up lstm1_cont_slice
I0123 21:07:47.069325 63713 net.cpp:120] Top shape: 1 1 8 (8)
I0123 21:07:47.069335 63713 net.cpp:120] Top shape: 1 1 8 (8)
I0123 21:07:47.069344 63713 net.cpp:120] Top shape: 1 1 8 (8)
I0123 21:07:47.069353 63713 net.cpp:120] Top shape: 1 1 8 (8)
I0123 21:07:47.069361 63713 net.cpp:120] Top shape: 1 1 8 (8)
I0123 21:07:47.069370 63713 net.cpp:120] Top shape: 1 1 8 (8)
I0123 21:07:47.069380 63713 net.cpp:120] Top shape: 1 1 8 (8)
I0123 21:07:47.069387 63713 net.cpp:120] Top shape: 1 1 8 (8)
I0123 21:07:47.069396 63713 net.cpp:120] Top shape: 1 1 8 (8)
I0123 21:07:47.069403 63713 net.cpp:120] Top shape: 1 1 8 (8)
I0123 21:07:47.069411 63713 net.cpp:120] Top shape: 1 1 8 (8)
I0123 21:07:47.069419 63713 net.cpp:120] Top shape: 1 1 8 (8)
I0123 21:07:47.069427 63713 net.cpp:120] Top shape: 1 1 8 (8)
I0123 21:07:47.069434 63713 net.cpp:120] Top shape: 1 1 8 (8)
I0123 21:07:47.069442 63713 net.cpp:120] Top shape: 1 1 8 (8)
I0123 21:07:47.069449 63713 net.cpp:120] Top shape: 1 1 8 (8)
I0123 21:07:47.069458 63713 net.cpp:120] Top shape: 1 1 8 (8)
I0123 21:07:47.069466 63713 net.cpp:120] Top shape: 1 1 8 (8)
I0123 21:07:47.069473 63713 layer_factory.hpp:74] Creating layer cont_1_lstm1_cont_slice_0_split
I0123 21:07:47.069484 63713 net.cpp:84] Creating Layer cont_1_lstm1_cont_slice_0_split
I0123 21:07:47.069491 63713 net.cpp:381] cont_1_lstm1_cont_slice_0_split <- cont_1
I0123 21:07:47.069502 63713 net.cpp:339] cont_1_lstm1_cont_slice_0_split -> cont_1_lstm1_cont_slice_0_split_0
I0123 21:07:47.069514 63713 net.cpp:339] cont_1_lstm1_cont_slice_0_split -> cont_1_lstm1_cont_slice_0_split_1
I0123 21:07:47.069525 63713 net.cpp:113] Setting up cont_1_lstm1_cont_slice_0_split
I0123 21:07:47.069536 63713 net.cpp:120] Top shape: 1 1 8 (8)
I0123 21:07:47.069545 63713 net.cpp:120] Top shape: 1 1 8 (8)
I0123 21:07:47.069550 63713 layer_factory.hpp:74] Creating layer cont_2_lstm1_cont_slice_1_split
I0123 21:07:47.069561 63713 net.cpp:84] Creating Layer cont_2_lstm1_cont_slice_1_split
I0123 21:07:47.069568 63713 net.cpp:381] cont_2_lstm1_cont_slice_1_split <- cont_2
I0123 21:07:47.069578 63713 net.cpp:339] cont_2_lstm1_cont_slice_1_split -> cont_2_lstm1_cont_slice_1_split_0
I0123 21:07:47.069591 63713 net.cpp:339] cont_2_lstm1_cont_slice_1_split -> cont_2_lstm1_cont_slice_1_split_1
I0123 21:07:47.069602 63713 net.cpp:113] Setting up cont_2_lstm1_cont_slice_1_split
I0123 21:07:47.069614 63713 net.cpp:120] Top shape: 1 1 8 (8)
I0123 21:07:47.069622 63713 net.cpp:120] Top shape: 1 1 8 (8)
I0123 21:07:47.069628 63713 layer_factory.hpp:74] Creating layer cont_3_lstm1_cont_slice_2_split
I0123 21:07:47.069638 63713 net.cpp:84] Creating Layer cont_3_lstm1_cont_slice_2_split
I0123 21:07:47.069644 63713 net.cpp:381] cont_3_lstm1_cont_slice_2_split <- cont_3
I0123 21:07:47.069654 63713 net.cpp:339] cont_3_lstm1_cont_slice_2_split -> cont_3_lstm1_cont_slice_2_split_0
I0123 21:07:47.069666 63713 net.cpp:339] cont_3_lstm1_cont_slice_2_split -> cont_3_lstm1_cont_slice_2_split_1
I0123 21:07:47.069677 63713 net.cpp:113] Setting up cont_3_lstm1_cont_slice_2_split
I0123 21:07:47.069689 63713 net.cpp:120] Top shape: 1 1 8 (8)
I0123 21:07:47.069696 63713 net.cpp:120] Top shape: 1 1 8 (8)
I0123 21:07:47.069702 63713 layer_factory.hpp:74] Creating layer cont_4_lstm1_cont_slice_3_split
I0123 21:07:47.069715 63713 net.cpp:84] Creating Layer cont_4_lstm1_cont_slice_3_split
I0123 21:07:47.069721 63713 net.cpp:381] cont_4_lstm1_cont_slice_3_split <- cont_4
I0123 21:07:47.069731 63713 net.cpp:339] cont_4_lstm1_cont_slice_3_split -> cont_4_lstm1_cont_slice_3_split_0
I0123 21:07:47.069743 63713 net.cpp:339] cont_4_lstm1_cont_slice_3_split -> cont_4_lstm1_cont_slice_3_split_1
I0123 21:07:47.069753 63713 net.cpp:113] Setting up cont_4_lstm1_cont_slice_3_split
I0123 21:07:47.069764 63713 net.cpp:120] Top shape: 1 1 8 (8)
I0123 21:07:47.069773 63713 net.cpp:120] Top shape: 1 1 8 (8)
I0123 21:07:47.069779 63713 layer_factory.hpp:74] Creating layer cont_5_lstm1_cont_slice_4_split
I0123 21:07:47.069789 63713 net.cpp:84] Creating Layer cont_5_lstm1_cont_slice_4_split
I0123 21:07:47.069797 63713 net.cpp:381] cont_5_lstm1_cont_slice_4_split <- cont_5
I0123 21:07:47.069806 63713 net.cpp:339] cont_5_lstm1_cont_slice_4_split -> cont_5_lstm1_cont_slice_4_split_0
I0123 21:07:47.069819 63713 net.cpp:339] cont_5_lstm1_cont_slice_4_split -> cont_5_lstm1_cont_slice_4_split_1
I0123 21:07:47.069830 63713 net.cpp:113] Setting up cont_5_lstm1_cont_slice_4_split
I0123 21:07:47.069841 63713 net.cpp:120] Top shape: 1 1 8 (8)
I0123 21:07:47.069849 63713 net.cpp:120] Top shape: 1 1 8 (8)
I0123 21:07:47.069855 63713 layer_factory.hpp:74] Creating layer cont_6_lstm1_cont_slice_5_split
I0123 21:07:47.069864 63713 net.cpp:84] Creating Layer cont_6_lstm1_cont_slice_5_split
I0123 21:07:47.069870 63713 net.cpp:381] cont_6_lstm1_cont_slice_5_split <- cont_6
I0123 21:07:47.069880 63713 net.cpp:339] cont_6_lstm1_cont_slice_5_split -> cont_6_lstm1_cont_slice_5_split_0
I0123 21:07:47.069897 63713 net.cpp:339] cont_6_lstm1_cont_slice_5_split -> cont_6_lstm1_cont_slice_5_split_1
I0123 21:07:47.069910 63713 net.cpp:113] Setting up cont_6_lstm1_cont_slice_5_split
I0123 21:07:47.069921 63713 net.cpp:120] Top shape: 1 1 8 (8)
I0123 21:07:47.069929 63713 net.cpp:120] Top shape: 1 1 8 (8)
I0123 21:07:47.069936 63713 layer_factory.hpp:74] Creating layer cont_7_lstm1_cont_slice_6_split
I0123 21:07:47.069944 63713 net.cpp:84] Creating Layer cont_7_lstm1_cont_slice_6_split
I0123 21:07:47.069952 63713 net.cpp:381] cont_7_lstm1_cont_slice_6_split <- cont_7
I0123 21:07:47.069962 63713 net.cpp:339] cont_7_lstm1_cont_slice_6_split -> cont_7_lstm1_cont_slice_6_split_0
I0123 21:07:47.069974 63713 net.cpp:339] cont_7_lstm1_cont_slice_6_split -> cont_7_lstm1_cont_slice_6_split_1
I0123 21:07:47.069985 63713 net.cpp:113] Setting up cont_7_lstm1_cont_slice_6_split
I0123 21:07:47.069995 63713 net.cpp:120] Top shape: 1 1 8 (8)
I0123 21:07:47.070003 63713 net.cpp:120] Top shape: 1 1 8 (8)
I0123 21:07:47.070009 63713 layer_factory.hpp:74] Creating layer cont_8_lstm1_cont_slice_7_split
I0123 21:07:47.070021 63713 net.cpp:84] Creating Layer cont_8_lstm1_cont_slice_7_split
I0123 21:07:47.070027 63713 net.cpp:381] cont_8_lstm1_cont_slice_7_split <- cont_8
I0123 21:07:47.070036 63713 net.cpp:339] cont_8_lstm1_cont_slice_7_split -> cont_8_lstm1_cont_slice_7_split_0
I0123 21:07:47.070049 63713 net.cpp:339] cont_8_lstm1_cont_slice_7_split -> cont_8_lstm1_cont_slice_7_split_1
I0123 21:07:47.070060 63713 net.cpp:113] Setting up cont_8_lstm1_cont_slice_7_split
I0123 21:07:47.070070 63713 net.cpp:120] Top shape: 1 1 8 (8)
I0123 21:07:47.070078 63713 net.cpp:120] Top shape: 1 1 8 (8)
I0123 21:07:47.070086 63713 layer_factory.hpp:74] Creating layer cont_9_lstm1_cont_slice_8_split
I0123 21:07:47.070094 63713 net.cpp:84] Creating Layer cont_9_lstm1_cont_slice_8_split
I0123 21:07:47.070101 63713 net.cpp:381] cont_9_lstm1_cont_slice_8_split <- cont_9
I0123 21:07:47.070111 63713 net.cpp:339] cont_9_lstm1_cont_slice_8_split -> cont_9_lstm1_cont_slice_8_split_0
I0123 21:07:47.070124 63713 net.cpp:339] cont_9_lstm1_cont_slice_8_split -> cont_9_lstm1_cont_slice_8_split_1
I0123 21:07:47.070134 63713 net.cpp:113] Setting up cont_9_lstm1_cont_slice_8_split
I0123 21:07:47.070145 63713 net.cpp:120] Top shape: 1 1 8 (8)
I0123 21:07:47.070153 63713 net.cpp:120] Top shape: 1 1 8 (8)
I0123 21:07:47.070159 63713 layer_factory.hpp:74] Creating layer cont_10_lstm1_cont_slice_9_split
I0123 21:07:47.070168 63713 net.cpp:84] Creating Layer cont_10_lstm1_cont_slice_9_split
I0123 21:07:47.070175 63713 net.cpp:381] cont_10_lstm1_cont_slice_9_split <- cont_10
I0123 21:07:47.070185 63713 net.cpp:339] cont_10_lstm1_cont_slice_9_split -> cont_10_lstm1_cont_slice_9_split_0
I0123 21:07:47.070197 63713 net.cpp:339] cont_10_lstm1_cont_slice_9_split -> cont_10_lstm1_cont_slice_9_split_1
I0123 21:07:47.070209 63713 net.cpp:113] Setting up cont_10_lstm1_cont_slice_9_split
I0123 21:07:47.070219 63713 net.cpp:120] Top shape: 1 1 8 (8)
I0123 21:07:47.070227 63713 net.cpp:120] Top shape: 1 1 8 (8)
I0123 21:07:47.070235 63713 layer_factory.hpp:74] Creating layer cont_11_lstm1_cont_slice_10_split
I0123 21:07:47.070243 63713 net.cpp:84] Creating Layer cont_11_lstm1_cont_slice_10_split
I0123 21:07:47.070250 63713 net.cpp:381] cont_11_lstm1_cont_slice_10_split <- cont_11
I0123 21:07:47.070261 63713 net.cpp:339] cont_11_lstm1_cont_slice_10_split -> cont_11_lstm1_cont_slice_10_split_0
I0123 21:07:47.070274 63713 net.cpp:339] cont_11_lstm1_cont_slice_10_split -> cont_11_lstm1_cont_slice_10_split_1
I0123 21:07:47.070291 63713 net.cpp:113] Setting up cont_11_lstm1_cont_slice_10_split
I0123 21:07:47.070303 63713 net.cpp:120] Top shape: 1 1 8 (8)
I0123 21:07:47.070317 63713 net.cpp:120] Top shape: 1 1 8 (8)
I0123 21:07:47.070324 63713 layer_factory.hpp:74] Creating layer cont_12_lstm1_cont_slice_11_split
I0123 21:07:47.070333 63713 net.cpp:84] Creating Layer cont_12_lstm1_cont_slice_11_split
I0123 21:07:47.070340 63713 net.cpp:381] cont_12_lstm1_cont_slice_11_split <- cont_12
I0123 21:07:47.070350 63713 net.cpp:339] cont_12_lstm1_cont_slice_11_split -> cont_12_lstm1_cont_slice_11_split_0
I0123 21:07:47.070363 63713 net.cpp:339] cont_12_lstm1_cont_slice_11_split -> cont_12_lstm1_cont_slice_11_split_1
I0123 21:07:47.070374 63713 net.cpp:113] Setting up cont_12_lstm1_cont_slice_11_split
I0123 21:07:47.070384 63713 net.cpp:120] Top shape: 1 1 8 (8)
I0123 21:07:47.070392 63713 net.cpp:120] Top shape: 1 1 8 (8)
I0123 21:07:47.070399 63713 layer_factory.hpp:74] Creating layer cont_13_lstm1_cont_slice_12_split
I0123 21:07:47.070407 63713 net.cpp:84] Creating Layer cont_13_lstm1_cont_slice_12_split
I0123 21:07:47.070413 63713 net.cpp:381] cont_13_lstm1_cont_slice_12_split <- cont_13
I0123 21:07:47.070423 63713 net.cpp:339] cont_13_lstm1_cont_slice_12_split -> cont_13_lstm1_cont_slice_12_split_0
I0123 21:07:47.070436 63713 net.cpp:339] cont_13_lstm1_cont_slice_12_split -> cont_13_lstm1_cont_slice_12_split_1
I0123 21:07:47.070446 63713 net.cpp:113] Setting up cont_13_lstm1_cont_slice_12_split
I0123 21:07:47.070456 63713 net.cpp:120] Top shape: 1 1 8 (8)
I0123 21:07:47.070464 63713 net.cpp:120] Top shape: 1 1 8 (8)
I0123 21:07:47.070471 63713 layer_factory.hpp:74] Creating layer cont_14_lstm1_cont_slice_13_split
I0123 21:07:47.070479 63713 net.cpp:84] Creating Layer cont_14_lstm1_cont_slice_13_split
I0123 21:07:47.070487 63713 net.cpp:381] cont_14_lstm1_cont_slice_13_split <- cont_14
I0123 21:07:47.070495 63713 net.cpp:339] cont_14_lstm1_cont_slice_13_split -> cont_14_lstm1_cont_slice_13_split_0
I0123 21:07:47.070508 63713 net.cpp:339] cont_14_lstm1_cont_slice_13_split -> cont_14_lstm1_cont_slice_13_split_1
I0123 21:07:47.070518 63713 net.cpp:113] Setting up cont_14_lstm1_cont_slice_13_split
I0123 21:07:47.070528 63713 net.cpp:120] Top shape: 1 1 8 (8)
I0123 21:07:47.070535 63713 net.cpp:120] Top shape: 1 1 8 (8)
I0123 21:07:47.070541 63713 layer_factory.hpp:74] Creating layer cont_15_lstm1_cont_slice_14_split
I0123 21:07:47.070549 63713 net.cpp:84] Creating Layer cont_15_lstm1_cont_slice_14_split
I0123 21:07:47.070555 63713 net.cpp:381] cont_15_lstm1_cont_slice_14_split <- cont_15
I0123 21:07:47.070564 63713 net.cpp:339] cont_15_lstm1_cont_slice_14_split -> cont_15_lstm1_cont_slice_14_split_0
I0123 21:07:47.070575 63713 net.cpp:339] cont_15_lstm1_cont_slice_14_split -> cont_15_lstm1_cont_slice_14_split_1
I0123 21:07:47.070590 63713 net.cpp:113] Setting up cont_15_lstm1_cont_slice_14_split
I0123 21:07:47.070601 63713 net.cpp:120] Top shape: 1 1 8 (8)
I0123 21:07:47.070610 63713 net.cpp:120] Top shape: 1 1 8 (8)
I0123 21:07:47.070616 63713 layer_factory.hpp:74] Creating layer cont_16_lstm1_cont_slice_15_split
I0123 21:07:47.070629 63713 net.cpp:84] Creating Layer cont_16_lstm1_cont_slice_15_split
I0123 21:07:47.070638 63713 net.cpp:381] cont_16_lstm1_cont_slice_15_split <- cont_16
I0123 21:07:47.070648 63713 net.cpp:339] cont_16_lstm1_cont_slice_15_split -> cont_16_lstm1_cont_slice_15_split_0
I0123 21:07:47.070659 63713 net.cpp:339] cont_16_lstm1_cont_slice_15_split -> cont_16_lstm1_cont_slice_15_split_1
I0123 21:07:47.070669 63713 net.cpp:113] Setting up cont_16_lstm1_cont_slice_15_split
I0123 21:07:47.070679 63713 net.cpp:120] Top shape: 1 1 8 (8)
I0123 21:07:47.070688 63713 net.cpp:120] Top shape: 1 1 8 (8)
I0123 21:07:47.070693 63713 layer_factory.hpp:74] Creating layer cont_17_lstm1_cont_slice_16_split
I0123 21:07:47.070701 63713 net.cpp:84] Creating Layer cont_17_lstm1_cont_slice_16_split
I0123 21:07:47.070706 63713 net.cpp:381] cont_17_lstm1_cont_slice_16_split <- cont_17
I0123 21:07:47.070716 63713 net.cpp:339] cont_17_lstm1_cont_slice_16_split -> cont_17_lstm1_cont_slice_16_split_0
I0123 21:07:47.070729 63713 net.cpp:339] cont_17_lstm1_cont_slice_16_split -> cont_17_lstm1_cont_slice_16_split_1
I0123 21:07:47.070740 63713 net.cpp:113] Setting up cont_17_lstm1_cont_slice_16_split
I0123 21:07:47.070755 63713 net.cpp:120] Top shape: 1 1 8 (8)
I0123 21:07:47.070761 63713 net.cpp:120] Top shape: 1 1 8 (8)
I0123 21:07:47.070767 63713 layer_factory.hpp:74] Creating layer cont_18_lstm1_cont_slice_17_split
I0123 21:07:47.070776 63713 net.cpp:84] Creating Layer cont_18_lstm1_cont_slice_17_split
I0123 21:07:47.070782 63713 net.cpp:381] cont_18_lstm1_cont_slice_17_split <- cont_18
I0123 21:07:47.070791 63713 net.cpp:339] cont_18_lstm1_cont_slice_17_split -> cont_18_lstm1_cont_slice_17_split_0
I0123 21:07:47.070802 63713 net.cpp:339] cont_18_lstm1_cont_slice_17_split -> cont_18_lstm1_cont_slice_17_split_1
I0123 21:07:47.070812 63713 net.cpp:113] Setting up cont_18_lstm1_cont_slice_17_split
I0123 21:07:47.070823 63713 net.cpp:120] Top shape: 1 1 8 (8)
I0123 21:07:47.070834 63713 net.cpp:120] Top shape: 1 1 8 (8)
I0123 21:07:47.070842 63713 layer_factory.hpp:74] Creating layer lstm1_x_transform
I0123 21:07:47.070854 63713 net.cpp:84] Creating Layer lstm1_x_transform
I0123 21:07:47.070860 63713 net.cpp:381] lstm1_x_transform <- x
I0123 21:07:47.070873 63713 net.cpp:339] lstm1_x_transform -> W_xc_x
I0123 21:07:47.070885 63713 net.cpp:113] Setting up lstm1_x_transform
I0123 21:07:47.180666 63713 net.cpp:120] Top shape: 18 8 1024 (147456)
I0123 21:07:47.180732 63713 layer_factory.hpp:74] Creating layer lstm1_W_xc_x_slice
I0123 21:07:47.180759 63713 net.cpp:84] Creating Layer lstm1_W_xc_x_slice
I0123 21:07:47.180773 63713 net.cpp:381] lstm1_W_xc_x_slice <- W_xc_x
I0123 21:07:47.180791 63713 net.cpp:339] lstm1_W_xc_x_slice -> W_xc_x_1
I0123 21:07:47.180816 63713 net.cpp:339] lstm1_W_xc_x_slice -> W_xc_x_2
I0123 21:07:47.180861 63713 net.cpp:339] lstm1_W_xc_x_slice -> W_xc_x_3
…
I0123 21:07:47.181074 63713 net.cpp:339] lstm1_W_xc_x_slice -> W_xc_x_12
I0123 21:07:47.181090 63713 net.cpp:339] lstm1_W_xc_x_slice -> W_xc_x_13
I0123 21:07:47.181107 63713 net.cpp:339] lstm1_W_xc_x_slice -> W_xc_x_14
I0123 21:07:47.181124 63713 net.cpp:339] lstm1_W_xc_x_slice -> W_xc_x_15
I0123 21:07:47.181140 63713 net.cpp:339] lstm1_W_xc_x_slice -> W_xc_x_16
I0123 21:07:47.181157 63713 net.cpp:339] lstm1_W_xc_x_slice -> W_xc_x_17
I0123 21:07:47.181175 63713 net.cpp:339] lstm1_W_xc_x_slice -> W_xc_x_18
I0123 21:07:47.181190 63713 net.cpp:113] Setting up lstm1_W_xc_x_slice
I0123 21:07:47.181217 63713 net.cpp:120] Top shape: 1 8 1024 (8192)
I0123 21:07:47.181229 63713 net.cpp:120] Top shape: 1 8 1024 (8192)
I0123 21:07:47.181239 63713 net.cpp:120] Top shape: 1 8 1024 (8192)
I0123 21:07:47.181248 63713 net.cpp:120] Top shape: 1 8 1024 (8192)
I0123 21:07:47.181258 63713 net.cpp:120] Top shape: 1 8 1024 (8192)
I0123 21:07:47.181267 63713 net.cpp:120] Top shape: 1 8 1024 (8192)
I0123 21:07:47.181277 63713 net.cpp:120] Top shape: 1 8 1024 (8192)
I0123 21:07:47.181285 63713 net.cpp:120] Top shape: 1 8 1024 (8192)
I0123 21:07:47.181294 63713 net.cpp:120] Top shape: 1 8 1024 (8192)
I0123 21:07:47.181303 63713 net.cpp:120] Top shape: 1 8 1024 (8192)
I0123 21:07:47.181313 63713 net.cpp:120] Top shape: 1 8 1024 (8192)
I0123 21:07:47.181321 63713 net.cpp:120] Top shape: 1 8 1024 (8192)
I0123 21:07:47.181330 63713 net.cpp:120] Top shape: 1 8 1024 (8192)
I0123 21:07:47.181339 63713 net.cpp:120] Top shape: 1 8 1024 (8192)
I0123 21:07:47.181349 63713 net.cpp:120] Top shape: 1 8 1024 (8192)
I0123 21:07:47.181357 63713 net.cpp:120] Top shape: 1 8 1024 (8192)
I0123 21:07:47.181366 63713 net.cpp:120] Top shape: 1 8 1024 (8192)
I0123 21:07:47.181375 63713 net.cpp:120] Top shape: 1 8 1024 (8192)
I0123 21:07:47.181383 63713 layer_factory.hpp:74] Creating layer lstm1_h_conted_0
I0123 21:07:47.181397 63713 net.cpp:84] Creating Layer lstm1_h_conted_0
I0123 21:07:47.181406 63713 net.cpp:381] lstm1_h_conted_0 <- h_0
I0123 21:07:47.181421 63713 net.cpp:381] lstm1_h_conted_0 <- cont_1_lstm1_cont_slice_0_split_0
I0123 21:07:47.181434 63713 net.cpp:339] lstm1_h_conted_0 -> h_conted_0
I0123 21:07:47.181449 63713 net.cpp:113] Setting up lstm1_h_conted_0
I0123 21:07:47.181464 63713 net.cpp:120] Top shape: 1 8 256 (2048)
I0123 21:07:47.181473 63713 layer_factory.hpp:74] Creating layer lstm1_transform_1
I0123 21:07:47.181488 63713 net.cpp:84] Creating Layer lstm1_transform_1
I0123 21:07:47.181497 63713 net.cpp:381] lstm1_transform_1 <- h_conted_0
I0123 21:07:47.181510 63713 net.cpp:339] lstm1_transform_1 -> W_hc_h_0
I0123 21:07:47.181525 63713 net.cpp:113] Setting up lstm1_transform_1
I0123 21:07:47.186941 63713 net.cpp:120] Top shape: 1 8 1024 (8192)
I0123 21:07:47.186982 63713 layer_factory.hpp:74] Creating layer lstm1_gate_input_1
I0123 21:07:47.187001 63713 net.cpp:84] Creating Layer lstm1_gate_input_1
I0123 21:07:47.187013 63713 net.cpp:381] lstm1_gate_input_1 <- W_hc_h_0
I0123 21:07:47.187026 63713 net.cpp:381] lstm1_gate_input_1 <- W_xc_x_1
I0123 21:07:47.187039 63713 net.cpp:339] lstm1_gate_input_1 -> gate_input_1
I0123 21:07:47.187057 63713 net.cpp:113] Setting up lstm1_gate_input_1
I0123 21:07:47.187073 63713 net.cpp:120] Top shape: 1 8 1024 (8192)
I0123 21:07:47.187081 63713 layer_factory.hpp:74] Creating layer lstm1_unit_1
I0123 21:07:47.187094 63713 net.cpp:84] Creating Layer lstm1_unit_1
I0123 21:07:47.187103 63713 net.cpp:381] lstm1_unit_1 <- c_0
I0123 21:07:47.187114 63713 net.cpp:381] lstm1_unit_1 <- gate_input_1
I0123 21:07:47.187126 63713 net.cpp:381] lstm1_unit_1 <- cont_1_lstm1_cont_slice_0_split_1
I0123 21:07:47.187139 63713 net.cpp:339] lstm1_unit_1 -> c_1
I0123 21:07:47.187156 63713 net.cpp:339] lstm1_unit_1 -> h_1
I0123 21:07:47.187170 63713 net.cpp:113] Setting up lstm1_unit_1
I0123 21:07:47.187186 63713 net.cpp:120] Top shape: 1 8 256 (2048)
I0123 21:07:47.187197 63713 net.cpp:120] Top shape: 1 8 256 (2048)
I0123 21:07:47.187204 63713 layer_factory.hpp:74] Creating layer h_1_lstm1_unit_1_1_split
I0123 21:07:47.187216 63713 net.cpp:84] Creating Layer h_1_lstm1_unit_1_1_split
I0123 21:07:47.187225 63713 net.cpp:381] h_1_lstm1_unit_1_1_split <- h_1
I0123 21:07:47.187237 63713 net.cpp:339] h_1_lstm1_unit_1_1_split -> h_1_lstm1_unit_1_1_split_0
I0123 21:07:47.187253 63713 net.cpp:339] h_1_lstm1_unit_1_1_split -> h_1_lstm1_unit_1_1_split_1
I0123 21:07:47.187268 63713 net.cpp:113] Setting up h_1_lstm1_unit_1_1_split
I0123 21:07:47.187281 63713 net.cpp:120] Top shape: 1 8 256 (2048)
I0123 21:07:47.187291 63713 net.cpp:120] Top shape: 1 8 256 (2048)
I0123 21:07:47.187299 63713 layer_factory.hpp:74] Creating layer lstm1_h_conted_1
I0123 21:07:47.187311 63713 net.cpp:84] Creating Layer lstm1_h_conted_1
I0123 21:07:47.187319 63713 net.cpp:381] lstm1_h_conted_1 <- h_1_lstm1_unit_1_1_split_0
I0123 21:07:47.187330 63713 net.cpp:381] lstm1_h_conted_1 <- cont_2_lstm1_cont_slice_1_split_0
I0123 21:07:47.187342 63713 net.cpp:339] lstm1_h_conted_1 -> h_conted_1
I0123 21:07:47.187355 63713 net.cpp:113] Setting up lstm1_h_conted_1
I0123 21:07:47.187369 63713 net.cpp:120] Top shape: 1 8 256 (2048)
I0123 21:07:47.187377 63713 layer_factory.hpp:74] Creating layer lstm1_transform_2
I0123 21:07:47.187393 63713 net.cpp:84] Creating Layer lstm1_transform_2
I0123 21:07:47.187402 63713 net.cpp:381] lstm1_transform_2 <- h_conted_1
I0123 21:07:47.187415 63713 net.cpp:339] lstm1_transform_2 -> W_hc_h_1
I0123 21:07:47.187429 63713 net.cpp:113] Setting up lstm1_transform_2
I0123 21:07:47.193054 63713 net.cpp:120] Top shape: 1 8 1024 (8192)
I0123 21:07:47.193091 63713 net.cpp:425] Sharing parameters 'W_hc' owned by layer 'lstm1_transform_1', param index 0
I0123 21:07:47.193104 63713 layer_factory.hpp:74] Creating layer lstm1_gate_input_2
I0123 21:07:47.193120 63713 net.cpp:84] Creating Layer lstm1_gate_input_2
I0123 21:07:47.193131 63713 net.cpp:381] lstm1_gate_input_2 <- W_hc_h_1
I0123 21:07:47.193143 63713 net.cpp:381] lstm1_gate_input_2 <- W_xc_x_2
I0123 21:07:47.193159 63713 net.cpp:339] lstm1_gate_input_2 -> gate_input_2
I0123 21:07:47.193176 63713 net.cpp:113] Setting up lstm1_gate_input_2
I0123 21:07:47.193192 63713 net.cpp:120] Top shape: 1 8 1024 (8192)
I0123 21:07:47.193202 63713 layer_factory.hpp:74] Creating layer lstm1_unit_2
I0123 21:07:47.193214 63713 net.cpp:84] Creating Layer lstm1_unit_2
I0123 21:07:47.193224 63713 net.cpp:381] lstm1_unit_2 <- c_1
I0123 21:07:47.193235 63713 net.cpp:381] lstm1_unit_2 <- gate_input_2
I0123 21:07:47.193246 63713 net.cpp:381] lstm1_unit_2 <- cont_2_lstm1_cont_slice_1_split_1
I0123 21:07:47.193260 63713 net.cpp:339] lstm1_unit_2 -> c_2
I0123 21:07:47.193276 63713 net.cpp:339] lstm1_unit_2 -> h_2
I0123 21:07:47.193291 63713 net.cpp:113] Setting up lstm1_unit_2
I0123 21:07:47.193307 63713 net.cpp:120] Top shape: 1 8 256 (2048)
I0123 21:07:47.193317 63713 net.cpp:120] Top shape: 1 8 256 (2048)
I0123 21:07:47.193325 63713 layer_factory.hpp:74] Creating layer h_2_lstm1_unit_2_1_split
I0123 21:07:47.193338 63713 net.cpp:84] Creating Layer h_2_lstm1_unit_2_1_split
I0123 21:07:47.193346 63713 net.cpp:381] h_2_lstm1_unit_2_1_split <- h_2
I0123 21:07:47.193359 63713 net.cpp:339] h_2_lstm1_unit_2_1_split -> h_2_lstm1_unit_2_1_split_0
I0123 21:07:47.193377 63713 net.cpp:339] h_2_lstm1_unit_2_1_split -> h_2_lstm1_unit_2_1_split_1
I0123 21:07:47.193392 63713 net.cpp:113] Setting up h_2_lstm1_unit_2_1_split
I0123 21:07:47.193406 63713 net.cpp:120] Top shape: 1 8 256 (2048)
I0123 21:07:47.193416 63713 net.cpp:120] Top shape: 1 8 256 (2048)
I0123 21:07:47.193424 63713 layer_factory.hpp:74] Creating layer lstm1_h_conted_2
I0123 21:07:47.193436 63713 net.cpp:84] Creating Layer lstm1_h_conted_2
I0123 21:07:47.193445 63713 net.cpp:381] lstm1_h_conted_2 <- h_2_lstm1_unit_2_1_split_0
I0123 21:07:47.193454 63713 net.cpp:381] lstm1_h_conted_2 <- cont_3_lstm1_cont_slice_2_split_0
I0123 21:07:47.193466 63713 net.cpp:339] lstm1_h_conted_2 -> h_conted_2
I0123 21:07:47.193480 63713 net.cpp:113] Setting up lstm1_h_conted_2
I0123 21:07:47.193492 63713 net.cpp:120] Top shape: 1 8 256 (2048)
I0123 21:07:47.193500 63713 layer_factory.hpp:74] Creating layer lstm1_transform_3
I0123 21:07:47.193531 63713 net.cpp:84] Creating Layer lstm1_transform_3
I0123 21:07:47.193543 63713 net.cpp:381] lstm1_transform_3 <- h_conted_2
I0123 21:07:47.193557 63713 net.cpp:339] lstm1_transform_3 -> W_hc_h_2
I0123 21:07:47.193573 63713 net.cpp:113] Setting up lstm1_transform_3
I0123 21:07:47.198351 63713 net.cpp:120] Top shape: 1 8 1024 (8192)
I0123 21:07:47.198386 63713 net.cpp:425] Sharing parameters 'W_hc' owned by layer 'lstm1_transform_1', param index 0
I0123 21:07:47.198398 63713 layer_factory.hpp:74] Creating layer lstm1_gate_input_3
I0123 21:07:47.198412 63713 net.cpp:84] Creating Layer lstm1_gate_input_3
I0123 21:07:47.198421 63713 net.cpp:381] lstm1_gate_input_3 <- W_hc_h_2
I0123 21:07:47.198433 63713 net.cpp:381] lstm1_gate_input_3 <- W_xc_x_3
I0123 21:07:47.198447 63713 net.cpp:339] lstm1_gate_input_3 -> gate_input_3
I0123 21:07:47.198463 63713 net.cpp:113] Setting up lstm1_gate_input_3
I0123 21:07:47.198478 63713 net.cpp:120] Top shape: 1 8 1024 (8192)
I0123 21:07:47.198487 63713 layer_factory.hpp:74] Creating layer lstm1_unit_3
I0123 21:07:47.198498 63713 net.cpp:84] Creating Layer lstm1_unit_3
I0123 21:07:47.198508 63713 net.cpp:381] lstm1_unit_3 <- c_2
I0123 21:07:47.198518 63713 net.cpp:381] lstm1_unit_3 <- gate_input_3
I0123 21:07:47.198529 63713 net.cpp:381] lstm1_unit_3 <- cont_3_lstm1_cont_slice_2_split_1
I0123 21:07:47.198541 63713 net.cpp:339] lstm1_unit_3 -> c_3
I0123 21:07:47.198556 63713 net.cpp:339] lstm1_unit_3 -> h_3
I0123 21:07:47.198570 63713 net.cpp:113] Setting up lstm1_unit_3
I0123 21:07:47.198585 63713 net.cpp:120] Top shape: 1 8 256 (2048)
I0123 21:07:47.198596 63713 net.cpp:120] Top shape: 1 8 256 (2048)
I0123 21:07:47.198602 63713 layer_factory.hpp:74] Creating layer h_3_lstm1_unit_3_1_split
I0123 21:07:47.198616 63713 net.cpp:84] Creating Layer h_3_lstm1_unit_3_1_split
I0123 21:07:47.198623 63713 net.cpp:381] h_3_lstm1_unit_3_1_split <- h_3
I0123 21:07:47.198634 63713 net.cpp:339] h_3_lstm1_unit_3_1_split -> h_3_lstm1_unit_3_1_split_0
I0123 21:07:47.198650 63713 net.cpp:339] h_3_lstm1_unit_3_1_split -> h_3_lstm1_unit_3_1_split_1
I0123 21:07:47.198664 63713 net.cpp:113] Setting up h_3_lstm1_unit_3_1_split
I0123 21:07:47.198678 63713 net.cpp:120] Top shape: 1 8 256 (2048)
I0123 21:07:47.198688 63713 net.cpp:120] Top shape: 1 8 256 (2048)
I0123 21:07:47.198694 63713 layer_factory.hpp:74] Creating layer lstm1_h_conted_3
I0123 21:07:47.198705 63713 net.cpp:84] Creating Layer lstm1_h_conted_3
I0123 21:07:47.198714 63713 net.cpp:381] lstm1_h_conted_3 <- h_3_lstm1_unit_3_1_split_0
I0123 21:07:47.198724 63713 net.cpp:381] lstm1_h_conted_3 <- cont_4_lstm1_cont_slice_3_split_0
I0123 21:07:47.198737 63713 net.cpp:339] lstm1_h_conted_3 -> h_conted_3
I0123 21:07:47.198751 63713 net.cpp:113] Setting up lstm1_h_conted_3
I0123 21:07:47.198765 63713 net.cpp:120] Top shape: 1 8 256 (2048)
I0123 21:07:47.198773 63713 layer_factory.hpp:74] Creating layer lstm1_transform_4
I0123 21:07:47.198788 63713 net.cpp:84] Creating Layer lstm1_transform_4
I0123 21:07:47.198797 63713 net.cpp:381] lstm1_transform_4 <- h_conted_3
I0123 21:07:47.198809 63713 net.cpp:339] lstm1_transform_4 -> W_hc_h_3
I0123 21:07:47.198825 63713 net.cpp:113] Setting up lstm1_transform_4
I0123 21:07:47.203699 63713 net.cpp:120] Top shape: 1 8 1024 (8192)
I0123 21:07:47.203729 63713 net.cpp:425] Sharing parameters 'W_hc' owned by layer 'lstm1_transform_1', param index 0
I0123 21:07:47.203740 63713 layer_factory.hpp:74] Creating layer lstm1_gate_input_4
I0123 21:07:47.203753 63713 net.cpp:84] Creating Layer lstm1_gate_input_4
I0123 21:07:47.203763 63713 net.cpp:381] lstm1_gate_input_4 <- W_hc_h_3
I0123 21:07:47.203773 63713 net.cpp:381] lstm1_gate_input_4 <- W_xc_x_4
I0123 21:07:47.203786 63713 net.cpp:339] lstm1_gate_input_4 -> gate_input_4
I0123 21:07:47.203800 63713 net.cpp:113] Setting up lstm1_gate_input_4
I0123 21:07:47.203814 63713 net.cpp:120] Top shape: 1 8 1024 (8192)
I0123 21:07:47.203821 63713 layer_factory.hpp:74] Creating layer lstm1_unit_4
I0123 21:07:47.203833 63713 net.cpp:84] Creating Layer lstm1_unit_4
I0123 21:07:47.203841 63713 net.cpp:381] lstm1_unit_4 <- c_3
I0123 21:07:47.203851 63713 net.cpp:381] lstm1_unit_4 <- gate_input_4
I0123 21:07:47.203861 63713 net.cpp:381] lstm1_unit_4 <- cont_4_lstm1_cont_slice_3_split_1
I0123 21:07:47.203873 63713 net.cpp:339] lstm1_unit_4 -> c_4
I0123 21:07:47.203888 63713 net.cpp:339] lstm1_unit_4 -> h_4
I0123 21:07:47.203900 63713 net.cpp:113] Setting up lstm1_unit_4
I0123 21:07:47.203914 63713 net.cpp:120] Top shape: 1 8 256 (2048)
I0123 21:07:47.203924 63713 net.cpp:120] Top shape: 1 8 256 (2048)
I0123 21:07:47.203932 63713 layer_factory.hpp:74] Creating layer h_4_lstm1_unit_4_1_split
I0123 21:07:47.203943 63713 net.cpp:84] Creating Layer h_4_lstm1_unit_4_1_split
I0123 21:07:47.203950 63713 net.cpp:381] h_4_lstm1_unit_4_1_split <- h_4
I0123 21:07:47.203963 63713 net.cpp:339] h_4_lstm1_unit_4_1_split -> h_4_lstm1_unit_4_1_split_0
I0123 21:07:47.203977 63713 net.cpp:339] h_4_lstm1_unit_4_1_split -> h_4_lstm1_unit_4_1_split_1
I0123 21:07:47.203992 63713 net.cpp:113] Setting up h_4_lstm1_unit_4_1_split
I0123 21:07:47.204005 63713 net.cpp:120] Top shape: 1 8 256 (2048)
I0123 21:07:47.204013 63713 net.cpp:120] Top shape: 1 8 256 (2048)
I0123 21:07:47.204020 63713 layer_factory.hpp:74] Creating layer lstm1_h_conted_4
I0123 21:07:47.204031 63713 net.cpp:84] Creating Layer lstm1_h_conted_4
I0123 21:07:47.204041 63713 net.cpp:381] lstm1_h_conted_4 <- h_4_lstm1_unit_4_1_split_0
I0123 21:07:47.204049 63713 net.cpp:381] lstm1_h_conted_4 <- cont_5_lstm1_cont_slice_4_split_0
I0123 21:07:47.204062 63713 net.cpp:339] lstm1_h_conted_4 -> h_conted_4
I0123 21:07:47.204075 63713 net.cpp:113] Setting up lstm1_h_conted_4
I0123 21:07:47.204087 63713 net.cpp:120] Top shape: 1 8 256 (2048)
I0123 21:07:47.204094 63713 layer_factory.hpp:74] Creating layer lstm1_transform_5
I0123 21:07:47.204109 63713 net.cpp:84] Creating Layer lstm1_transform_5
I0123 21:07:47.204118 63713 net.cpp:381] lstm1_transform_5 <- h_conted_4
I0123 21:07:47.204131 63713 net.cpp:339] lstm1_transform_5 -> W_hc_h_4
I0123 21:07:47.204145 63713 net.cpp:113] Setting up lstm1_transform_5
I0123 21:07:47.209007 63713 net.cpp:120] Top shape: 1 8 1024 (8192)
I0123 21:07:47.209036 63713 net.cpp:425] Sharing parameters 'W_hc' owned by layer 'lstm1_transform_1', param index 0
I0123 21:07:47.209048 63713 layer_factory.hpp:74] Creating layer lstm1_gate_input_5
I0123 21:07:47.209061 63713 net.cpp:84] Creating Layer lstm1_gate_input_5
I0123 21:07:47.209070 63713 net.cpp:381] lstm1_gate_input_5 <- W_hc_h_4
I0123 21:07:47.209081 63713 net.cpp:381] lstm1_gate_input_5 <- W_xc_x_5
I0123 21:07:47.209095 63713 net.cpp:339] lstm1_gate_input_5 -> gate_input_5
I0123 21:07:47.209110 63713 net.cpp:113] Setting up lstm1_gate_input_5
I0123 21:07:47.209123 63713 net.cpp:120] Top shape: 1 8 1024 (8192)
I0123 21:07:47.209131 63713 layer_factory.hpp:74] Creating layer lstm1_unit_5
I0123 21:07:47.209142 63713 net.cpp:84] Creating Layer lstm1_unit_5
I0123 21:07:47.209151 63713 net.cpp:381] lstm1_unit_5 <- c_4
I0123 21:07:47.209162 63713 net.cpp:381] lstm1_unit_5 <- gate_input_5
I0123 21:07:47.209172 63713 net.cpp:381] lstm1_unit_5 <- cont_5_lstm1_cont_slice_4_split_1
I0123 21:07:47.209183 63713 net.cpp:339] lstm1_unit_5 -> c_5
I0123 21:07:47.209198 63713 net.cpp:339] lstm1_unit_5 -> h_5
I0123 21:07:47.209210 63713 net.cpp:113] Setting up lstm1_unit_5
I0123 21:07:47.209224 63713 net.cpp:120] Top shape: 1 8 256 (2048)
I0123 21:07:47.209234 63713 net.cpp:120] Top shape: 1 8 256 (2048)
I0123 21:07:47.209241 63713 layer_factory.hpp:74] Creating layer h_5_lstm1_unit_5_1_split
I0123 21:07:47.209252 63713 net.cpp:84] Creating Layer h_5_lstm1_unit_5_1_split
I0123 21:07:47.209260 63713 net.cpp:381] h_5_lstm1_unit_5_1_split <- h_5
I0123 21:07:47.209272 63713 net.cpp:339] h_5_lstm1_unit_5_1_split -> h_5_lstm1_unit_5_1_split_0
I0123 21:07:47.209288 63713 net.cpp:339] h_5_lstm1_unit_5_1_split -> h_5_lstm1_unit_5_1_split_1
I0123 21:07:47.209303 63713 net.cpp:113] Setting up h_5_lstm1_unit_5_1_split
I0123 21:07:47.209316 63713 net.cpp:120] Top shape: 1 8 256 (2048)
I0123 21:07:47.209326 63713 net.cpp:120] Top shape: 1 8 256 (2048)
I0123 21:07:47.209333 63713 layer_factory.hpp:74] Creating layer lstm1_h_conted_5
I0123 21:07:47.209344 63713 net.cpp:84] Creating Layer lstm1_h_conted_5
I0123 21:07:47.209352 63713 net.cpp:381] lstm1_h_conted_5 <- h_5_lstm1_unit_5_1_split_0
I0123 21:07:47.209362 63713 net.cpp:381] lstm1_h_conted_5 <- cont_6_lstm1_cont_slice_5_split_0
I0123 21:07:47.209375 63713 net.cpp:339] lstm1_h_conted_5 -> h_conted_5
I0123 21:07:47.209388 63713 net.cpp:113] Setting up lstm1_h_conted_5
I0123 21:07:47.209401 63713 net.cpp:120] Top shape: 1 8 256 (2048)
I0123 21:07:47.209408 63713 layer_factory.hpp:74] Creating layer lstm1_transform_6
I0123 21:07:47.209422 63713 net.cpp:84] Creating Layer lstm1_transform_6
I0123 21:07:47.209431 63713 net.cpp:381] lstm1_transform_6 <- h_conted_5
I0123 21:07:47.209444 63713 net.cpp:339] lstm1_transform_6 -> W_hc_h_5
I0123 21:07:47.209460 63713 net.cpp:113] Setting up lstm1_transform_6
I0123 21:07:47.214244 63713 net.cpp:120] Top shape: 1 8 1024 (8192)
I0123 21:07:47.214275 63713 net.cpp:425] Sharing parameters 'W_hc' owned by layer 'lstm1_transform_1', param index 0
I0123 21:07:47.214285 63713 layer_factory.hpp:74] Creating layer lstm1_gate_input_6
I0123 21:07:47.214299 63713 net.cpp:84] Creating Layer lstm1_gate_input_6
I0123 21:07:47.214309 63713 net.cpp:381] lstm1_gate_input_6 <- W_hc_h_5
I0123 21:07:47.214321 63713 net.cpp:381] lstm1_gate_input_6 <- W_xc_x_6
I0123 21:07:47.214335 63713 net.cpp:339] lstm1_gate_input_6 -> gate_input_6
I0123 21:07:47.214351 63713 net.cpp:113] Setting up lstm1_gate_input_6
I0123 21:07:47.214365 63713 net.cpp:120] Top shape: 1 8 1024 (8192)
I0123 21:07:47.214371 63713 layer_factory.hpp:74] Creating layer lstm1_unit_6
I0123 21:07:47.214383 63713 net.cpp:84] Creating Layer lstm1_unit_6
I0123 21:07:47.214392 63713 net.cpp:381] lstm1_unit_6 <- c_5
I0123 21:07:47.214402 63713 net.cpp:381] lstm1_unit_6 <- gate_input_6
I0123 21:07:47.214412 63713 net.cpp:381] lstm1_unit_6 <- cont_6_lstm1_cont_slice_5_split_1
I0123 21:07:47.214424 63713 net.cpp:339] lstm1_unit_6 -> c_6
I0123 21:07:47.214440 63713 net.cpp:339] lstm1_unit_6 -> h_6
I0123 21:07:47.214452 63713 net.cpp:113] Setting up lstm1_unit_6
I0123 21:07:47.214465 63713 net.cpp:120] Top shape: 1 8 256 (2048)
I0123 21:07:47.214475 63713 net.cpp:120] Top shape: 1 8 256 (2048)
I0123 21:07:47.214483 63713 layer_factory.hpp:74] Creating layer h_6_lstm1_unit_6_1_split
I0123 21:07:47.214493 63713 net.cpp:84] Creating Layer h_6_lstm1_unit_6_1_split
I0123 21:07:47.214501 63713 net.cpp:381] h_6_lstm1_unit_6_1_split <- h_6
I0123 21:07:47.214514 63713 net.cpp:339] h_6_lstm1_unit_6_1_split -> h_6_lstm1_unit_6_1_split_0
I0123 21:07:47.214529 63713 net.cpp:339] h_6_lstm1_unit_6_1_split -> h_6_lstm1_unit_6_1_split_1
I0123 21:07:47.214541 63713 net.cpp:113] Setting up h_6_lstm1_unit_6_1_split
I0123 21:07:47.214555 63713 net.cpp:120] Top shape: 1 8 256 (2048)
I0123 21:07:47.214565 63713 net.cpp:120] Top shape: 1 8 256 (2048)
I0123 21:07:47.214571 63713 layer_factory.hpp:74] Creating layer lstm1_h_conted_6
I0123 21:07:47.214582 63713 net.cpp:84] Creating Layer lstm1_h_conted_6
I0123 21:07:47.214591 63713 net.cpp:381] lstm1_h_conted_6 <- h_6_lstm1_unit_6_1_split_0
I0123 21:07:47.214601 63713 net.cpp:381] lstm1_h_conted_6 <- cont_7_lstm1_cont_slice_6_split_0
I0123 21:07:47.214614 63713 net.cpp:339] lstm1_h_conted_6 -> h_conted_6
I0123 21:07:47.214627 63713 net.cpp:113] Setting up lstm1_h_conted_6
I0123 21:07:47.214639 63713 net.cpp:120] Top shape: 1 8 256 (2048)
I0123 21:07:47.214646 63713 layer_factory.hpp:74] Creating layer lstm1_transform_7
I0123 21:07:47.214661 63713 net.cpp:84] Creating Layer lstm1_transform_7
I0123 21:07:47.214669 63713 net.cpp:381] lstm1_transform_7 <- h_conted_6
I0123 21:07:47.214682 63713 net.cpp:339] lstm1_transform_7 -> W_hc_h_6
I0123 21:07:47.214696 63713 net.cpp:113] Setting up lstm1_transform_7
I0123 21:07:47.220067 63713 net.cpp:120] Top shape: 1 8 1024 (8192)
I0123 21:07:47.220103 63713 net.cpp:425] Sharing parameters 'W_hc' owned by layer 'lstm1_transform_1', param index 0
I0123 21:07:47.220115 63713 layer_factory.hpp:74] Creating layer lstm1_gate_input_7
I0123 21:07:47.220129 63713 net.cpp:84] Creating Layer lstm1_gate_input_7
I0123 21:07:47.220139 63713 net.cpp:381] lstm1_gate_input_7 <- W_hc_h_6
I0123 21:07:47.220151 63713 net.cpp:381] lstm1_gate_input_7 <- W_xc_x_7
I0123 21:07:47.220165 63713 net.cpp:339] lstm1_gate_input_7 -> gate_input_7
I0123 21:07:47.220180 63713 net.cpp:113] Setting up lstm1_gate_input_7
I0123 21:07:47.220196 63713 net.cpp:120] Top shape: 1 8 1024 (8192)
I0123 21:07:47.220203 63713 layer_factory.hpp:74] Creating layer lstm1_unit_7
I0123 21:07:47.220216 63713 net.cpp:84] Creating Layer lstm1_unit_7
I0123 21:07:47.220226 63713 net.cpp:381] lstm1_unit_7 <- c_6
I0123 21:07:47.220235 63713 net.cpp:381] lstm1_unit_7 <- gate_input_7
I0123 21:07:47.220245 63713 net.cpp:381] lstm1_unit_7 <- cont_7_lstm1_cont_slice_6_split_1
I0123 21:07:47.220257 63713 net.cpp:339] lstm1_unit_7 -> c_7
I0123 21:07:47.220273 63713 net.cpp:339] lstm1_unit_7 -> h_7
I0123 21:07:47.220286 63713 net.cpp:113] Setting up lstm1_unit_7
I0123 21:07:47.220300 63713 net.cpp:120] Top shape: 1 8 256 (2048)
I0123 21:07:47.220310 63713 net.cpp:120] Top shape: 1 8 256 (2048)
I0123 21:07:47.220319 63713 layer_factory.hpp:74] Creating layer h_7_lstm1_unit_7_1_split
I0123 21:07:47.220329 63713 net.cpp:84] Creating Layer h_7_lstm1_unit_7_1_split
I0123 21:07:47.220338 63713 net.cpp:381] h_7_lstm1_unit_7_1_split <- h_7
I0123 21:07:47.220350 63713 net.cpp:339] h_7_lstm1_unit_7_1_split -> h_7_lstm1_unit_7_1_split_0
I0123 21:07:47.220366 63713 net.cpp:339] h_7_lstm1_unit_7_1_split -> h_7_lstm1_unit_7_1_split_1
I0123 21:07:47.220379 63713 net.cpp:113] Setting up h_7_lstm1_unit_7_1_split
I0123 21:07:47.220393 63713 net.cpp:120] Top shape: 1 8 256 (2048)
I0123 21:07:47.220403 63713 net.cpp:120] Top shape: 1 8 256 (2048)
I0123 21:07:47.220410 63713 layer_factory.hpp:74] Creating layer lstm1_h_conted_7
I0123 21:07:47.220422 63713 net.cpp:84] Creating Layer lstm1_h_conted_7
I0123 21:07:47.220429 63713 net.cpp:381] lstm1_h_conted_7 <- h_7_lstm1_unit_7_1_split_0
I0123 21:07:47.220440 63713 net.cpp:381] lstm1_h_conted_7 <- cont_8_lstm1_cont_slice_7_split_0
I0123 21:07:47.220453 63713 net.cpp:339] lstm1_h_conted_7 -> h_conted_7
I0123 21:07:47.220466 63713 net.cpp:113] Setting up lstm1_h_conted_7
I0123 21:07:47.220479 63713 net.cpp:120] Top shape: 1 8 256 (2048)
I0123 21:07:47.220486 63713 layer_factory.hpp:74] Creating layer lstm1_transform_8
I0123 21:07:47.220501 63713 net.cpp:84] Creating Layer lstm1_transform_8
I0123 21:07:47.220510 63713 net.cpp:381] lstm1_transform_8 <- h_conted_7
I0123 21:07:47.220523 63713 net.cpp:339] lstm1_transform_8 -> W_hc_h_7
I0123 21:07:47.220538 63713 net.cpp:113] Setting up lstm1_transform_8
I0123 21:07:47.225924 63713 net.cpp:120] Top shape: 1 8 1024 (8192)
I0123 21:07:47.225955 63713 net.cpp:425] Sharing parameters 'W_hc' owned by layer 'lstm1_transform_1', param index 0
I0123 21:07:47.225967 63713 layer_factory.hpp:74] Creating layer lstm1_gate_input_8
I0123 21:07:47.225982 63713 net.cpp:84] Creating Layer lstm1_gate_input_8
I0123 21:07:47.225991 63713 net.cpp:381] lstm1_gate_input_8 <- W_hc_h_7
I0123 21:07:47.226003 63713 net.cpp:381] lstm1_gate_input_8 <- W_xc_x_8
I0123 21:07:47.226016 63713 net.cpp:339] lstm1_gate_input_8 -> gate_input_8
I0123 21:07:47.226060 63713 net.cpp:113] Setting up lstm1_gate_input_8
I0123 21:07:47.226085 63713 net.cpp:120] Top shape: 1 8 1024 (8192)
I0123 21:07:47.226094 63713 layer_factory.hpp:74] Creating layer lstm1_unit_8
I0123 21:07:47.226106 63713 net.cpp:84] Creating Layer lstm1_unit_8
I0123 21:07:47.226114 63713 net.cpp:381] lstm1_unit_8 <- c_7
I0123 21:07:47.226125 63713 net.cpp:381] lstm1_unit_8 <- gate_input_8
I0123 21:07:47.226135 63713 net.cpp:381] lstm1_unit_8 <- cont_8_lstm1_cont_slice_7_split_1
I0123 21:07:47.226148 63713 net.cpp:339] lstm1_unit_8 -> c_8
I0123 21:07:47.226164 63713 net.cpp:339] lstm1_unit_8 -> h_8
I0123 21:07:47.226178 63713 net.cpp:113] Setting up lstm1_unit_8
I0123 21:07:47.226193 63713 net.cpp:120] Top shape: 1 8 256 (2048)
I0123 21:07:47.226203 63713 net.cpp:120] Top shape: 1 8 256 (2048)
I0123 21:07:47.226210 63713 layer_factory.hpp:74] Creating layer h_8_lstm1_unit_8_1_split
I0123 21:07:47.226222 63713 net.cpp:84] Creating Layer h_8_lstm1_unit_8_1_split
I0123 21:07:47.226230 63713 net.cpp:381] h_8_lstm1_unit_8_1_split <- h_8
I0123 21:07:47.226243 63713 net.cpp:339] h_8_lstm1_unit_8_1_split -> h_8_lstm1_unit_8_1_split_0
I0123 21:07:47.226259 63713 net.cpp:339] h_8_lstm1_unit_8_1_split -> h_8_lstm1_unit_8_1_split_1
I0123 21:07:47.226274 63713 net.cpp:113] Setting up h_8_lstm1_unit_8_1_split
I0123 21:07:47.226287 63713 net.cpp:120] Top shape: 1 8 256 (2048)
I0123 21:07:47.226296 63713 net.cpp:120] Top shape: 1 8 256 (2048)
I0123 21:07:47.226303 63713 layer_factory.hpp:74] Creating layer lstm1_h_conted_8
I0123 21:07:47.226315 63713 net.cpp:84] Creating Layer lstm1_h_conted_8
I0123 21:07:47.226322 63713 net.cpp:381] lstm1_h_conted_8 <- h_8_lstm1_unit_8_1_split_0
I0123 21:07:47.226333 63713 net.cpp:381] lstm1_h_conted_8 <- cont_9_lstm1_cont_slice_8_split_0
I0123 21:07:47.226346 63713 net.cpp:339] lstm1_h_conted_8 -> h_conted_8
I0123 21:07:47.226358 63713 net.cpp:113] Setting up lstm1_h_conted_8
I0123 21:07:47.226372 63713 net.cpp:120] Top shape: 1 8 256 (2048)
I0123 21:07:47.226379 63713 layer_factory.hpp:74] Creating layer lstm1_transform_9
I0123 21:07:47.226394 63713 net.cpp:84] Creating Layer lstm1_transform_9
I0123 21:07:47.226402 63713 net.cpp:381] lstm1_transform_9 <- h_conted_8
I0123 21:07:47.226416 63713 net.cpp:339] lstm1_transform_9 -> W_hc_h_8
I0123 21:07:47.226431 63713 net.cpp:113] Setting up lstm1_transform_9
I0123 21:07:47.231815 63713 net.cpp:120] Top shape: 1 8 1024 (8192)
I0123 21:07:47.231847 63713 net.cpp:425] Sharing parameters 'W_hc' owned by layer 'lstm1_transform_1', param index 0
I0123 21:07:47.231858 63713 layer_factory.hpp:74] Creating layer lstm1_gate_input_9
I0123 21:07:47.231873 63713 net.cpp:84] Creating Layer lstm1_gate_input_9
I0123 21:07:47.231883 63713 net.cpp:381] lstm1_gate_input_9 <- W_hc_h_8
I0123 21:07:47.231894 63713 net.cpp:381] lstm1_gate_input_9 <- W_xc_x_9
I0123 21:07:47.231909 63713 net.cpp:339] lstm1_gate_input_9 -> gate_input_9
I0123 21:07:47.231925 63713 net.cpp:113] Setting up lstm1_gate_input_9
I0123 21:07:47.231940 63713 net.cpp:120] Top shape: 1 8 1024 (8192)
I0123 21:07:47.231947 63713 layer_factory.hpp:74] Creating layer lstm1_unit_9
I0123 21:07:47.231984 63713 net.cpp:84] Creating Layer lstm1_unit_9
I0123 21:07:47.231995 63713 net.cpp:381] lstm1_unit_9 <- c_8
I0123 21:07:47.232007 63713 net.cpp:381] lstm1_unit_9 <- gate_input_9
I0123 21:07:47.232017 63713 net.cpp:381] lstm1_unit_9 <- cont_9_lstm1_cont_slice_8_split_1
I0123 21:07:47.232031 63713 net.cpp:339] lstm1_unit_9 -> c_9
I0123 21:07:47.232048 63713 net.cpp:339] lstm1_unit_9 -> h_9
I0123 21:07:47.232061 63713 net.cpp:113] Setting up lstm1_unit_9
I0123 21:07:47.232075 63713 net.cpp:120] Top shape: 1 8 256 (2048)
I0123 21:07:47.232086 63713 net.cpp:120] Top shape: 1 8 256 (2048)
I0123 21:07:47.232095 63713 layer_factory.hpp:74] Creating layer h_9_lstm1_unit_9_1_split
I0123 21:07:47.232106 63713 net.cpp:84] Creating Layer h_9_lstm1_unit_9_1_split
I0123 21:07:47.232115 63713 net.cpp:381] h_9_lstm1_unit_9_1_split <- h_9
I0123 21:07:47.232126 63713 net.cpp:339] h_9_lstm1_unit_9_1_split -> h_9_lstm1_unit_9_1_split_0
I0123 21:07:47.232143 63713 net.cpp:339] h_9_lstm1_unit_9_1_split -> h_9_lstm1_unit_9_1_split_1
I0123 21:07:47.232157 63713 net.cpp:113] Setting up h_9_lstm1_unit_9_1_split
I0123 21:07:47.232172 63713 net.cpp:120] Top shape: 1 8 256 (2048)
I0123 21:07:47.232182 63713 net.cpp:120] Top shape: 1 8 256 (2048)
I0123 21:07:47.232189 63713 layer_factory.hpp:74] Creating layer lstm1_h_conted_9
I0123 21:07:47.232201 63713 net.cpp:84] Creating Layer lstm1_h_conted_9
I0123 21:07:47.232209 63713 net.cpp:381] lstm1_h_conted_9 <- h_9_lstm1_unit_9_1_split_0
I0123 21:07:47.232220 63713 net.cpp:381] lstm1_h_conted_9 <- cont_10_lstm1_cont_slice_9_split_0
I0123 21:07:47.232234 63713 net.cpp:339] lstm1_h_conted_9 -> h_conted_9
I0123 21:07:47.232247 63713 net.cpp:113] Setting up lstm1_h_conted_9
I0123 21:07:47.232260 63713 net.cpp:120] Top shape: 1 8 256 (2048)
I0123 21:07:47.232269 63713 layer_factory.hpp:74] Creating layer lstm1_transform_10
I0123 21:07:47.232283 63713 net.cpp:84] Creating Layer lstm1_transform_10
I0123 21:07:47.232293 63713 net.cpp:381] lstm1_transform_10 <- h_conted_9
I0123 21:07:47.232306 63713 net.cpp:339] lstm1_transform_10 -> W_hc_h_9
I0123 21:07:47.232321 63713 net.cpp:113] Setting up lstm1_transform_10
I0123 21:07:47.237705 63713 net.cpp:120] Top shape: 1 8 1024 (8192)
I0123 21:07:47.237736 63713 net.cpp:425] Sharing parameters 'W_hc' owned by layer 'lstm1_transform_1', param index 0
I0123 21:07:47.237749 63713 layer_factory.hpp:74] Creating layer lstm1_gate_input_10
I0123 21:07:47.237764 63713 net.cpp:84] Creating Layer lstm1_gate_input_10
I0123 21:07:47.237774 63713 net.cpp:381] lstm1_gate_input_10 <- W_hc_h_9
I0123 21:07:47.237785 63713 net.cpp:381] lstm1_gate_input_10 <- W_xc_x_10
I0123 21:07:47.237798 63713 net.cpp:339] lstm1_gate_input_10 -> gate_input_10
I0123 21:07:47.237813 63713 net.cpp:113] Setting up lstm1_gate_input_10
I0123 21:07:47.237828 63713 net.cpp:120] Top shape: 1 8 1024 (8192)
I0123 21:07:47.237835 63713 layer_factory.hpp:74] Creating layer lstm1_unit_10
I0123 21:07:47.237848 63713 net.cpp:84] Creating Layer lstm1_unit_10
I0123 21:07:47.237855 63713 net.cpp:381] lstm1_unit_10 <- c_9
I0123 21:07:47.237865 63713 net.cpp:381] lstm1_unit_10 <- gate_input_10
I0123 21:07:47.237876 63713 net.cpp:381] lstm1_unit_10 <- cont_10_lstm1_cont_slice_9_split_1
I0123 21:07:47.237890 63713 net.cpp:339] lstm1_unit_10 -> c_10
I0123 21:07:47.237905 63713 net.cpp:339] lstm1_unit_10 -> h_10
I0123 21:07:47.237920 63713 net.cpp:113] Setting up lstm1_unit_10
I0123 21:07:47.237933 63713 net.cpp:120] Top shape: 1 8 256 (2048)
I0123 21:07:47.237943 63713 net.cpp:120] Top shape: 1 8 256 (2048)
I0123 21:07:47.237951 63713 layer_factory.hpp:74] Creating layer h_10_lstm1_unit_10_1_split
I0123 21:07:47.237963 63713 net.cpp:84] Creating Layer h_10_lstm1_unit_10_1_split
I0123 21:07:47.237970 63713 net.cpp:381] h_10_lstm1_unit_10_1_split <- h_10
I0123 21:07:47.237983 63713 net.cpp:339] h_10_lstm1_unit_10_1_split -> h_10_lstm1_unit_10_1_split_0
I0123 21:07:47.237999 63713 net.cpp:339] h_10_lstm1_unit_10_1_split -> h_10_lstm1_unit_10_1_split_1
I0123 21:07:47.238013 63713 net.cpp:113] Setting up h_10_lstm1_unit_10_1_split
I0123 21:07:47.238026 63713 net.cpp:120] Top shape: 1 8 256 (2048)
I0123 21:07:47.238036 63713 net.cpp:120] Top shape: 1 8 256 (2048)
I0123 21:07:47.238044 63713 layer_factory.hpp:74] Creating layer lstm1_h_conted_10
I0123 21:07:47.238055 63713 net.cpp:84] Creating Layer lstm1_h_conted_10
I0123 21:07:47.238063 63713 net.cpp:381] lstm1_h_conted_10 <- h_10_lstm1_unit_10_1_split_0
I0123 21:07:47.238075 63713 net.cpp:381] lstm1_h_conted_10 <- cont_11_lstm1_cont_slice_10_split_0
I0123 21:07:47.238088 63713 net.cpp:339] lstm1_h_conted_10 -> h_conted_10
I0123 21:07:47.238103 63713 net.cpp:113] Setting up lstm1_h_conted_10
I0123 21:07:47.238116 63713 net.cpp:120] Top shape: 1 8 256 (2048)
I0123 21:07:47.238123 63713 layer_factory.hpp:74] Creating layer lstm1_transform_11
I0123 21:07:47.238138 63713 net.cpp:84] Creating Layer lstm1_transform_11
I0123 21:07:47.238147 63713 net.cpp:381] lstm1_transform_11 <- h_conted_10
I0123 21:07:47.238160 63713 net.cpp:339] lstm1_transform_11 -> W_hc_h_10
I0123 21:07:47.238174 63713 net.cpp:113] Setting up lstm1_transform_11
I0123 21:07:47.243551 63713 net.cpp:120] Top shape: 1 8 1024 (8192)
I0123 21:07:47.243583 63713 net.cpp:425] Sharing parameters 'W_hc' owned by layer 'lstm1_transform_1', param index 0
I0123 21:07:47.243595 63713 layer_factory.hpp:74] Creating layer lstm1_gate_input_11
I0123 21:07:47.243610 63713 net.cpp:84] Creating Layer lstm1_gate_input_11
I0123 21:07:47.243621 63713 net.cpp:381] lstm1_gate_input_11 <- W_hc_h_10
I0123 21:07:47.243633 63713 net.cpp:381] lstm1_gate_input_11 <- W_xc_x_11
I0123 21:07:47.243646 63713 net.cpp:339] lstm1_gate_input_11 -> gate_input_11
I0123 21:07:47.243662 63713 net.cpp:113] Setting up lstm1_gate_input_11
I0123 21:07:47.243677 63713 net.cpp:120] Top shape: 1 8 1024 (8192)
I0123 21:07:47.243686 63713 layer_factory.hpp:74] Creating layer lstm1_unit_11
I0123 21:07:47.243698 63713 net.cpp:84] Creating Layer lstm1_unit_11
I0123 21:07:47.243707 63713 net.cpp:381] lstm1_unit_11 <- c_10
I0123 21:07:47.243717 63713 net.cpp:381] lstm1_unit_11 <- gate_input_11
I0123 21:07:47.243728 63713 net.cpp:381] lstm1_unit_11 <- cont_11_lstm1_cont_slice_10_split_1
I0123 21:07:47.243741 63713 net.cpp:339] lstm1_unit_11 -> c_11
I0123 21:07:47.243757 63713 net.cpp:339] lstm1_unit_11 -> h_11
I0123 21:07:47.243768 63713 net.cpp:113] Setting up lstm1_unit_11
I0123 21:07:47.243783 63713 net.cpp:120] Top shape: 1 8 256 (2048)
I0123 21:07:47.243793 63713 net.cpp:120] Top shape: 1 8 256 (2048)
I0123 21:07:47.243801 63713 layer_factory.hpp:74] Creating layer h_11_lstm1_unit_11_1_split
I0123 21:07:47.243813 63713 net.cpp:84] Creating Layer h_11_lstm1_unit_11_1_split
I0123 21:07:47.243821 63713 net.cpp:381] h_11_lstm1_unit_11_1_split <- h_11
I0123 21:07:47.243834 63713 net.cpp:339] h_11_lstm1_unit_11_1_split -> h_11_lstm1_unit_11_1_split_0
I0123 21:07:47.243850 63713 net.cpp:339] h_11_lstm1_unit_11_1_split -> h_11_lstm1_unit_11_1_split_1
I0123 21:07:47.243865 63713 net.cpp:113] Setting up h_11_lstm1_unit_11_1_split
I0123 21:07:47.243877 63713 net.cpp:120] Top shape: 1 8 256 (2048)
I0123 21:07:47.243888 63713 net.cpp:120] Top shape: 1 8 256 (2048)
I0123 21:07:47.243894 63713 layer_factory.hpp:74] Creating layer lstm1_h_conted_11
I0123 21:07:47.243906 63713 net.cpp:84] Creating Layer lstm1_h_conted_11
I0123 21:07:47.243916 63713 net.cpp:381] lstm1_h_conted_11 <- h_11_lstm1_unit_11_1_split_0
I0123 21:07:47.243927 63713 net.cpp:381] lstm1_h_conted_11 <- cont_12_lstm1_cont_slice_11_split_0
I0123 21:07:47.243938 63713 net.cpp:339] lstm1_h_conted_11 -> h_conted_11
I0123 21:07:47.243952 63713 net.cpp:113] Setting up lstm1_h_conted_11
I0123 21:07:47.243965 63713 net.cpp:120] Top shape: 1 8 256 (2048)
I0123 21:07:47.243973 63713 layer_factory.hpp:74] Creating layer lstm1_transform_12
I0123 21:07:47.243988 63713 net.cpp:84] Creating Layer lstm1_transform_12
I0123 21:07:47.243996 63713 net.cpp:381] lstm1_transform_12 <- h_conted_11
I0123 21:07:47.244009 63713 net.cpp:339] lstm1_transform_12 -> W_hc_h_11
I0123 21:07:47.244024 63713 net.cpp:113] Setting up lstm1_transform_12
I0123 21:07:47.249332 63713 net.cpp:120] Top shape: 1 8 1024 (8192)
I0123 21:07:47.249366 63713 net.cpp:425] Sharing parameters 'W_hc' owned by layer 'lstm1_transform_1', param index 0
I0123 21:07:47.249378 63713 layer_factory.hpp:74] Creating layer lstm1_gate_input_12
I0123 21:07:47.249393 63713 net.cpp:84] Creating Layer lstm1_gate_input_12
I0123 21:07:47.249403 63713 net.cpp:381] lstm1_gate_input_12 <- W_hc_h_11
I0123 21:07:47.249414 63713 net.cpp:381] lstm1_gate_input_12 <- W_xc_x_12
I0123 21:07:47.249428 63713 net.cpp:339] lstm1_gate_input_12 -> gate_input_12
I0123 21:07:47.249444 63713 net.cpp:113] Setting up lstm1_gate_input_12
I0123 21:07:47.249459 63713 net.cpp:120] Top shape: 1 8 1024 (8192)
I0123 21:07:47.249469 63713 layer_factory.hpp:74] Creating layer lstm1_unit_12
I0123 21:07:47.249480 63713 net.cpp:84] Creating Layer lstm1_unit_12
I0123 21:07:47.249490 63713 net.cpp:381] lstm1_unit_12 <- c_11
I0123 21:07:47.249501 63713 net.cpp:381] lstm1_unit_12 <- gate_input_12
I0123 21:07:47.249512 63713 net.cpp:381] lstm1_unit_12 <- cont_12_lstm1_cont_slice_11_split_1
I0123 21:07:47.249526 63713 net.cpp:339] lstm1_unit_12 -> c_12
I0123 21:07:47.249541 63713 net.cpp:339] lstm1_unit_12 -> h_12
I0123 21:07:47.249553 63713 net.cpp:113] Setting up lstm1_unit_12
I0123 21:07:47.249568 63713 net.cpp:120] Top shape: 1 8 256 (2048)
I0123 21:07:47.249579 63713 net.cpp:120] Top shape: 1 8 256 (2048)
I0123 21:07:47.249586 63713 layer_factory.hpp:74] Creating layer h_12_lstm1_unit_12_1_split
I0123 21:07:47.249598 63713 net.cpp:84] Creating Layer h_12_lstm1_unit_12_1_split
I0123 21:07:47.249608 63713 net.cpp:381] h_12_lstm1_unit_12_1_split <- h_12
I0123 21:07:47.249620 63713 net.cpp:339] h_12_lstm1_unit_12_1_split -> h_12_lstm1_unit_12_1_split_0
I0123 21:07:47.249639 63713 net.cpp:339] h_12_lstm1_unit_12_1_split -> h_12_lstm1_unit_12_1_split_1
I0123 21:07:47.249652 63713 net.cpp:113] Setting up h_12_lstm1_unit_12_1_split
I0123 21:07:47.249666 63713 net.cpp:120] Top shape: 1 8 256 (2048)
I0123 21:07:47.249678 63713 net.cpp:120] Top shape: 1 8 256 (2048)
I0123 21:07:47.249686 63713 layer_factory.hpp:74] Creating layer lstm1_h_conted_12
I0123 21:07:47.249697 63713 net.cpp:84] Creating Layer lstm1_h_conted_12
I0123 21:07:47.249706 63713 net.cpp:381] lstm1_h_conted_12 <- h_12_lstm1_unit_12_1_split_0
I0123 21:07:47.249718 63713 net.cpp:381] lstm1_h_conted_12 <- cont_13_lstm1_cont_slice_12_split_0
I0123 21:07:47.249733 63713 net.cpp:339] lstm1_h_conted_12 -> h_conted_12
I0123 21:07:47.249747 63713 net.cpp:113] Setting up lstm1_h_conted_12
I0123 21:07:47.249759 63713 net.cpp:120] Top shape: 1 8 256 (2048)
I0123 21:07:47.249768 63713 layer_factory.hpp:74] Creating layer lstm1_transform_13
I0123 21:07:47.249783 63713 net.cpp:84] Creating Layer lstm1_transform_13
I0123 21:07:47.249791 63713 net.cpp:381] lstm1_transform_13 <- h_conted_12
I0123 21:07:47.249814 63713 net.cpp:339] lstm1_transform_13 -> W_hc_h_12
I0123 21:07:47.249832 63713 net.cpp:113] Setting up lstm1_transform_13
I0123 21:07:47.255174 63713 net.cpp:120] Top shape: 1 8 1024 (8192)
I0123 21:07:47.255208 63713 net.cpp:425] Sharing parameters 'W_hc' owned by layer 'lstm1_transform_1', param index 0
I0123 21:07:47.255219 63713 layer_factory.hpp:74] Creating layer lstm1_gate_input_13
I0123 21:07:47.255234 63713 net.cpp:84] Creating Layer lstm1_gate_input_13
I0123 21:07:47.255244 63713 net.cpp:381] lstm1_gate_input_13 <- W_hc_h_12
I0123 21:07:47.255256 63713 net.cpp:381] lstm1_gate_input_13 <- W_xc_x_13
I0123 21:07:47.255271 63713 net.cpp:339] lstm1_gate_input_13 -> gate_input_13
I0123 21:07:47.255287 63713 net.cpp:113] Setting up lstm1_gate_input_13
I0123 21:07:47.255303 63713 net.cpp:120] Top shape: 1 8 1024 (8192)
I0123 21:07:47.255331 63713 layer_factory.hpp:74] Creating layer lstm1_unit_13
I0123 21:07:47.255343 63713 net.cpp:84] Creating Layer lstm1_unit_13
I0123 21:07:47.255352 63713 net.cpp:381] lstm1_unit_13 <- c_12
I0123 21:07:47.255363 63713 net.cpp:381] lstm1_unit_13 <- gate_input_13
I0123 21:07:47.255374 63713 net.cpp:381] lstm1_unit_13 <- cont_13_lstm1_cont_slice_12_split_1
I0123 21:07:47.255395 63713 net.cpp:339] lstm1_unit_13 -> c_13
I0123 21:07:47.255415 63713 net.cpp:339] lstm1_unit_13 -> h_13
I0123 21:07:47.255430 63713 net.cpp:113] Setting up lstm1_unit_13
I0123 21:07:47.255446 63713 net.cpp:120] Top shape: 1 8 256 (2048)
I0123 21:07:47.255457 63713 net.cpp:120] Top shape: 1 8 256 (2048)
I0123 21:07:47.255465 63713 layer_factory.hpp:74] Creating layer h_13_lstm1_unit_13_1_split
I0123 21:07:47.255477 63713 net.cpp:84] Creating Layer h_13_lstm1_unit_13_1_split
I0123 21:07:47.255486 63713 net.cpp:381] h_13_lstm1_unit_13_1_split <- h_13
I0123 21:07:47.255498 63713 net.cpp:339] h_13_lstm1_unit_13_1_split -> h_13_lstm1_unit_13_1_split_0
I0123 21:07:47.255517 63713 net.cpp:339] h_13_lstm1_unit_13_1_split -> h_13_lstm1_unit_13_1_split_1
I0123 21:07:47.255532 63713 net.cpp:113] Setting up h_13_lstm1_unit_13_1_split
I0123 21:07:47.255544 63713 net.cpp:120] Top shape: 1 8 256 (2048)
I0123 21:07:47.255555 63713 net.cpp:120] Top shape: 1 8 256 (2048)
I0123 21:07:47.255563 63713 layer_factory.hpp:74] Creating layer lstm1_h_conted_13
I0123 21:07:47.255584 63713 net.cpp:84] Creating Layer lstm1_h_conted_13
I0123 21:07:47.255594 63713 net.cpp:381] lstm1_h_conted_13 <- h_13_lstm1_unit_13_1_split_0
I0123 21:07:47.255606 63713 net.cpp:381] lstm1_h_conted_13 <- cont_14_lstm1_cont_slice_13_split_0
I0123 21:07:47.255620 63713 net.cpp:339] lstm1_h_conted_13 -> h_conted_13
I0123 21:07:47.255635 63713 net.cpp:113] Setting up lstm1_h_conted_13
I0123 21:07:47.255655 63713 net.cpp:120] Top shape: 1 8 256 (2048)
I0123 21:07:47.255663 63713 layer_factory.hpp:74] Creating layer lstm1_transform_14
I0123 21:07:47.255678 63713 net.cpp:84] Creating Layer lstm1_transform_14
I0123 21:07:47.255689 63713 net.cpp:381] lstm1_transform_14 <- h_conted_13
I0123 21:07:47.255710 63713 net.cpp:339] lstm1_transform_14 -> W_hc_h_13
I0123 21:07:47.255733 63713 net.cpp:113] Setting up lstm1_transform_14
I0123 21:07:47.261167 63713 net.cpp:120] Top shape: 1 8 1024 (8192)
I0123 21:07:47.261196 63713 net.cpp:425] Sharing parameters 'W_hc' owned by layer 'lstm1_transform_1', param index 0
I0123 21:07:47.261207 63713 layer_factory.hpp:74] Creating layer lstm1_gate_input_14
I0123 21:07:47.261221 63713 net.cpp:84] Creating Layer lstm1_gate_input_14
I0123 21:07:47.261230 63713 net.cpp:381] lstm1_gate_input_14 <- W_hc_h_13
I0123 21:07:47.261241 63713 net.cpp:381] lstm1_gate_input_14 <- W_xc_x_14
I0123 21:07:47.261253 63713 net.cpp:339] lstm1_gate_input_14 -> gate_input_14
I0123 21:07:47.261274 63713 net.cpp:113] Setting up lstm1_gate_input_14
I0123 21:07:47.261289 63713 net.cpp:120] Top shape: 1 8 1024 (8192)
I0123 21:07:47.261301 63713 layer_factory.hpp:74] Creating layer lstm1_unit_14
I0123 21:07:47.261313 63713 net.cpp:84] Creating Layer lstm1_unit_14
I0123 21:07:47.261323 63713 net.cpp:381] lstm1_unit_14 <- c_13
I0123 21:07:47.261333 63713 net.cpp:381] lstm1_unit_14 <- gate_input_14
I0123 21:07:47.261343 63713 net.cpp:381] lstm1_unit_14 <- cont_14_lstm1_cont_slice_13_split_1
I0123 21:07:47.261355 63713 net.cpp:339] lstm1_unit_14 -> c_14
I0123 21:07:47.261371 63713 net.cpp:339] lstm1_unit_14 -> h_14
I0123 21:07:47.261390 63713 net.cpp:113] Setting up lstm1_unit_14
I0123 21:07:47.261406 63713 net.cpp:120] Top shape: 1 8 256 (2048)
I0123 21:07:47.261416 63713 net.cpp:120] Top shape: 1 8 256 (2048)
I0123 21:07:47.261423 63713 layer_factory.hpp:74] Creating layer h_14_lstm1_unit_14_1_split
I0123 21:07:47.261435 63713 net.cpp:84] Creating Layer h_14_lstm1_unit_14_1_split
I0123 21:07:47.261443 63713 net.cpp:381] h_14_lstm1_unit_14_1_split <- h_14
I0123 21:07:47.261456 63713 net.cpp:339] h_14_lstm1_unit_14_1_split -> h_14_lstm1_unit_14_1_split_0
I0123 21:07:47.261471 63713 net.cpp:339] h_14_lstm1_unit_14_1_split -> h_14_lstm1_unit_14_1_split_1
I0123 21:07:47.261487 63713 net.cpp:113] Setting up h_14_lstm1_unit_14_1_split
I0123 21:07:47.261499 63713 net.cpp:120] Top shape: 1 8 256 (2048)
I0123 21:07:47.261509 63713 net.cpp:120] Top shape: 1 8 256 (2048)
I0123 21:07:47.261518 63713 layer_factory.hpp:74] Creating layer lstm1_h_conted_14
I0123 21:07:47.261533 63713 net.cpp:84] Creating Layer lstm1_h_conted_14
I0123 21:07:47.261544 63713 net.cpp:381] lstm1_h_conted_14 <- h_14_lstm1_unit_14_1_split_0
I0123 21:07:47.261555 63713 net.cpp:381] lstm1_h_conted_14 <- cont_15_lstm1_cont_slice_14_split_0
I0123 21:07:47.261569 63713 net.cpp:339] lstm1_h_conted_14 -> h_conted_14
I0123 21:07:47.261584 63713 net.cpp:113] Setting up lstm1_h_conted_14
I0123 21:07:47.261596 63713 net.cpp:120] Top shape: 1 8 256 (2048)
I0123 21:07:47.261605 63713 layer_factory.hpp:74] Creating layer lstm1_transform_15
I0123 21:07:47.261618 63713 net.cpp:84] Creating Layer lstm1_transform_15
I0123 21:07:47.261627 63713 net.cpp:381] lstm1_transform_15 <- h_conted_14
I0123 21:07:47.261641 63713 net.cpp:339] lstm1_transform_15 -> W_hc_h_14
I0123 21:07:47.261662 63713 net.cpp:113] Setting up lstm1_transform_15
I0123 21:07:47.267027 63713 net.cpp:120] Top shape: 1 8 1024 (8192)
I0123 21:07:47.267068 63713 net.cpp:425] Sharing parameters 'W_hc' owned by layer 'lstm1_transform_1', param index 0
I0123 21:07:47.267081 63713 layer_factory.hpp:74] Creating layer lstm1_gate_input_15
I0123 21:07:47.267096 63713 net.cpp:84] Creating Layer lstm1_gate_input_15
I0123 21:07:47.267105 63713 net.cpp:381] lstm1_gate_input_15 <- W_hc_h_14
I0123 21:07:47.267117 63713 net.cpp:381] lstm1_gate_input_15 <- W_xc_x_15
I0123 21:07:47.267130 63713 net.cpp:339] lstm1_gate_input_15 -> gate_input_15
I0123 21:07:47.267146 63713 net.cpp:113] Setting up lstm1_gate_input_15
I0123 21:07:47.267161 63713 net.cpp:120] Top shape: 1 8 1024 (8192)
I0123 21:07:47.267168 63713 layer_factory.hpp:74] Creating layer lstm1_unit_15
I0123 21:07:47.267189 63713 net.cpp:84] Creating Layer lstm1_unit_15
I0123 21:07:47.267199 63713 net.cpp:381] lstm1_unit_15 <- c_14
I0123 21:07:47.267210 63713 net.cpp:381] lstm1_unit_15 <- gate_input_15
I0123 21:07:47.267220 63713 net.cpp:381] lstm1_unit_15 <- cont_15_lstm1_cont_slice_14_split_1
I0123 21:07:47.267235 63713 net.cpp:339] lstm1_unit_15 -> c_15
I0123 21:07:47.267251 63713 net.cpp:339] lstm1_unit_15 -> h_15
I0123 21:07:47.267263 63713 net.cpp:113] Setting up lstm1_unit_15
I0123 21:07:47.267279 63713 net.cpp:120] Top shape: 1 8 256 (2048)
I0123 21:07:47.267290 63713 net.cpp:120] Top shape: 1 8 256 (2048)
I0123 21:07:47.267297 63713 layer_factory.hpp:74] Creating layer h_15_lstm1_unit_15_1_split
I0123 21:07:47.267309 63713 net.cpp:84] Creating Layer h_15_lstm1_unit_15_1_split
I0123 21:07:47.267318 63713 net.cpp:381] h_15_lstm1_unit_15_1_split <- h_15
I0123 21:07:47.267330 63713 net.cpp:339] h_15_lstm1_unit_15_1_split -> h_15_lstm1_unit_15_1_split_0
I0123 21:07:47.267346 63713 net.cpp:339] h_15_lstm1_unit_15_1_split -> h_15_lstm1_unit_15_1_split_1
I0123 21:07:47.267360 63713 net.cpp:113] Setting up h_15_lstm1_unit_15_1_split
I0123 21:07:47.267381 63713 net.cpp:120] Top shape: 1 8 256 (2048)
I0123 21:07:47.267393 63713 net.cpp:120] Top shape: 1 8 256 (2048)
I0123 21:07:47.267401 63713 layer_factory.hpp:74] Creating layer lstm1_h_conted_15
I0123 21:07:47.267412 63713 net.cpp:84] Creating Layer lstm1_h_conted_15
I0123 21:07:47.267421 63713 net.cpp:381] lstm1_h_conted_15 <- h_15_lstm1_unit_15_1_split_0
I0123 21:07:47.267432 63713 net.cpp:381] lstm1_h_conted_15 <- cont_16_lstm1_cont_slice_15_split_0
I0123 21:07:47.267446 63713 net.cpp:339] lstm1_h_conted_15 -> h_conted_15
I0123 21:07:47.267459 63713 net.cpp:113] Setting up lstm1_h_conted_15
I0123 21:07:47.267473 63713 net.cpp:120] Top shape: 1 8 256 (2048)
I0123 21:07:47.267482 63713 layer_factory.hpp:74] Creating layer lstm1_transform_16
I0123 21:07:47.267495 63713 net.cpp:84] Creating Layer lstm1_transform_16
I0123 21:07:47.267504 63713 net.cpp:381] lstm1_transform_16 <- h_conted_15
I0123 21:07:47.267524 63713 net.cpp:339] lstm1_transform_16 -> W_hc_h_15
I0123 21:07:47.267539 63713 net.cpp:113] Setting up lstm1_transform_16
I0123 21:07:47.272943 63713 net.cpp:120] Top shape: 1 8 1024 (8192)
I0123 21:07:47.272974 63713 net.cpp:425] Sharing parameters 'W_hc' owned by layer 'lstm1_transform_1', param index 0
I0123 21:07:47.272984 63713 layer_factory.hpp:74] Creating layer lstm1_gate_input_16
I0123 21:07:47.272999 63713 net.cpp:84] Creating Layer lstm1_gate_input_16
I0123 21:07:47.273008 63713 net.cpp:381] lstm1_gate_input_16 <- W_hc_h_15
I0123 21:07:47.273020 63713 net.cpp:381] lstm1_gate_input_16 <- W_xc_x_16
I0123 21:07:47.273032 63713 net.cpp:339] lstm1_gate_input_16 -> gate_input_16
I0123 21:07:47.273047 63713 net.cpp:113] Setting up lstm1_gate_input_16
I0123 21:07:47.273061 63713 net.cpp:120] Top shape: 1 8 1024 (8192)
I0123 21:07:47.273069 63713 layer_factory.hpp:74] Creating layer lstm1_unit_16
I0123 21:07:47.273080 63713 net.cpp:84] Creating Layer lstm1_unit_16
I0123 21:07:47.273089 63713 net.cpp:381] lstm1_unit_16 <- c_15
I0123 21:07:47.273100 63713 net.cpp:381] lstm1_unit_16 <- gate_input_16
I0123 21:07:47.273110 63713 net.cpp:381] lstm1_unit_16 <- cont_16_lstm1_cont_slice_15_split_1
I0123 21:07:47.273129 63713 net.cpp:339] lstm1_unit_16 -> c_16
I0123 21:07:47.273149 63713 net.cpp:339] lstm1_unit_16 -> h_16
I0123 21:07:47.273164 63713 net.cpp:113] Setting up lstm1_unit_16
I0123 21:07:47.273177 63713 net.cpp:120] Top shape: 1 8 256 (2048)
I0123 21:07:47.273187 63713 net.cpp:120] Top shape: 1 8 256 (2048)
I0123 21:07:47.273195 63713 layer_factory.hpp:74] Creating layer h_16_lstm1_unit_16_1_split
I0123 21:07:47.273207 63713 net.cpp:84] Creating Layer h_16_lstm1_unit_16_1_split
I0123 21:07:47.273216 63713 net.cpp:381] h_16_lstm1_unit_16_1_split <- h_16
I0123 21:07:47.273228 63713 net.cpp:339] h_16_lstm1_unit_16_1_split -> h_16_lstm1_unit_16_1_split_0
I0123 21:07:47.273244 63713 net.cpp:339] h_16_lstm1_unit_16_1_split -> h_16_lstm1_unit_16_1_split_1
I0123 21:07:47.273258 63713 net.cpp:113] Setting up h_16_lstm1_unit_16_1_split
I0123 21:07:47.273272 63713 net.cpp:120] Top shape: 1 8 256 (2048)
I0123 21:07:47.273281 63713 net.cpp:120] Top shape: 1 8 256 (2048)
I0123 21:07:47.273288 63713 layer_factory.hpp:74] Creating layer lstm1_h_conted_16
I0123 21:07:47.273305 63713 net.cpp:84] Creating Layer lstm1_h_conted_16
I0123 21:07:47.273316 63713 net.cpp:381] lstm1_h_conted_16 <- h_16_lstm1_unit_16_1_split_0
I0123 21:07:47.273327 63713 net.cpp:381] lstm1_h_conted_16 <- cont_17_lstm1_cont_slice_16_split_0
I0123 21:07:47.273340 63713 net.cpp:339] lstm1_h_conted_16 -> h_conted_16
I0123 21:07:47.273355 63713 net.cpp:113] Setting up lstm1_h_conted_16
I0123 21:07:47.273367 63713 net.cpp:120] Top shape: 1 8 256 (2048)
I0123 21:07:47.273375 63713 layer_factory.hpp:74] Creating layer lstm1_transform_17
I0123 21:07:47.273389 63713 net.cpp:84] Creating Layer lstm1_transform_17
I0123 21:07:47.273398 63713 net.cpp:381] lstm1_transform_17 <- h_conted_16
I0123 21:07:47.273417 63713 net.cpp:339] lstm1_transform_17 -> W_hc_h_16
I0123 21:07:47.273434 63713 net.cpp:113] Setting up lstm1_transform_17
I0123 21:07:47.278794 63713 net.cpp:120] Top shape: 1 8 1024 (8192)
I0123 21:07:47.278833 63713 net.cpp:425] Sharing parameters 'W_hc' owned by layer 'lstm1_transform_1', param index 0
I0123 21:07:47.278846 63713 layer_factory.hpp:74] Creating layer lstm1_gate_input_17
I0123 21:07:47.278862 63713 net.cpp:84] Creating Layer lstm1_gate_input_17
I0123 21:07:47.278873 63713 net.cpp:381] lstm1_gate_input_17 <- W_hc_h_16
I0123 21:07:47.278887 63713 net.cpp:381] lstm1_gate_input_17 <- W_xc_x_17
I0123 21:07:47.278900 63713 net.cpp:339] lstm1_gate_input_17 -> gate_input_17
I0123 21:07:47.278918 63713 net.cpp:113] Setting up lstm1_gate_input_17
I0123 21:07:47.278934 63713 net.cpp:120] Top shape: 1 8 1024 (8192)
I0123 21:07:47.278941 63713 layer_factory.hpp:74] Creating layer lstm1_unit_17
I0123 21:07:47.278954 63713 net.cpp:84] Creating Layer lstm1_unit_17
I0123 21:07:47.278962 63713 net.cpp:381] lstm1_unit_17 <- c_16
I0123 21:07:47.278972 63713 net.cpp:381] lstm1_unit_17 <- gate_input_17
I0123 21:07:47.278983 63713 net.cpp:381] lstm1_unit_17 <- cont_17_lstm1_cont_slice_16_split_1
I0123 21:07:47.279003 63713 net.cpp:339] lstm1_unit_17 -> c_17
I0123 21:07:47.279022 63713 net.cpp:339] lstm1_unit_17 -> h_17
I0123 21:07:47.279036 63713 net.cpp:113] Setting up lstm1_unit_17
I0123 21:07:47.279052 63713 net.cpp:120] Top shape: 1 8 256 (2048)
I0123 21:07:47.279062 63713 net.cpp:120] Top shape: 1 8 256 (2048)
I0123 21:07:47.279069 63713 layer_factory.hpp:74] Creating layer h_17_lstm1_unit_17_1_split
I0123 21:07:47.279081 63713 net.cpp:84] Creating Layer h_17_lstm1_unit_17_1_split
I0123 21:07:47.279090 63713 net.cpp:381] h_17_lstm1_unit_17_1_split <- h_17
I0123 21:07:47.279101 63713 net.cpp:339] h_17_lstm1_unit_17_1_split -> h_17_lstm1_unit_17_1_split_0
I0123 21:07:47.279119 63713 net.cpp:339] h_17_lstm1_unit_17_1_split -> h_17_lstm1_unit_17_1_split_1
I0123 21:07:47.279131 63713 net.cpp:113] Setting up h_17_lstm1_unit_17_1_split
I0123 21:07:47.279145 63713 net.cpp:120] Top shape: 1 8 256 (2048)
I0123 21:07:47.279155 63713 net.cpp:120] Top shape: 1 8 256 (2048)
I0123 21:07:47.279162 63713 layer_factory.hpp:74] Creating layer lstm1_h_conted_17
I0123 21:07:47.279181 63713 net.cpp:84] Creating Layer lstm1_h_conted_17
I0123 21:07:47.279192 63713 net.cpp:381] lstm1_h_conted_17 <- h_17_lstm1_unit_17_1_split_0
I0123 21:07:47.279202 63713 net.cpp:381] lstm1_h_conted_17 <- cont_18_lstm1_cont_slice_17_split_0
I0123 21:07:47.279217 63713 net.cpp:339] lstm1_h_conted_17 -> h_conted_17
I0123 21:07:47.279230 63713 net.cpp:113] Setting up lstm1_h_conted_17
I0123 21:07:47.279244 63713 net.cpp:120] Top shape: 1 8 256 (2048)
I0123 21:07:47.279251 63713 layer_factory.hpp:74] Creating layer lstm1_transform_18
I0123 21:07:47.279268 63713 net.cpp:84] Creating Layer lstm1_transform_18
I0123 21:07:47.279275 63713 net.cpp:381] lstm1_transform_18 <- h_conted_17
I0123 21:07:47.279289 63713 net.cpp:339] lstm1_transform_18 -> W_hc_h_17
I0123 21:07:47.279309 63713 net.cpp:113] Setting up lstm1_transform_18
I0123 21:07:47.284704 63713 net.cpp:120] Top shape: 1 8 1024 (8192)
I0123 21:07:47.284734 63713 net.cpp:425] Sharing parameters 'W_hc' owned by layer 'lstm1_transform_1', param index 0
I0123 21:07:47.284745 63713 layer_factory.hpp:74] Creating layer lstm1_gate_input_18
I0123 21:07:47.284759 63713 net.cpp:84] Creating Layer lstm1_gate_input_18
I0123 21:07:47.284770 63713 net.cpp:381] lstm1_gate_input_18 <- W_hc_h_17
I0123 21:07:47.284781 63713 net.cpp:381] lstm1_gate_input_18 <- W_xc_x_18
I0123 21:07:47.284795 63713 net.cpp:339] lstm1_gate_input_18 -> gate_input_18
I0123 21:07:47.284822 63713 net.cpp:113] Setting up lstm1_gate_input_18
I0123 21:07:47.284842 63713 net.cpp:120] Top shape: 1 8 1024 (8192)
I0123 21:07:47.284852 63713 layer_factory.hpp:74] Creating layer lstm1_unit_18
I0123 21:07:47.284863 63713 net.cpp:84] Creating Layer lstm1_unit_18
I0123 21:07:47.284871 63713 net.cpp:381] lstm1_unit_18 <- c_17
I0123 21:07:47.284883 63713 net.cpp:381] lstm1_unit_18 <- gate_input_18
I0123 21:07:47.284893 63713 net.cpp:381] lstm1_unit_18 <- cont_18_lstm1_cont_slice_17_split_1
I0123 21:07:47.284904 63713 net.cpp:339] lstm1_unit_18 -> c_18
I0123 21:07:47.284919 63713 net.cpp:339] lstm1_unit_18 -> h_18
I0123 21:07:47.284947 63713 net.cpp:113] Setting up lstm1_unit_18
I0123 21:07:47.284968 63713 net.cpp:120] Top shape: 1 8 256 (2048)
I0123 21:07:47.284983 63713 net.cpp:120] Top shape: 1 8 256 (2048)
I0123 21:07:47.284991 63713 layer_factory.hpp:74] Creating layer lstm1_
I0123 21:07:47.285002 63713 net.cpp:84] Creating Layer lstm1_
I0123 21:07:47.285009 63713 net.cpp:381] lstm1_ <- c_18
I0123 21:07:47.285022 63713 net.cpp:339] lstm1_ -> c_T
I0123 21:07:47.285043 63713 net.cpp:113] Setting up lstm1_
I0123 21:07:47.285056 63713 net.cpp:120] Top shape: 1 8 256 (2048)
I0123 21:07:47.285063 63713 layer_factory.hpp:74] Creating layer lstm1_h_concat
I0123 21:07:47.285087 63713 net.cpp:84] Creating Layer lstm1_h_concat
I0123 21:07:47.285101 63713 net.cpp:381] lstm1_h_concat <- h_1_lstm1_unit_1_1_split_1
I0123 21:07:47.285114 63713 net.cpp:381] lstm1_h_concat <- h_2_lstm1_unit_2_1_split_1
I0123 21:07:47.285123 63713 net.cpp:381] lstm1_h_concat <- h_3_lstm1_unit_3_1_split_1
…
I0123 21:07:47.286164 63713 net.cpp:205] This network produces output c_T
I0123 21:07:47.286190 63713 net.cpp:205] This network produces output h
I0123 21:07:47.286499 63713 net.cpp:446] Collecting Learning Rate and Weight Decay.
I0123 21:07:47.288028 63713 net.cpp:218] Network initialization done.
I0123 21:07:47.288069 63713 net.cpp:219] Memory required for data: 3237568
I0123 21:07:47.288491 63713 recurrent_layer.cpp:135] Adding parameter 0: W_xc
I0123 21:07:47.288513 63713 recurrent_layer.cpp:135] Adding parameter 1: b_c
I0123 21:07:47.288522 63713 recurrent_layer.cpp:135] Adding parameter 2: W_hc
I0123 21:07:47.288666 63713 net.cpp:120] Top shape: 18 8 256 (36864)
I0123 21:07:47.288712 63713 layer_factory.hpp:74] Creating layer lstm1-drop
I0123 21:07:47.288733 63713 net.cpp:84] Creating Layer lstm1-drop
I0123 21:07:47.288743 63713 net.cpp:381] lstm1-drop <- lstm1
I0123 21:07:47.288758 63713 net.cpp:339] lstm1-drop -> lstm1-drop
I0123 21:07:47.288774 63713 net.cpp:113] Setting up lstm1-drop
I0123 21:07:47.288791 63713 net.cpp:120] Top shape: 18 8 256 (36864)
I0123 21:07:47.288801 63713 layer_factory.hpp:74] Creating layer fc8-final
I0123 21:07:47.288818 63713 net.cpp:84] Creating Layer fc8-final
I0123 21:07:47.288827 63713 net.cpp:381] fc8-final <- lstm1-drop
I0123 21:07:47.288842 63713 net.cpp:339] fc8-final -> fc8-final
I0123 21:07:47.288858 63713 net.cpp:113] Setting up fc8-final
I0123 21:07:47.288913 63713 net.cpp:120] Top shape: 18 8 3 (432)
I0123 21:07:47.288935 63713 layer_factory.hpp:74] Creating layer fc8-final_fc8-final_0_split
I0123 21:07:47.288950 63713 net.cpp:84] Creating Layer fc8-final_fc8-final_0_split
I0123 21:07:47.288959 63713 net.cpp:381] fc8-final_fc8-final_0_split <- fc8-final
I0123 21:07:47.288972 63713 net.cpp:339] fc8-final_fc8-final_0_split -> fc8-final_fc8-final_0_split_0
I0123 21:07:47.288990 63713 net.cpp:339] fc8-final_fc8-final_0_split -> fc8-final_fc8-final_0_split_1
I0123 21:07:47.289005 63713 net.cpp:113] Setting up fc8-final_fc8-final_0_split
I0123 21:07:47.289021 63713 net.cpp:120] Top shape: 18 8 3 (432)
I0123 21:07:47.289031 63713 net.cpp:120] Top shape: 18 8 3 (432)
I0123 21:07:47.289038 63713 layer_factory.hpp:74] Creating layer loss
I0123 21:07:47.289052 63713 net.cpp:84] Creating Layer loss
I0123 21:07:47.289060 63713 net.cpp:381] loss <- fc8-final_fc8-final_0_split_0
I0123 21:07:47.289072 63713 net.cpp:381] loss <- reshape-label_reshape-label_0_split_0
I0123 21:07:47.289084 63713 net.cpp:339] loss -> loss
I0123 21:07:47.289103 63713 net.cpp:113] Setting up loss
…
