…
I0130 17:57:24.247661 57854 net.cpp:258] The NetState phase (0) differed from the phase (1) specified by a rule in layer reshape-cm
I0130 17:57:24.247889 57854 net.cpp:42] Initializing net from parameters: 
name: "lstm_joints"
state {
  phase: TRAIN
}
layer {
  name: "data"
  type: "Python"
  top: "data"
  top: "label"
  top: "clip_markers"
  include {
    phase: TRAIN
  }
  python_param {
    module: "image_input_layer"
    layer: "videoReadTrain_RGB"
  }
}
layer {
  name: "data2"
  type: "Python"
  top: "data2"
  include {
    phase: TRAIN
  }
  python_param {
    module: "audio_input_layer"
    layer: "audioReadTrain_RGB"
  }
}
layer {
  name: "conv1_l"
  type: "Convolution"
  bottom: "data"
  top: "conv1_l"
  param {
    lr_mult: 1
    decay_mult: 1
  }
  param {
    lr_mult: 2
    decay_mult: 0
  }
  convolution_param {
    num_output: 96
    kernel_size: 11
    stride: 4
    weight_filler {
      type: "gaussian"
      std: 0.01
    }
    bias_filler {
      type: "constant"
      value: 0.1
    }
  }
}
layer {
  name: "relu1_l"
  type: "ReLU"
  bottom: "conv1_l"
  top: "conv1_l"
}
layer {
  name: "pool1_l"
  type: "Pooling"
  bottom: "conv1_l"
  top: "pool1_l"
  pooling_param {
    pool: MAX
    kernel_size: 3
    stride: 2
  }
}
layer {
  name: "norm1_l"
  type: "LRN"
  bottom: "pool1_l"
  top: "norm1_l"
  lrn_param {
    local_size: 5
    alpha: 0.0001
    beta: 0.75
  }
}
layer {
  name: "conv2_l"
  type: "Convolution"
  bottom: "norm1_l"
  top: "conv2_l"
  param {
    lr_mult: 1
    decay_mult: 1
  }
  param {
    lr_mult: 2
    decay_mult: 0
  }
  convolution_param {
    num_output: 256
    pad: 2
    kernel_size: 5
    group: 2
    weight_filler {
      type: "gaussian"
      std: 0.01
    }
    bias_filler {
      type: "constant"
      value: 1
    }
  }
}
layer {
  name: "relu2_l"
  type: "ReLU"
  bottom: "conv2_l"
  top: "conv2_l"
}
layer {
  name: "pool2_l"
  type: "Pooling"
  bottom: "conv2_l"
  top: "pool2_l"
  pooling_param {
    pool: MAX
    kernel_size: 3
    stride: 2
  }
}
layer {
  name: "norm2_l"
  type: "LRN"
  bottom: "pool2_l"
  top: "norm2_l"
  lrn_param {
    local_size: 5
    alpha: 0.0001
    beta: 0.75
  }
}
layer {
  name: "fc6_l"
  type: "InnerProduct"
  bottom: "norm2_l"
  top: "fc6_l"
  param {
    lr_mult: 1
    decay_mult: 1
  }
  param {
    lr_mult: 2
    decay_mult: 0
  }
  inner_product_param {
    num_output: 4096
    weight_filler {
      type: "gaussian"
      std: 0.005
    }
    bias_filler {
      type: "constant"
      value: 1
    }
  }
}
layer {
  name: "relu6_l"
  type: "ReLU"
  bottom: "fc6_l"
  top: "fc6_l"
}
layer {
  name: "drop6_l"
  type: "Dropout"
  bottom: "fc6_l"
  top: "fc6_l"
  dropout_param {
    dropout_ratio: 0.9
  }
}
layer {
  name: "conv1_r"
  type: "Convolution"
  bottom: "data2"
  top: "conv1_r"
  param {
    lr_mult: 1
    decay_mult: 1
  }
  param {
    lr_mult: 2
    decay_mult: 0
  }
  convolution_param {
    num_output: 96
    kernel_size: 11
    stride: 4
    weight_filler {
      type: "gaussian"
      std: 0.01
    }
    bias_filler {
      type: "constant"
      value: 0.1
    }
  }
}
layer {
  name: "relu1_r"
  type: "ReLU"
  bottom: "conv1_r"
  top: "conv1_r"
}
layer {
  name: "pool1_r"
  type: "Pooling"
  bottom: "conv1_r"
  top: "pool1_r"
  pooling_param {
    pool: MAX
    kernel_size: 3
    stride: 2
  }
}
layer {
  name: "norm1_r"
  type: "LRN"
  bottom: "pool1_r"
  top: "norm1_r"
  lrn_param {
    local_size: 5
    alpha: 0.0001
    beta: 0.75
  }
}
layer {
  name: "conv2_r"
  type: "Convolution"
  bottom: "norm1_r"
  top: "conv2_r"
  param {
    lr_mult: 1
    decay_mult: 1
  }
  param {
    lr_mult: 2
    decay_mult: 0
  }
  convolution_param {
    num_output: 256
    pad: 2
    kernel_size: 5
    group: 2
    weight_filler {
      type: "gaussian"
      std: 0.01
    }
    bias_filler {
      type: "constant"
      value: 1
    }
  }
}
layer {
  name: "relu2_r"
  type: "ReLU"
  bottom: "conv2_r"
  top: "conv2_r"
}
layer {
  name: "pool2_r"
  type: "Pooling"
  bottom: "conv2_r"
  top: "pool2_r"
  pooling_param {
    pool: MAX
    kernel_size: 3
    stride: 2
  }
}
layer {
  name: "norm2_r"
  type: "LRN"
  bottom: "pool2_r"
  top: "norm2_r"
  lrn_param {
    local_size: 5
    alpha: 0.0001
    beta: 0.75
  }
}
layer {
  name: "fc6_r"
  type: "InnerProduct"
  bottom: "norm2_r"
  top: "fc6_r"
  param {
    lr_mult: 1
    decay_mult: 1
  }
  param {
    lr_mult: 2
    decay_mult: 0
  }
  inner_product_param {
    num_output: 4096
    weight_filler {
      type: "gaussian"
      std: 0.005
    }
    bias_filler {
      type: "constant"
      value: 1
    }
  }
}
layer {
  name: "relu6_r"
  type: "ReLU"
  bottom: "fc6_r"
  top: "fc6_r"
}
layer {
  name: "drop6_r"
  type: "Dropout"
  bottom: "fc6_r"
  top: "fc6_r"
  dropout_param {
    dropout_ratio: 0.9
  }
}
layer {
  name: "fusion_point"
  type: "Concat"
  bottom: "fc6_l"
  bottom: "fc6_r"
  top: "fusion_point"
  concat_param {
    axis: 1
  }
}
layer {
  name: "fc1_fusionA"
  type: "InnerProduct"
  bottom: "fusion_point"
  top: "fc1_fusionA"
  param {
    lr_mult: 1
    decay_mult: 1
  }
  param {
    lr_mult: 2
    decay_mult: 0
  }
  inner_product_param {
    num_output: 4096
    weight_filler {
      type: "gaussian"
      std: 0.01
    }
    bias_filler {
      type: "constant"
      value: 0.1
    }
  }
}
layer {
  name: "relu1_fusionA"
  type: "ReLU"
  bottom: "fc1_fusionA"
  top: "fc1_fusionA"
}
layer {
  name: "drop1_fusionA"
  type: "Dropout"
  bottom: "fc1_fusionA"
  top: "fc1_fusionA"
  dropout_param {
    dropout_ratio: 0.9
  }
}
layer {
  name: "reshape-data"
  type: "Reshape"
  bottom: "fc1_fusionA"
  top: "fc6-reshape"
  include {
    phase: TRAIN
  }
  reshape_param {
    shape {
      dim: 18
      dim: 8
      dim: 4096
    }
  }
}
layer {
  name: "reshape-label"
  type: "Reshape"
  bottom: "label"
  top: "reshape-label"
  include {
    phase: TRAIN
  }
  reshape_param {
    shape {
      dim: 18
      dim: 8
    }
  }
}
layer {
  name: "reshape-cm"
  type: "Reshape"
  bottom: "clip_markers"
  top: "reshape-cm"
  include {
    phase: TRAIN
  }
  reshape_param {
    shape {
      dim: 18
      dim: 8
    }
  }
}
layer {
  name: "lstm1"
  type: "LSTM"
  bottom: "fc6-reshape"
  bottom: "reshape-cm"
  top: "lstm1"
  recurrent_param {
    num_output: 256
    weight_filler {
      type: "uniform"
      min: -0.01
      max: 0.01
    }
    bias_filler {
      type: "constant"
      value: 0
    }
  }
}
layer {
  name: "lstm1-drop"
  type: "Dropout"
  bottom: "lstm1"
  top: "lstm1-drop"
  dropout_param {
    dropout_ratio: 0.5
  }
}
layer {
  name: "fc8-final"
  type: "InnerProduct"
  bottom: "lstm1-drop"
  top: "fc8-final"
  param {
    lr_mult: 10
    decay_mult: 1
  }
  param {
    lr_mult: 20
    decay_mult: 0
  }
  inner_product_param {
    num_output: 3
    weight_filler {
      type: "gaussian"
      std: 0.01
    }
    bias_filler {
      type: "constant"
      value: 0
    }
    axis: 2
  }
}
layer {
  name: "loss"
  type: "SoftmaxWithLoss"
  bottom: "fc8-final"
  bottom: "reshape-label"
  top: "loss"
  softmax_param {
    axis: 2
  }
}
layer {
  name: "accuracy"
  type: "Accuracy"
  bottom: "fc8-final"
  bottom: "reshape-label"
  top: "accuracy"
  accuracy_param {
    axis: 2
  }
}
I0130 17:57:24.248126 57854 layer_factory.hpp:74] Creating layer data
I0130 17:57:25.585127 57854 net.cpp:84] Creating Layer data
I0130 17:57:25.585172 57854 net.cpp:339] data -> data
I0130 17:57:25.585202 57854 net.cpp:339] data -> label
I0130 17:57:25.585219 57854 net.cpp:339] data -> clip_markers
I0130 17:57:25.585230 57854 net.cpp:113] Setting up data
I0130 17:57:30.839649 57854 net.cpp:120] Top shape: 144 3 227 227 (22260528)
I0130 17:57:30.839691 57854 net.cpp:120] Top shape: 144 (144)
I0130 17:57:30.839696 57854 net.cpp:120] Top shape: 144 (144)
I0130 17:57:30.839707 57854 layer_factory.hpp:74] Creating layer data2
I0130 17:57:30.842989 57854 net.cpp:84] Creating Layer data2
I0130 17:57:30.843010 57854 net.cpp:339] data2 -> data2
I0130 17:57:30.843024 57854 net.cpp:113] Setting up data2
Outputs: ['data', 'label', 'clip_markers']
I0130 17:57:35.345053 57854 net.cpp:120] Top shape: 144 3 227 227 (22260528)
I0130 17:57:35.345118 57854 layer_factory.hpp:74] Creating layer conv1_l
I0130 17:57:35.345155 57854 net.cpp:84] Creating Layer conv1_l
I0130 17:57:35.345176 57854 net.cpp:381] conv1_l <- data
I0130 17:57:35.345233 57854 net.cpp:339] conv1_l -> conv1_l
I0130 17:57:35.345289 57854 net.cpp:113] Setting up conv1_l
I0130 17:57:35.346321 57854 net.cpp:120] Top shape: 144 96 55 55 (41817600)
I0130 17:57:35.346356 57854 layer_factory.hpp:74] Creating layer relu1_l
I0130 17:57:35.346375 57854 net.cpp:84] Creating Layer relu1_l
I0130 17:57:35.346385 57854 net.cpp:381] relu1_l <- conv1_l
I0130 17:57:35.346397 57854 net.cpp:328] relu1_l -> conv1_l (in-place)
I0130 17:57:35.346420 57854 net.cpp:113] Setting up relu1_l
I0130 17:57:35.346436 57854 net.cpp:120] Top shape: 144 96 55 55 (41817600)
I0130 17:57:35.346446 57854 layer_factory.hpp:74] Creating layer pool1_l
I0130 17:57:35.346465 57854 net.cpp:84] Creating Layer pool1_l
I0130 17:57:35.346475 57854 net.cpp:381] pool1_l <- conv1_l
I0130 17:57:35.346487 57854 net.cpp:339] pool1_l -> pool1_l
I0130 17:57:35.346503 57854 net.cpp:113] Setting up pool1_l
I0130 17:57:35.346544 57854 net.cpp:120] Top shape: 144 96 27 27 (10077696)
I0130 17:57:35.346566 57854 layer_factory.hpp:74] Creating layer norm1_l
I0130 17:57:35.346581 57854 net.cpp:84] Creating Layer norm1_l
I0130 17:57:35.346591 57854 net.cpp:381] norm1_l <- pool1_l
I0130 17:57:35.346602 57854 net.cpp:339] norm1_l -> norm1_l
I0130 17:57:35.346626 57854 net.cpp:113] Setting up norm1_l
I0130 17:57:35.346643 57854 net.cpp:120] Top shape: 144 96 27 27 (10077696)
I0130 17:57:35.346652 57854 layer_factory.hpp:74] Creating layer conv2_l
I0130 17:57:35.346674 57854 net.cpp:84] Creating Layer conv2_l
I0130 17:57:35.346683 57854 net.cpp:381] conv2_l <- norm1_l
I0130 17:57:35.346711 57854 net.cpp:339] conv2_l -> conv2_l
I0130 17:57:35.346727 57854 net.cpp:113] Setting up conv2_l
I0130 17:57:35.353940 57854 net.cpp:120] Top shape: 144 256 27 27 (26873856)
I0130 17:57:35.353972 57854 layer_factory.hpp:74] Creating layer relu2_l
I0130 17:57:35.353986 57854 net.cpp:84] Creating Layer relu2_l
I0130 17:57:35.353992 57854 net.cpp:381] relu2_l <- conv2_l
I0130 17:57:35.354001 57854 net.cpp:328] relu2_l -> conv2_l (in-place)
I0130 17:57:35.354010 57854 net.cpp:113] Setting up relu2_l
I0130 17:57:35.354023 57854 net.cpp:120] Top shape: 144 256 27 27 (26873856)
I0130 17:57:35.354029 57854 layer_factory.hpp:74] Creating layer pool2_l
I0130 17:57:35.354043 57854 net.cpp:84] Creating Layer pool2_l
I0130 17:57:35.354050 57854 net.cpp:381] pool2_l <- conv2_l
I0130 17:57:35.354060 57854 net.cpp:339] pool2_l -> pool2_l
I0130 17:57:35.354074 57854 net.cpp:113] Setting up pool2_l
I0130 17:57:35.354095 57854 net.cpp:120] Top shape: 144 256 13 13 (6230016)
I0130 17:57:35.354116 57854 layer_factory.hpp:74] Creating layer norm2_l
I0130 17:57:35.354130 57854 net.cpp:84] Creating Layer norm2_l
I0130 17:57:35.354136 57854 net.cpp:381] norm2_l <- pool2_l
I0130 17:57:35.354147 57854 net.cpp:339] norm2_l -> norm2_l
I0130 17:57:35.354159 57854 net.cpp:113] Setting up norm2_l
I0130 17:57:35.354176 57854 net.cpp:120] Top shape: 144 256 13 13 (6230016)
I0130 17:57:35.354184 57854 layer_factory.hpp:74] Creating layer fc6_l
I0130 17:57:35.354197 57854 net.cpp:84] Creating Layer fc6_l
I0130 17:57:35.354205 57854 net.cpp:381] fc6_l <- norm2_l
I0130 17:57:35.354218 57854 net.cpp:339] fc6_l -> fc6_l
I0130 17:57:35.354240 57854 net.cpp:113] Setting up fc6_l
I0130 17:57:37.932539 57854 net.cpp:120] Top shape: 144 4096 (589824)
I0130 17:57:37.932584 57854 layer_factory.hpp:74] Creating layer relu6_l
I0130 17:57:37.932600 57854 net.cpp:84] Creating Layer relu6_l
I0130 17:57:37.932607 57854 net.cpp:381] relu6_l <- fc6_l
I0130 17:57:37.932626 57854 net.cpp:328] relu6_l -> fc6_l (in-place)
I0130 17:57:37.932641 57854 net.cpp:113] Setting up relu6_l
I0130 17:57:37.932656 57854 net.cpp:120] Top shape: 144 4096 (589824)
I0130 17:57:37.932664 57854 layer_factory.hpp:74] Creating layer drop6_l
I0130 17:57:37.932685 57854 net.cpp:84] Creating Layer drop6_l
I0130 17:57:37.932700 57854 net.cpp:381] drop6_l <- fc6_l
I0130 17:57:37.932711 57854 net.cpp:328] drop6_l -> fc6_l (in-place)
I0130 17:57:37.932735 57854 net.cpp:113] Setting up drop6_l
I0130 17:57:37.932754 57854 net.cpp:120] Top shape: 144 4096 (589824)
I0130 17:57:37.932767 57854 layer_factory.hpp:74] Creating layer conv1_r
I0130 17:57:37.932783 57854 net.cpp:84] Creating Layer conv1_r
I0130 17:57:37.932791 57854 net.cpp:381] conv1_r <- data2
I0130 17:57:37.932804 57854 net.cpp:339] conv1_r -> conv1_r
I0130 17:57:37.932821 57854 net.cpp:113] Setting up conv1_r
I0130 17:57:37.933378 57854 net.cpp:120] Top shape: 144 96 55 55 (41817600)
I0130 17:57:37.933395 57854 layer_factory.hpp:74] Creating layer relu1_r
I0130 17:57:37.933408 57854 net.cpp:84] Creating Layer relu1_r
I0130 17:57:37.933418 57854 net.cpp:381] relu1_r <- conv1_r
I0130 17:57:37.933429 57854 net.cpp:328] relu1_r -> conv1_r (in-place)
I0130 17:57:37.933459 57854 net.cpp:113] Setting up relu1_r
I0130 17:57:37.933471 57854 net.cpp:120] Top shape: 144 96 55 55 (41817600)
I0130 17:57:37.933480 57854 layer_factory.hpp:74] Creating layer pool1_r
I0130 17:57:37.933491 57854 net.cpp:84] Creating Layer pool1_r
I0130 17:57:37.933501 57854 net.cpp:381] pool1_r <- conv1_r
I0130 17:57:37.933511 57854 net.cpp:339] pool1_r -> pool1_r
I0130 17:57:37.933531 57854 net.cpp:113] Setting up pool1_r
I0130 17:57:37.933548 57854 net.cpp:120] Top shape: 144 96 27 27 (10077696)
I0130 17:57:37.933557 57854 layer_factory.hpp:74] Creating layer norm1_r
I0130 17:57:37.933578 57854 net.cpp:84] Creating Layer norm1_r
I0130 17:57:37.933586 57854 net.cpp:381] norm1_r <- pool1_r
I0130 17:57:37.933598 57854 net.cpp:339] norm1_r -> norm1_r
I0130 17:57:37.933612 57854 net.cpp:113] Setting up norm1_r
I0130 17:57:37.933629 57854 net.cpp:120] Top shape: 144 96 27 27 (10077696)
I0130 17:57:37.933637 57854 layer_factory.hpp:74] Creating layer conv2_r
I0130 17:57:37.933655 57854 net.cpp:84] Creating Layer conv2_r
I0130 17:57:37.933662 57854 net.cpp:381] conv2_r <- norm1_r
I0130 17:57:37.933674 57854 net.cpp:339] conv2_r -> conv2_r
I0130 17:57:37.933688 57854 net.cpp:113] Setting up conv2_r
I0130 17:57:37.939115 57854 net.cpp:120] Top shape: 144 256 27 27 (26873856)
I0130 17:57:37.939152 57854 layer_factory.hpp:74] Creating layer relu2_r
I0130 17:57:37.939165 57854 net.cpp:84] Creating Layer relu2_r
I0130 17:57:37.939174 57854 net.cpp:381] relu2_r <- conv2_r
I0130 17:57:37.939187 57854 net.cpp:328] relu2_r -> conv2_r (in-place)
I0130 17:57:37.939198 57854 net.cpp:113] Setting up relu2_r
I0130 17:57:37.939213 57854 net.cpp:120] Top shape: 144 256 27 27 (26873856)
I0130 17:57:37.939221 57854 layer_factory.hpp:74] Creating layer pool2_r
I0130 17:57:37.939231 57854 net.cpp:84] Creating Layer pool2_r
I0130 17:57:37.939241 57854 net.cpp:381] pool2_r <- conv2_r
I0130 17:57:37.939251 57854 net.cpp:339] pool2_r -> pool2_r
I0130 17:57:37.939265 57854 net.cpp:113] Setting up pool2_r
I0130 17:57:37.939285 57854 net.cpp:120] Top shape: 144 256 13 13 (6230016)
I0130 17:57:37.939296 57854 layer_factory.hpp:74] Creating layer norm2_r
I0130 17:57:37.939306 57854 net.cpp:84] Creating Layer norm2_r
I0130 17:57:37.939314 57854 net.cpp:381] norm2_r <- pool2_r
I0130 17:57:37.939326 57854 net.cpp:339] norm2_r -> norm2_r
I0130 17:57:37.939349 57854 net.cpp:113] Setting up norm2_r
I0130 17:57:37.939365 57854 net.cpp:120] Top shape: 144 256 13 13 (6230016)
I0130 17:57:37.939374 57854 layer_factory.hpp:74] Creating layer fc6_r
I0130 17:57:37.939388 57854 net.cpp:84] Creating Layer fc6_r
I0130 17:57:37.939398 57854 net.cpp:381] fc6_r <- norm2_r
I0130 17:57:37.939414 57854 net.cpp:339] fc6_r -> fc6_r
I0130 17:57:37.939426 57854 net.cpp:113] Setting up fc6_r
I0130 17:57:40.625358 57854 net.cpp:120] Top shape: 144 4096 (589824)
I0130 17:57:40.625399 57854 layer_factory.hpp:74] Creating layer relu6_r
I0130 17:57:40.625414 57854 net.cpp:84] Creating Layer relu6_r
I0130 17:57:40.625422 57854 net.cpp:381] relu6_r <- fc6_r
I0130 17:57:40.625432 57854 net.cpp:328] relu6_r -> fc6_r (in-place)
I0130 17:57:40.625447 57854 net.cpp:113] Setting up relu6_r
I0130 17:57:40.625458 57854 net.cpp:120] Top shape: 144 4096 (589824)
I0130 17:57:40.625466 57854 layer_factory.hpp:74] Creating layer drop6_r
I0130 17:57:40.625475 57854 net.cpp:84] Creating Layer drop6_r
I0130 17:57:40.625483 57854 net.cpp:381] drop6_r <- fc6_r
I0130 17:57:40.625491 57854 net.cpp:328] drop6_r -> fc6_r (in-place)
I0130 17:57:40.625501 57854 net.cpp:113] Setting up drop6_r
I0130 17:57:40.625514 57854 net.cpp:120] Top shape: 144 4096 (589824)
I0130 17:57:40.625530 57854 layer_factory.hpp:74] Creating layer fusion_point
I0130 17:57:40.625540 57854 net.cpp:84] Creating Layer fusion_point
I0130 17:57:40.625547 57854 net.cpp:381] fusion_point <- fc6_l
I0130 17:57:40.625555 57854 net.cpp:381] fusion_point <- fc6_r
I0130 17:57:40.625563 57854 net.cpp:339] fusion_point -> fusion_point
I0130 17:57:40.625577 57854 net.cpp:113] Setting up fusion_point
I0130 17:57:40.625589 57854 net.cpp:120] Top shape: 144 8192 (1179648)
I0130 17:57:40.625597 57854 layer_factory.hpp:74] Creating layer fc1_fusionA
I0130 17:57:40.625608 57854 net.cpp:84] Creating Layer fc1_fusionA
I0130 17:57:40.625615 57854 net.cpp:381] fc1_fusionA <- fusion_point
I0130 17:57:40.625624 57854 net.cpp:339] fc1_fusionA -> fc1_fusionA
I0130 17:57:40.625636 57854 net.cpp:113] Setting up fc1_fusionA
I0130 17:57:41.134354 57854 net.cpp:120] Top shape: 144 4096 (589824)
I0130 17:57:41.134398 57854 layer_factory.hpp:74] Creating layer relu1_fusionA
I0130 17:57:41.134415 57854 net.cpp:84] Creating Layer relu1_fusionA
I0130 17:57:41.134425 57854 net.cpp:381] relu1_fusionA <- fc1_fusionA
I0130 17:57:41.134439 57854 net.cpp:328] relu1_fusionA -> fc1_fusionA (in-place)
I0130 17:57:41.134456 57854 net.cpp:113] Setting up relu1_fusionA
I0130 17:57:41.134472 57854 net.cpp:120] Top shape: 144 4096 (589824)
I0130 17:57:41.134482 57854 layer_factory.hpp:74] Creating layer drop1_fusionA
I0130 17:57:41.134495 57854 net.cpp:84] Creating Layer drop1_fusionA
I0130 17:57:41.134505 57854 net.cpp:381] drop1_fusionA <- fc1_fusionA
I0130 17:57:41.134515 57854 net.cpp:328] drop1_fusionA -> fc1_fusionA (in-place)
I0130 17:57:41.134526 57854 net.cpp:113] Setting up drop1_fusionA
I0130 17:57:41.134542 57854 net.cpp:120] Top shape: 144 4096 (589824)
I0130 17:57:41.134562 57854 layer_factory.hpp:74] Creating layer reshape-data
I0130 17:57:41.134578 57854 net.cpp:84] Creating Layer reshape-data
I0130 17:57:41.134588 57854 net.cpp:381] reshape-data <- fc1_fusionA
I0130 17:57:41.134599 57854 net.cpp:339] reshape-data -> fc6-reshape
I0130 17:57:41.134624 57854 net.cpp:113] Setting up reshape-data
I0130 17:57:41.134649 57854 net.cpp:120] Top shape: 18 8 4096 (589824)
I0130 17:57:41.134658 57854 layer_factory.hpp:74] Creating layer reshape-label
I0130 17:57:41.134670 57854 net.cpp:84] Creating Layer reshape-label
I0130 17:57:41.134680 57854 net.cpp:381] reshape-label <- label
I0130 17:57:41.134692 57854 net.cpp:339] reshape-label -> reshape-label
I0130 17:57:41.134706 57854 net.cpp:113] Setting up reshape-label
I0130 17:57:41.134718 57854 net.cpp:120] Top shape: 18 8 (144)
I0130 17:57:41.134733 57854 layer_factory.hpp:74] Creating layer reshape-label_reshape-label_0_split
I0130 17:57:41.134747 57854 net.cpp:84] Creating Layer reshape-label_reshape-label_0_split
I0130 17:57:41.134758 57854 net.cpp:381] reshape-label_reshape-label_0_split <- reshape-label
I0130 17:57:41.134770 57854 net.cpp:339] reshape-label_reshape-label_0_split -> reshape-label_reshape-label_0_split_0
I0130 17:57:41.134786 57854 net.cpp:339] reshape-label_reshape-label_0_split -> reshape-label_reshape-label_0_split_1
I0130 17:57:41.134802 57854 net.cpp:113] Setting up reshape-label_reshape-label_0_split
I0130 17:57:41.134817 57854 net.cpp:120] Top shape: 18 8 (144)
I0130 17:57:41.134829 57854 net.cpp:120] Top shape: 18 8 (144)
I0130 17:57:41.134837 57854 layer_factory.hpp:74] Creating layer reshape-cm
I0130 17:57:41.134848 57854 net.cpp:84] Creating Layer reshape-cm
I0130 17:57:41.134858 57854 net.cpp:381] reshape-cm <- clip_markers
I0130 17:57:41.134871 57854 net.cpp:339] reshape-cm -> reshape-cm
I0130 17:57:41.134886 57854 net.cpp:113] Setting up reshape-cm
I0130 17:57:41.134904 57854 net.cpp:120] Top shape: 18 8 (144)
I0130 17:57:41.134914 57854 layer_factory.hpp:74] Creating layer lstm1
I0130 17:57:41.134938 57854 net.cpp:84] Creating Layer lstm1
I0130 17:57:41.134945 57854 net.cpp:381] lstm1 <- fc6-reshape
I0130 17:57:41.134955 57854 net.cpp:381] lstm1 <- reshape-cm
I0130 17:57:41.134968 57854 net.cpp:339] lstm1 -> lstm1
I0130 17:57:41.134985 57854 net.cpp:113] Setting up lstm1
I0130 17:57:41.134996 57854 recurrent_layer.cpp:27] Initializing recurrent layer: assuming input batch contains 18 timesteps of 8 independent streams.
I0130 17:57:41.135915 57854 net.cpp:42] Initializing net from parameters: 
input: "x"
input: "cont"
input: "c_0"
input: "h_0"
force_backward: true
input_shape {
  dim: 18
  dim: 8
  dim: 4096
}
input_shape {
  dim: 1
  dim: 18
  dim: 8
}
input_shape {
  dim: 1
  dim: 8
  dim: 256
}
input_shape {
  dim: 1
  dim: 8
  dim: 256
}
layer {
  name: "lstm1_cont_slice"
  type: "Slice"
  bottom: "cont"
  top: "cont_1"
  top: "cont_2"
  top: "cont_3"
  top: "cont_4"
  top: "cont_5"
  top: "cont_6"
  top: "cont_7"
  top: "cont_8"
  top: "cont_9"
  top: "cont_10"
  top: "cont_11"
  top: "cont_12"
  top: "cont_13"
  top: "cont_14"
  top: "cont_15"
  top: "cont_16"
  top: "cont_17"
  top: "cont_18"
  slice_param {
    axis: 1
  }
}
layer {
  name: "lstm1_x_transform"
  type: "InnerProduct"
  bottom: "x"
  top: "W_xc_x"
  param {
    name: "W_xc"
  }
  param {
    name: "b_c"
  }
  inner_product_param {
    num_output: 1024
    bias_term: true
    weight_filler {
      type: "uniform"
      min: -0.01
      max: 0.01
    }
    bias_filler {
      type: "constant"
      value: 0
    }
    axis: 2
  }
}
layer {
  name: "lstm1_W_xc_x_slice"
  type: "Slice"
  bottom: "W_xc_x"
  top: "W_xc_x_1"
  top: "W_xc_x_2"
  top: "W_xc_x_3"
  top: "W_xc_x_4"
  top: "W_xc_x_5"
  top: "W_xc_x_6"
  top: "W_xc_x_7"
  top: "W_xc_x_8"
  top: "W_xc_x_9"
  top: "W_xc_x_10"
  top: "W_xc_x_11"
  top: "W_xc_x_12"
  top: "W_xc_x_13"
  top: "W_xc_x_14"
  top: "W_xc_x_15"
  top: "W_xc_x_16"
  top: "W_xc_x_17"
  top: "W_xc_x_18"
  slice_param {
    axis: 0
  }
}
layer {
  name: "lstm1_h_conted_0"
  type: "Eltwise"
  bottom: "h_0"
  bottom: "cont_1"
  top: "h_conted_0"
  eltwise_param {
    operation: SUM
    coeff_blob: true
  }
}
layer {
  name: "lstm1_transform_1"
  type: "InnerProduct"
  bottom: "h_conted_0"
  top: "W_hc_h_0"
  param {
    name: "W_hc"
  }
  inner_product_param {
    num_output: 1024
    bias_term: false
    weight_filler {
      type: "uniform"
      min: -0.01
      max: 0.01
    }
    axis: 2
  }
}
layer {
  name: "lstm1_gate_input_1"
  type: "Eltwise"
  bottom: "W_hc_h_0"
  bottom: "W_xc_x_1"
  top: "gate_input_1"
  eltwise_param {
    operation: SUM
  }
}
layer {
  name: "lstm1_unit_1"
  type: "LSTMUnit"
  bottom: "c_0"
  bottom: "gate_input_1"
  bottom: "cont_1"
  top: "c_1"
  top: "h_1"
}
layer {
  name: "lstm1_h_conted_1"
  type: "Eltwise"
  bottom: "h_1"
  bottom: "cont_2"
  top: "h_conted_1"
  eltwise_param {
    operation: SUM
    coeff_blob: true
  }
}
layer {
  name: "lstm1_transform_2"
  type: "InnerProduct"
  bottom: "h_conted_1"
  top: "W_hc_h_1"
  param {
    name: "W_hc"
  }
  inner_product_param {
    num_output: 1024
    bias_term: false
    weight_filler {
      type: "uniform"
      min: -0.01
      max: 0.01
    }
    axis: 2
  }
}
layer {
  name: "lstm1_gate_input_2"
  type: "Eltwise"
  bottom: "W_hc_h_1"
  bottom: "W_xc_x_2"
  top: "gate_input_2"
  eltwise_param {
    operation: SUM
  }
}
layer {
  name: "lstm1_unit_2"
  type: "LSTMUnit"
  bottom: "c_1"
  bottom: "gate_input_2"
  bottom: "cont_2"
  top: "c_2"
  top: "h_2"
}
layer {
  name: "lstm1_h_conted_2"
  type: "Eltwise"
  bottom: "h_2"
  bottom: "cont_3"
  top: "h_conted_2"
  eltwise_param {
    operation: SUM
    coeff_blob: true
  }
}
layer {
  name: "lstm1_transform_3"
  type: "InnerProduct"
  bottom: "h_conted_2"
  top: "W_hc_h_2"
  param {
    name: "W_hc"
  }
  inner_product_param {
    num_output: 1024
    bias_term: false
    weight_filler {
      type: "uniform"
      min: -0.01
      max: 0.01
    }
    axis: 2
  }
}
layer {
  name: "lstm1_gate_input_3"
  type: "Eltwise"
  bottom: "W_hc_h_2"
  bottom: "W_xc_x_3"
  top: "gate_input_3"
  eltwise_param {
    operation: SUM
  }
}
layer {
  name: "lstm1_unit_3"
  type: "LSTMUnit"
  bottom: "c_2"
  bottom: "gate_input_3"
  bottom: "cont_3"
  top: "c_3"
  top: "h_3"
}
layer {
  name: "lstm1_h_conted_3"
  type: "Eltwise"
  bottom: "h_3"
  bottom: "cont_4"
  top: "h_conted_3"
  eltwise_param {
    operation: SUM
    coeff_blob: true
  }
}
layer {
  name: "lstm1_transform_4"
  type: "InnerProduct"
  bottom: "h_conted_3"
  top: "W_hc_h_3"
  param {
    name: "W_hc"
  }
  inner_product_param {
    num_output: 1024
    bias_term: false
    weight_filler {
      type: "uniform"
      min: -0.01
      max: 0.01
    }
    axis: 2
  }
}
layer {
  name: "lstm1_gate_input_4"
  type: "Eltwise"
  bottom: "W_hc_h_3"
  bottom: "W_xc_x_4"
  top: "gate_input_4"
  eltwise_param {
    operation: SUM
  }
}
layer {
  name: "lstm1_unit_4"
  type: "LSTMUnit"
  bottom: "c_3"
  bottom: "gate_input_4"
  bottom: "cont_4"
  top: "c_4"
  top: "h_4"
}
layer {
  name: "lstm1_h_conted_4"
  type: "Eltwise"
  bottom: "h_4"
  bottom: "cont_5"
  top: "h_conted_4"
  eltwise_param {
    operation: SUM
    coeff_blob: true
  }
}
layer {
  name: "lstm1_transform_5"
  type: "InnerProduct"
  bottom: "h_conted_4"
  top: "W_hc_h_4"
  param {
    name: "W_hc"
  }
  inner_product_param {
    num_output: 1024
    bias_term: false
    weight_filler {
      type: "uniform"
      min: -0.01
      max: 0.01
    }
    axis: 2
  }
}
layer {
  name: "lstm1_gate_input_5"
  type: "Eltwise"
  bottom: "W_hc_h_4"
  bottom: "W_xc_x_5"
  top: "gate_input_5"
  eltwise_param {
    operation: SUM
  }
}
layer {
  name: "lstm1_unit_5"
  type: "LSTMUnit"
  bottom: "c_4"
  bottom: "gate_input_5"
  bottom: "cont_5"
  top: "c_5"
  top: "h_5"
}
layer {
  name: "lstm1_h_conted_5"
  type: "Eltwise"
  bottom: "h_5"
  bottom: "cont_6"
  top: "h_conted_5"
  eltwise_param {
    operation: SUM
    coeff_blob: true
  }
}
layer {
  name: "lstm1_transform_6"
  type: "InnerProduct"
  bottom: "h_conted_5"
  top: "W_hc_h_5"
  param {
    name: "W_hc"
  }
  inner_product_param {
    num_output: 1024
    bias_term: false
    weight_filler {
      type: "uniform"
      min: -0.01
      max: 0.01
    }
    axis: 2
  }
}
layer {
  name: "lstm1_gate_input_6"
  type: "Eltwise"
  bottom: "W_hc_h_5"
  bottom: "W_xc_x_6"
  top: "gate_input_6"
  eltwise_param {
    operation: SUM
  }
}
layer {
  name: "lstm1_unit_6"
  type: "LSTMUnit"
  bottom: "c_5"
  bottom: "gate_input_6"
  bottom: "cont_6"
  top: "c_6"
  top: "h_6"
}
layer {
  name: "lstm1_h_conted_6"
  type: "Eltwise"
  bottom: "h_6"
  bottom: "cont_7"
  top: "h_conted_6"
  eltwise_param {
    operation: SUM
    coeff_blob: true
  }
}
layer {
  name: "lstm1_transform_7"
  type: "InnerProduct"
  bottom: "h_conted_6"
  top: "W_hc_h_6"
  param {
    name: "W_hc"
  }
  inner_product_param {
    num_output: 1024
    bias_term: false
    weight_filler {
      type: "uniform"
      min: -0.01
      max: 0.01
    }
    axis: 2
  }
}
layer {
  name: "lstm1_gate_input_7"
  type: "Eltwise"
  bottom: "W_hc_h_6"
  bottom: "W_xc_x_7"
  top: "gate_input_7"
  eltwise_param {
    operation: SUM
  }
}
layer {
  name: "lstm1_unit_7"
  type: "LSTMUnit"
  bottom: "c_6"
  bottom: "gate_input_7"
  bottom: "cont_7"
  top: "c_7"
  top: "h_7"
}
layer {
  name: "lstm1_h_conted_7"
  type: "Eltwise"
  bottom: "h_7"
  bottom: "cont_8"
  top: "h_conted_7"
  eltwise_param {
    operation: SUM
    coeff_blob: true
  }
}
layer {
  name: "lstm1_transform_8"
  type: "InnerProduct"
  bottom: "h_conted_7"
  top: "W_hc_h_7"
  param {
    name: "W_hc"
  }
  inner_product_param {
    num_output: 1024
    bias_term: false
    weight_filler {
      type: "uniform"
      min: -0.01
      max: 0.01
    }
    axis: 2
  }
}
layer {
  name: "lstm1_gate_input_8"
  type: "Eltwise"
  bottom: "W_hc_h_7"
  bottom: "W_xc_x_8"
  top: "gate_input_8"
  eltwise_param {
    operation: SUM
  }
}
layer {
  name: "lstm1_unit_8"
  type: "LSTMUnit"
  bottom: "c_7"
  bottom: "gate_input_8"
  bottom: "cont_8"
  top: "c_8"
  top: "h_8"
}
layer {
  name: "lstm1_h_conted_8"
  type: "Eltwise"
  bottom: "h_8"
  bottom: "cont_9"
  top: "h_conted_8"
  eltwise_param {
    operation: SUM
    coeff_blob: true
  }
}
layer {
  name: "lstm1_transform_9"
  type: "InnerProduct"
  bottom: "h_conted_8"
  top: "W_hc_h_8"
  param {
    name: "W_hc"
  }
  inner_product_param {
    num_output: 1024
    bias_term: false
    weight_filler {
      type: "uniform"
      min: -0.01
      max: 0.01
    }
    axis: 2
  }
}
layer {
  name: "lstm1_gate_input_9"
  type: "Eltwise"
  bottom: "W_hc_h_8"
  bottom: "W_xc_x_9"
  top: "gate_input_9"
  eltwise_param {
    operation: SUM
  }
}
layer {
  name: "lstm1_unit_9"
  type: "LSTMUnit"
  bottom: "c_8"
  bottom: "gate_input_9"
  bottom: "cont_9"
  top: "c_9"
  top: "h_9"
}
layer {
  name: "lstm1_h_conted_9"
  type: "Eltwise"
  bottom: "h_9"
  bottom: "cont_10"
  top: "h_conted_9"
  eltwise_param {
    operation: SUM
    coeff_blob: true
  }
}
layer {
  name: "lstm1_transform_10"
  type: "InnerProduct"
  bottom: "h_conted_9"
  top: "W_hc_h_9"
  param {
    name: "W_hc"
  }
  inner_product_param {
    num_output: 1024
    bias_term: false
    weight_filler {
      type: "uniform"
      min: -0.01
      max: 0.01
    }
    axis: 2
  }
}
layer {
  name: "lstm1_gate_input_10"
  type: "Eltwise"
  bottom: "W_hc_h_9"
  bottom: "W_xc_x_10"
  top: "gate_input_10"
  eltwise_param {
    operation: SUM
  }
}
layer {
  name: "lstm1_unit_10"
  type: "LSTMUnit"
  bottom: "c_9"
  bottom: "gate_input_10"
  bottom: "cont_10"
  top: "c_10"
  top: "h_10"
}
layer {
  name: "lstm1_h_conted_10"
  type: "Eltwise"
  bottom: "h_10"
  bottom: "cont_11"
  top: "h_conted_10"
  eltwise_param {
    operation: SUM
    coeff_blob: true
  }
}
layer {
  name: "lstm1_transform_11"
  type: "InnerProduct"
  bottom: "h_conted_10"
  top: "W_hc_h_10"
  param {
    name: "W_hc"
  }
  inner_product_param {
    num_output: 1024
    bias_term: false
    weight_filler {
      type: "uniform"
      min: -0.01
      max: 0.01
    }
    axis: 2
  }
}
layer {
  name: "lstm1_gate_input_11"
  type: "Eltwise"
  bottom: "W_hc_h_10"
  bottom: "W_xc_x_11"
  top: "gate_input_11"
  eltwise_param {
    operation: SUM
  }
}
layer {
  name: "lstm1_unit_11"
  type: "LSTMUnit"
  bottom: "c_10"
  bottom: "gate_input_11"
  bottom: "cont_11"
  top: "c_11"
  top: "h_11"
}
layer {
  name: "lstm1_h_conted_11"
  type: "Eltwise"
  bottom: "h_11"
  bottom: "cont_12"
  top: "h_conted_11"
  eltwise_param {
    operation: SUM
    coeff_blob: true
  }
}
layer {
  name: "lstm1_transform_12"
  type: "InnerProduct"
  bottom: "h_conted_11"
  top: "W_hc_h_11"
  param {
    name: "W_hc"
  }
  inner_product_param {
    num_output: 1024
    bias_term: false
    weight_filler {
      type: "uniform"
      min: -0.01
      max: 0.01
    }
    axis: 2
  }
}
layer {
  name: "lstm1_gate_input_12"
  type: "Eltwise"
  bottom: "W_hc_h_11"
  bottom: "W_xc_x_12"
  top: "gate_input_12"
  eltwise_param {
    operation: SUM
  }
}
layer {
  name: "lstm1_unit_12"
  type: "LSTMUnit"
  bottom: "c_11"
  bottom: "gate_input_12"
  bottom: "cont_12"
  top: "c_12"
  top: "h_12"
}
layer {
  name: "lstm1_h_conted_12"
  type: "Eltwise"
  bottom: "h_12"
  bottom: "cont_13"
  top: "h_conted_12"
  eltwise_param {
    operation: SUM
    coeff_blob: true
  }
}
layer {
  name: "lstm1_transform_13"
  type: "InnerProduct"
  bottom: "h_conted_12"
  top: "W_hc_h_12"
  param {
    name: "W_hc"
  }
  inner_product_param {
    num_output: 1024
    bias_term: false
    weight_filler {
      type: "uniform"
      min: -0.01
      max: 0.01
    }
    axis: 2
  }
}
layer {
  name: "lstm1_gate_input_13"
  type: "Eltwise"
  bottom: "W_hc_h_12"
  bottom: "W_xc_x_13"
  top: "gate_input_13"
  eltwise_param {
    operation: SUM
  }
}
layer {
  name: "lstm1_unit_13"
  type: "LSTMUnit"
  bottom: "c_12"
  bottom: "gate_input_13"
  bottom: "cont_13"
  top: "c_13"
  top: "h_13"
}
layer {
  name: "lstm1_h_conted_13"
  type: "Eltwise"
  bottom: "h_13"
  bottom: "cont_14"
  top: "h_conted_13"
  eltwise_param {
    operation: SUM
    coeff_blob: true
  }
}
layer {
  name: "lstm1_transform_14"
  type: "InnerProduct"
  bottom: "h_conted_13"
  top: "W_hc_h_13"
  param {
    name: "W_hc"
  }
  inner_product_param {
    num_output: 1024
    bias_term: false
    weight_filler {
      type: "uniform"
      min: -0.01
      max: 0.01
    }
    axis: 2
  }
}
layer {
  name: "lstm1_gate_input_14"
  type: "Eltwise"
  bottom: "W_hc_h_13"
  bottom: "W_xc_x_14"
  top: "gate_input_14"
  eltwise_param {
    operation: SUM
  }
}
layer {
  name: "lstm1_unit_14"
  type: "LSTMUnit"
  bottom: "c_13"
  bottom: "gate_input_14"
  bottom: "cont_14"
  top: "c_14"
  top: "h_14"
}
layer {
  name: "lstm1_h_conted_14"
  type: "Eltwise"
  bottom: "h_14"
  bottom: "cont_15"
  top: "h_conted_14"
  eltwise_param {
    operation: SUM
    coeff_blob: true
  }
}
layer {
  name: "lstm1_transform_15"
  type: "InnerProduct"
  bottom: "h_conted_14"
  top: "W_hc_h_14"
  param {
    name: "W_hc"
  }
  inner_product_param {
    num_output: 1024
    bias_term: false
    weight_filler {
      type: "uniform"
      min: -0.01
      max: 0.01
    }
    axis: 2
  }
}
layer {
  name: "lstm1_gate_input_15"
  type: "Eltwise"
  bottom: "W_hc_h_14"
  bottom: "W_xc_x_15"
  top: "gate_input_15"
  eltwise_param {
    operation: SUM
  }
}
layer {
  name: "lstm1_unit_15"
  type: "LSTMUnit"
  bottom: "c_14"
  bottom: "gate_input_15"
  bottom: "cont_15"
  top: "c_15"
  top: "h_15"
}
layer {
  name: "lstm1_h_conted_15"
  type: "Eltwise"
  bottom: "h_15"
  bottom: "cont_16"
  top: "h_conted_15"
  eltwise_param {
    operation: SUM
    coeff_blob: true
  }
}
layer {
  name: "lstm1_transform_16"
  type: "InnerProduct"
  bottom: "h_conted_15"
  top: "W_hc_h_15"
  param {
    name: "W_hc"
  }
  inner_product_param {
    num_output: 1024
    bias_term: false
    weight_filler {
      type: "uniform"
      min: -0.01
      max: 0.01
    }
    axis: 2
  }
}
layer {
  name: "lstm1_gate_input_16"
  type: "Eltwise"
  bottom: "W_hc_h_15"
  bottom: "W_xc_x_16"
  top: "gate_input_16"
  eltwise_param {
    operation: SUM
  }
}
layer {
  name: "lstm1_unit_16"
  type: "LSTMUnit"
  bottom: "c_15"
  bottom: "gate_input_16"
  bottom: "cont_16"
  top: "c_16"
  top: "h_16"
}
layer {
  name: "lstm1_h_conted_16"
  type: "Eltwise"
  bottom: "h_16"
  bottom: "cont_17"
  top: "h_conted_16"
  eltwise_param {
    operation: SUM
    coeff_blob: true
  }
}
layer {
  name: "lstm1_transform_17"
  type: "InnerProduct"
  bottom: "h_conted_16"
  top: "W_hc_h_16"
  param {
    name: "W_hc"
  }
  inner_product_param {
    num_output: 1024
    bias_term: false
    weight_filler {
      type: "uniform"
      min: -0.01
      max: 0.01
    }
    axis: 2
  }
}
layer {
  name: "lstm1_gate_input_17"
  type: "Eltwise"
  bottom: "W_hc_h_16"
  bottom: "W_xc_x_17"
  top: "gate_input_17"
  eltwise_param {
    operation: SUM
  }
}
layer {
  name: "lstm1_unit_17"
  type: "LSTMUnit"
  bottom: "c_16"
  bottom: "gate_input_17"
  bottom: "cont_17"
  top: "c_17"
  top: "h_17"
}
layer {
  name: "lstm1_h_conted_17"
  type: "Eltwise"
  bottom: "h_17"
  bottom: "cont_18"
  top: "h_conted_17"
  eltwise_param {
    operation: SUM
    coeff_blob: true
  }
}
layer {
  name: "lstm1_transform_18"
  type: "InnerProduct"
  bottom: "h_conted_17"
  top: "W_hc_h_17"
  param {
    name: "W_hc"
  }
  inner_product_param {
    num_output: 1024
    bias_term: false
    weight_filler {
      type: "uniform"
      min: -0.01
      max: 0.01
    }
    axis: 2
  }
}
layer {
  name: "lstm1_gate_input_18"
  type: "Eltwise"
  bottom: "W_hc_h_17"
  bottom: "W_xc_x_18"
  top: "gate_input_18"
  eltwise_param {
    operation: SUM
  }
}
layer {
  name: "lstm1_unit_18"
  type: "LSTMUnit"
  bottom: "c_17"
  bottom: "gate_input_18"
  bottom: "cont_18"
  top: "c_18"
  top: "h_18"
}
layer {
  name: "lstm1_"
  type: "Split"
  bottom: "c_18"
  top: "c_T"
}
layer {
  name: "lstm1_h_concat"
  type: "Concat"
  bottom: "h_1"
  bottom: "h_2"
  bottom: "h_3"
  bottom: "h_4"
  bottom: "h_5"
  bottom: "h_6"
  bottom: "h_7"
  bottom: "h_8"
  bottom: "h_9"
  bottom: "h_10"
  bottom: "h_11"
  bottom: "h_12"
  bottom: "h_13"
  bottom: "h_14"
  bottom: "h_15"
  bottom: "h_16"
  bottom: "h_17"
  bottom: "h_18"
  top: "h"
  concat_param {
    axis: 0
  }
}
I0130 17:57:41.137135 57854 net.cpp:341] Input 0 -> x
I0130 17:57:41.137158 57854 net.cpp:341] Input 1 -> cont
I0130 17:57:41.137171 57854 net.cpp:341] Input 2 -> c_0
I0130 17:57:41.137182 57854 net.cpp:341] Input 3 -> h_0
I0130 17:57:41.137218 57854 layer_factory.hpp:74] Creating layer lstm1_cont_slice
I0130 17:57:41.137235 57854 net.cpp:84] Creating Layer lstm1_cont_slice
…
I0130 17:57:41.137404 57854 net.cpp:339] lstm1_cont_slice -> cont_11
I0130 17:57:41.137418 57854 net.cpp:339] lstm1_cont_slice -> cont_12
I0130 17:57:41.137431 57854 net.cpp:339] lstm1_cont_slice -> cont_13
I0130 17:57:41.137447 57854 net.cpp:339] lstm1_cont_slice -> cont_14
I0130 17:57:41.137461 57854 net.cpp:339] lstm1_cont_slice -> cont_15
I0130 17:57:41.137475 57854 net.cpp:339] lstm1_cont_slice -> cont_16
I0130 17:57:41.137490 57854 net.cpp:339] lstm1_cont_slice -> cont_17
I0130 17:57:41.137503 57854 net.cpp:339] lstm1_cont_slice -> cont_18
I0130 17:57:41.137516 57854 net.cpp:113] Setting up lstm1_cont_slice
I0130 17:57:41.137540 57854 net.cpp:120] Top shape: 1 1 8 (8)
I0130 17:57:41.137550 57854 net.cpp:120] Top shape: 1 1 8 (8)
I0130 17:57:41.137559 57854 net.cpp:120] Top shape: 1 1 8 (8)
I0130 17:57:41.137567 57854 net.cpp:120] Top shape: 1 1 8 (8)
I0130 17:57:41.137575 57854 net.cpp:120] Top shape: 1 1 8 (8)
I0130 17:57:41.137583 57854 net.cpp:120] Top shape: 1 1 8 (8)
I0130 17:57:41.137593 57854 net.cpp:120] Top shape: 1 1 8 (8)
I0130 17:57:41.137601 57854 net.cpp:120] Top shape: 1 1 8 (8)
I0130 17:57:41.137609 57854 net.cpp:120] Top shape: 1 1 8 (8)
I0130 17:57:41.137617 57854 net.cpp:120] Top shape: 1 1 8 (8)
I0130 17:57:41.137625 57854 net.cpp:120] Top shape: 1 1 8 (8)
I0130 17:57:41.137634 57854 net.cpp:120] Top shape: 1 1 8 (8)
I0130 17:57:41.137642 57854 net.cpp:120] Top shape: 1 1 8 (8)
I0130 17:57:41.137650 57854 net.cpp:120] Top shape: 1 1 8 (8)
I0130 17:57:41.137660 57854 net.cpp:120] Top shape: 1 1 8 (8)
I0130 17:57:41.137667 57854 net.cpp:120] Top shape: 1 1 8 (8)
I0130 17:57:41.137676 57854 net.cpp:120] Top shape: 1 1 8 (8)
I0130 17:57:41.137684 57854 net.cpp:120] Top shape: 1 1 8 (8)
I0130 17:57:41.137691 57854 layer_factory.hpp:74] Creating layer cont_1_lstm1_cont_slice_0_split
I0130 17:57:41.137702 57854 net.cpp:84] Creating Layer cont_1_lstm1_cont_slice_0_split
I0130 17:57:41.137709 57854 net.cpp:381] cont_1_lstm1_cont_slice_0_split <- cont_1
I0130 17:57:41.137722 57854 net.cpp:339] cont_1_lstm1_cont_slice_0_split -> cont_1_lstm1_cont_slice_0_split_0
I0130 17:57:41.137734 57854 net.cpp:339] cont_1_lstm1_cont_slice_0_split -> cont_1_lstm1_cont_slice_0_split_1
I0130 17:57:41.137745 57854 net.cpp:113] Setting up cont_1_lstm1_cont_slice_0_split
I0130 17:57:41.137756 57854 net.cpp:120] Top shape: 1 1 8 (8)
I0130 17:57:41.137764 57854 net.cpp:120] Top shape: 1 1 8 (8)
I0130 17:57:41.137771 57854 layer_factory.hpp:74] Creating layer cont_2_lstm1_cont_slice_1_split
I0130 17:57:41.137781 57854 net.cpp:84] Creating Layer cont_2_lstm1_cont_slice_1_split
I0130 17:57:41.137789 57854 net.cpp:381] cont_2_lstm1_cont_slice_1_split <- cont_2
I0130 17:57:41.137799 57854 net.cpp:339] cont_2_lstm1_cont_slice_1_split -> cont_2_lstm1_cont_slice_1_split_0
I0130 17:57:41.137811 57854 net.cpp:339] cont_2_lstm1_cont_slice_1_split -> cont_2_lstm1_cont_slice_1_split_1
I0130 17:57:41.137822 57854 net.cpp:113] Setting up cont_2_lstm1_cont_slice_1_split
I0130 17:57:41.137835 57854 net.cpp:120] Top shape: 1 1 8 (8)
I0130 17:57:41.137842 57854 net.cpp:120] Top shape: 1 1 8 (8)
I0130 17:57:41.137850 57854 layer_factory.hpp:74] Creating layer cont_3_lstm1_cont_slice_2_split
I0130 17:57:41.137857 57854 net.cpp:84] Creating Layer cont_3_lstm1_cont_slice_2_split
I0130 17:57:41.137864 57854 net.cpp:381] cont_3_lstm1_cont_slice_2_split <- cont_3
I0130 17:57:41.137874 57854 net.cpp:339] cont_3_lstm1_cont_slice_2_split -> cont_3_lstm1_cont_slice_2_split_0
I0130 17:57:41.137887 57854 net.cpp:339] cont_3_lstm1_cont_slice_2_split -> cont_3_lstm1_cont_slice_2_split_1
I0130 17:57:41.137897 57854 net.cpp:113] Setting up cont_3_lstm1_cont_slice_2_split
I0130 17:57:41.137908 57854 net.cpp:120] Top shape: 1 1 8 (8)
I0130 17:57:41.137917 57854 net.cpp:120] Top shape: 1 1 8 (8)
I0130 17:57:41.137923 57854 layer_factory.hpp:74] Creating layer cont_4_lstm1_cont_slice_3_split
I0130 17:57:41.137935 57854 net.cpp:84] Creating Layer cont_4_lstm1_cont_slice_3_split
I0130 17:57:41.137943 57854 net.cpp:381] cont_4_lstm1_cont_slice_3_split <- cont_4
I0130 17:57:41.137953 57854 net.cpp:339] cont_4_lstm1_cont_slice_3_split -> cont_4_lstm1_cont_slice_3_split_0
I0130 17:57:41.137964 57854 net.cpp:339] cont_4_lstm1_cont_slice_3_split -> cont_4_lstm1_cont_slice_3_split_1
I0130 17:57:41.137974 57854 net.cpp:113] Setting up cont_4_lstm1_cont_slice_3_split
I0130 17:57:41.137984 57854 net.cpp:120] Top shape: 1 1 8 (8)
I0130 17:57:41.137993 57854 net.cpp:120] Top shape: 1 1 8 (8)
I0130 17:57:41.138000 57854 layer_factory.hpp:74] Creating layer cont_5_lstm1_cont_slice_4_split
I0130 17:57:41.138008 57854 net.cpp:84] Creating Layer cont_5_lstm1_cont_slice_4_split
I0130 17:57:41.138015 57854 net.cpp:381] cont_5_lstm1_cont_slice_4_split <- cont_5
I0130 17:57:41.138025 57854 net.cpp:339] cont_5_lstm1_cont_slice_4_split -> cont_5_lstm1_cont_slice_4_split_0
I0130 17:57:41.138037 57854 net.cpp:339] cont_5_lstm1_cont_slice_4_split -> cont_5_lstm1_cont_slice_4_split_1
I0130 17:57:41.138047 57854 net.cpp:113] Setting up cont_5_lstm1_cont_slice_4_split
I0130 17:57:41.138058 57854 net.cpp:120] Top shape: 1 1 8 (8)
I0130 17:57:41.138067 57854 net.cpp:120] Top shape: 1 1 8 (8)
I0130 17:57:41.138072 57854 layer_factory.hpp:74] Creating layer cont_6_lstm1_cont_slice_5_split
I0130 17:57:41.138083 57854 net.cpp:84] Creating Layer cont_6_lstm1_cont_slice_5_split
I0130 17:57:41.138090 57854 net.cpp:381] cont_6_lstm1_cont_slice_5_split <- cont_6
I0130 17:57:41.138101 57854 net.cpp:339] cont_6_lstm1_cont_slice_5_split -> cont_6_lstm1_cont_slice_5_split_0
I0130 17:57:41.138121 57854 net.cpp:339] cont_6_lstm1_cont_slice_5_split -> cont_6_lstm1_cont_slice_5_split_1
I0130 17:57:41.138133 57854 net.cpp:113] Setting up cont_6_lstm1_cont_slice_5_split
I0130 17:57:41.138144 57854 net.cpp:120] Top shape: 1 1 8 (8)
I0130 17:57:41.138151 57854 net.cpp:120] Top shape: 1 1 8 (8)
I0130 17:57:41.138159 57854 layer_factory.hpp:74] Creating layer cont_7_lstm1_cont_slice_6_split
I0130 17:57:41.138166 57854 net.cpp:84] Creating Layer cont_7_lstm1_cont_slice_6_split
I0130 17:57:41.138173 57854 net.cpp:381] cont_7_lstm1_cont_slice_6_split <- cont_7
I0130 17:57:41.138183 57854 net.cpp:339] cont_7_lstm1_cont_slice_6_split -> cont_7_lstm1_cont_slice_6_split_0
I0130 17:57:41.138195 57854 net.cpp:339] cont_7_lstm1_cont_slice_6_split -> cont_7_lstm1_cont_slice_6_split_1
I0130 17:57:41.138206 57854 net.cpp:113] Setting up cont_7_lstm1_cont_slice_6_split
I0130 17:57:41.138216 57854 net.cpp:120] Top shape: 1 1 8 (8)
I0130 17:57:41.138224 57854 net.cpp:120] Top shape: 1 1 8 (8)
I0130 17:57:41.138231 57854 layer_factory.hpp:74] Creating layer cont_8_lstm1_cont_slice_7_split
I0130 17:57:41.138243 57854 net.cpp:84] Creating Layer cont_8_lstm1_cont_slice_7_split
I0130 17:57:41.138249 57854 net.cpp:381] cont_8_lstm1_cont_slice_7_split <- cont_8
I0130 17:57:41.138259 57854 net.cpp:339] cont_8_lstm1_cont_slice_7_split -> cont_8_lstm1_cont_slice_7_split_0
I0130 17:57:41.138272 57854 net.cpp:339] cont_8_lstm1_cont_slice_7_split -> cont_8_lstm1_cont_slice_7_split_1
I0130 17:57:41.138283 57854 net.cpp:113] Setting up cont_8_lstm1_cont_slice_7_split
I0130 17:57:41.138293 57854 net.cpp:120] Top shape: 1 1 8 (8)
I0130 17:57:41.138301 57854 net.cpp:120] Top shape: 1 1 8 (8)
I0130 17:57:41.138308 57854 layer_factory.hpp:74] Creating layer cont_9_lstm1_cont_slice_8_split
I0130 17:57:41.138315 57854 net.cpp:84] Creating Layer cont_9_lstm1_cont_slice_8_split
I0130 17:57:41.138322 57854 net.cpp:381] cont_9_lstm1_cont_slice_8_split <- cont_9
I0130 17:57:41.138332 57854 net.cpp:339] cont_9_lstm1_cont_slice_8_split -> cont_9_lstm1_cont_slice_8_split_0
I0130 17:57:41.138345 57854 net.cpp:339] cont_9_lstm1_cont_slice_8_split -> cont_9_lstm1_cont_slice_8_split_1
I0130 17:57:41.138357 57854 net.cpp:113] Setting up cont_9_lstm1_cont_slice_8_split
I0130 17:57:41.138370 57854 net.cpp:120] Top shape: 1 1 8 (8)
I0130 17:57:41.138377 57854 net.cpp:120] Top shape: 1 1 8 (8)
I0130 17:57:41.138384 57854 layer_factory.hpp:74] Creating layer cont_10_lstm1_cont_slice_9_split
I0130 17:57:41.138393 57854 net.cpp:84] Creating Layer cont_10_lstm1_cont_slice_9_split
I0130 17:57:41.138399 57854 net.cpp:381] cont_10_lstm1_cont_slice_9_split <- cont_10
I0130 17:57:41.138411 57854 net.cpp:339] cont_10_lstm1_cont_slice_9_split -> cont_10_lstm1_cont_slice_9_split_0
I0130 17:57:41.138423 57854 net.cpp:339] cont_10_lstm1_cont_slice_9_split -> cont_10_lstm1_cont_slice_9_split_1
I0130 17:57:41.138433 57854 net.cpp:113] Setting up cont_10_lstm1_cont_slice_9_split
I0130 17:57:41.138445 57854 net.cpp:120] Top shape: 1 1 8 (8)
I0130 17:57:41.138455 57854 net.cpp:120] Top shape: 1 1 8 (8)
I0130 17:57:41.138463 57854 layer_factory.hpp:74] Creating layer cont_11_lstm1_cont_slice_10_split
I0130 17:57:41.138471 57854 net.cpp:84] Creating Layer cont_11_lstm1_cont_slice_10_split
I0130 17:57:41.138478 57854 net.cpp:381] cont_11_lstm1_cont_slice_10_split <- cont_11
I0130 17:57:41.138489 57854 net.cpp:339] cont_11_lstm1_cont_slice_10_split -> cont_11_lstm1_cont_slice_10_split_0
I0130 17:57:41.138504 57854 net.cpp:339] cont_11_lstm1_cont_slice_10_split -> cont_11_lstm1_cont_slice_10_split_1
I0130 17:57:41.138515 57854 net.cpp:113] Setting up cont_11_lstm1_cont_slice_10_split
I0130 17:57:41.138526 57854 net.cpp:120] Top shape: 1 1 8 (8)
I0130 17:57:41.138543 57854 net.cpp:120] Top shape: 1 1 8 (8)
I0130 17:57:41.138550 57854 layer_factory.hpp:74] Creating layer cont_12_lstm1_cont_slice_11_split
I0130 17:57:41.138561 57854 net.cpp:84] Creating Layer cont_12_lstm1_cont_slice_11_split
I0130 17:57:41.138568 57854 net.cpp:381] cont_12_lstm1_cont_slice_11_split <- cont_12
I0130 17:57:41.138579 57854 net.cpp:339] cont_12_lstm1_cont_slice_11_split -> cont_12_lstm1_cont_slice_11_split_0
I0130 17:57:41.138593 57854 net.cpp:339] cont_12_lstm1_cont_slice_11_split -> cont_12_lstm1_cont_slice_11_split_1
I0130 17:57:41.138607 57854 net.cpp:113] Setting up cont_12_lstm1_cont_slice_11_split
I0130 17:57:41.138619 57854 net.cpp:120] Top shape: 1 1 8 (8)
I0130 17:57:41.138631 57854 net.cpp:120] Top shape: 1 1 8 (8)
I0130 17:57:41.138639 57854 layer_factory.hpp:74] Creating layer cont_13_lstm1_cont_slice_12_split
I0130 17:57:41.138649 57854 net.cpp:84] Creating Layer cont_13_lstm1_cont_slice_12_split
I0130 17:57:41.138656 57854 net.cpp:381] cont_13_lstm1_cont_slice_12_split <- cont_13
I0130 17:57:41.138667 57854 net.cpp:339] cont_13_lstm1_cont_slice_12_split -> cont_13_lstm1_cont_slice_12_split_0
I0130 17:57:41.138685 57854 net.cpp:339] cont_13_lstm1_cont_slice_12_split -> cont_13_lstm1_cont_slice_12_split_1
I0130 17:57:41.138700 57854 net.cpp:113] Setting up cont_13_lstm1_cont_slice_12_split
I0130 17:57:41.138715 57854 net.cpp:120] Top shape: 1 1 8 (8)
I0130 17:57:41.138727 57854 net.cpp:120] Top shape: 1 1 8 (8)
I0130 17:57:41.138736 57854 layer_factory.hpp:74] Creating layer cont_14_lstm1_cont_slice_13_split
I0130 17:57:41.138746 57854 net.cpp:84] Creating Layer cont_14_lstm1_cont_slice_13_split
I0130 17:57:41.138752 57854 net.cpp:381] cont_14_lstm1_cont_slice_13_split <- cont_14
I0130 17:57:41.138764 57854 net.cpp:339] cont_14_lstm1_cont_slice_13_split -> cont_14_lstm1_cont_slice_13_split_0
I0130 17:57:41.138780 57854 net.cpp:339] cont_14_lstm1_cont_slice_13_split -> cont_14_lstm1_cont_slice_13_split_1
I0130 17:57:41.138794 57854 net.cpp:113] Setting up cont_14_lstm1_cont_slice_13_split
I0130 17:57:41.138810 57854 net.cpp:120] Top shape: 1 1 8 (8)
I0130 17:57:41.138823 57854 net.cpp:120] Top shape: 1 1 8 (8)
I0130 17:57:41.138829 57854 layer_factory.hpp:74] Creating layer cont_15_lstm1_cont_slice_14_split
I0130 17:57:41.138839 57854 net.cpp:84] Creating Layer cont_15_lstm1_cont_slice_14_split
I0130 17:57:41.138847 57854 net.cpp:381] cont_15_lstm1_cont_slice_14_split <- cont_15
I0130 17:57:41.138859 57854 net.cpp:339] cont_15_lstm1_cont_slice_14_split -> cont_15_lstm1_cont_slice_14_split_0
I0130 17:57:41.138875 57854 net.cpp:339] cont_15_lstm1_cont_slice_14_split -> cont_15_lstm1_cont_slice_14_split_1
I0130 17:57:41.138890 57854 net.cpp:113] Setting up cont_15_lstm1_cont_slice_14_split
I0130 17:57:41.138903 57854 net.cpp:120] Top shape: 1 1 8 (8)
I0130 17:57:41.138916 57854 net.cpp:120] Top shape: 1 1 8 (8)
I0130 17:57:41.138923 57854 layer_factory.hpp:74] Creating layer cont_16_lstm1_cont_slice_15_split
I0130 17:57:41.138941 57854 net.cpp:84] Creating Layer cont_16_lstm1_cont_slice_15_split
I0130 17:57:41.138949 57854 net.cpp:381] cont_16_lstm1_cont_slice_15_split <- cont_16
I0130 17:57:41.138962 57854 net.cpp:339] cont_16_lstm1_cont_slice_15_split -> cont_16_lstm1_cont_slice_15_split_0
I0130 17:57:41.138975 57854 net.cpp:339] cont_16_lstm1_cont_slice_15_split -> cont_16_lstm1_cont_slice_15_split_1
I0130 17:57:41.138989 57854 net.cpp:113] Setting up cont_16_lstm1_cont_slice_15_split
I0130 17:57:41.139004 57854 net.cpp:120] Top shape: 1 1 8 (8)
I0130 17:57:41.139016 57854 net.cpp:120] Top shape: 1 1 8 (8)
I0130 17:57:41.139024 57854 layer_factory.hpp:74] Creating layer cont_17_lstm1_cont_slice_16_split
I0130 17:57:41.139034 57854 net.cpp:84] Creating Layer cont_17_lstm1_cont_slice_16_split
I0130 17:57:41.139045 57854 net.cpp:381] cont_17_lstm1_cont_slice_16_split <- cont_17
I0130 17:57:41.139057 57854 net.cpp:339] cont_17_lstm1_cont_slice_16_split -> cont_17_lstm1_cont_slice_16_split_0
I0130 17:57:41.139075 57854 net.cpp:339] cont_17_lstm1_cont_slice_16_split -> cont_17_lstm1_cont_slice_16_split_1
I0130 17:57:41.139089 57854 net.cpp:113] Setting up cont_17_lstm1_cont_slice_16_split
I0130 17:57:41.139103 57854 net.cpp:120] Top shape: 1 1 8 (8)
I0130 17:57:41.139116 57854 net.cpp:120] Top shape: 1 1 8 (8)
I0130 17:57:41.139123 57854 layer_factory.hpp:74] Creating layer cont_18_lstm1_cont_slice_17_split
I0130 17:57:41.139133 57854 net.cpp:84] Creating Layer cont_18_lstm1_cont_slice_17_split
I0130 17:57:41.139144 57854 net.cpp:381] cont_18_lstm1_cont_slice_17_split <- cont_18
I0130 17:57:41.139155 57854 net.cpp:339] cont_18_lstm1_cont_slice_17_split -> cont_18_lstm1_cont_slice_17_split_0
I0130 17:57:41.139170 57854 net.cpp:339] cont_18_lstm1_cont_slice_17_split -> cont_18_lstm1_cont_slice_17_split_1
I0130 17:57:41.139183 57854 net.cpp:113] Setting up cont_18_lstm1_cont_slice_17_split
I0130 17:57:41.139196 57854 net.cpp:120] Top shape: 1 1 8 (8)
I0130 17:57:41.139209 57854 net.cpp:120] Top shape: 1 1 8 (8)
I0130 17:57:41.139217 57854 layer_factory.hpp:74] Creating layer lstm1_x_transform
I0130 17:57:41.139231 57854 net.cpp:84] Creating Layer lstm1_x_transform
I0130 17:57:41.139241 57854 net.cpp:381] lstm1_x_transform <- x
I0130 17:57:41.139256 57854 net.cpp:339] lstm1_x_transform -> W_xc_x
I0130 17:57:41.139272 57854 net.cpp:113] Setting up lstm1_x_transform
I0130 17:57:41.179096 57854 net.cpp:120] Top shape: 18 8 1024 (147456)
I0130 17:57:41.179136 57854 layer_factory.hpp:74] Creating layer lstm1_W_xc_x_slice
I0130 17:57:41.179154 57854 net.cpp:84] Creating Layer lstm1_W_xc_x_slice
I0130 17:57:41.179163 57854 net.cpp:381] lstm1_W_xc_x_slice <- W_xc_x
I0130 17:57:41.179179 57854 net.cpp:339] lstm1_W_xc_x_slice -> W_xc_x_1
I0130 17:57:41.179201 57854 net.cpp:339] lstm1_W_xc_x_slice -> W_xc_x_2
I0130 17:57:41.179219 57854 net.cpp:339] lstm1_W_xc_x_slice -> W_xc_x_3
…
I0130 17:57:41.179383 57854 net.cpp:339] lstm1_W_xc_x_slice -> W_xc_x_12
I0130 17:57:41.179399 57854 net.cpp:339] lstm1_W_xc_x_slice -> W_xc_x_13
I0130 17:57:41.179414 57854 net.cpp:339] lstm1_W_xc_x_slice -> W_xc_x_14
I0130 17:57:41.179430 57854 net.cpp:339] lstm1_W_xc_x_slice -> W_xc_x_15
I0130 17:57:41.179446 57854 net.cpp:339] lstm1_W_xc_x_slice -> W_xc_x_16
I0130 17:57:41.179464 57854 net.cpp:339] lstm1_W_xc_x_slice -> W_xc_x_17
I0130 17:57:41.179481 57854 net.cpp:339] lstm1_W_xc_x_slice -> W_xc_x_18
I0130 17:57:41.179494 57854 net.cpp:113] Setting up lstm1_W_xc_x_slice
I0130 17:57:41.179518 57854 net.cpp:120] Top shape: 1 8 1024 (8192)
I0130 17:57:41.179527 57854 net.cpp:120] Top shape: 1 8 1024 (8192)
I0130 17:57:41.179536 57854 net.cpp:120] Top shape: 1 8 1024 (8192)
I0130 17:57:41.179545 57854 net.cpp:120] Top shape: 1 8 1024 (8192)
I0130 17:57:41.179556 57854 net.cpp:120] Top shape: 1 8 1024 (8192)
I0130 17:57:41.179565 57854 net.cpp:120] Top shape: 1 8 1024 (8192)
I0130 17:57:41.179575 57854 net.cpp:120] Top shape: 1 8 1024 (8192)
I0130 17:57:41.179584 57854 net.cpp:120] Top shape: 1 8 1024 (8192)
I0130 17:57:41.179594 57854 net.cpp:120] Top shape: 1 8 1024 (8192)
I0130 17:57:41.179605 57854 net.cpp:120] Top shape: 1 8 1024 (8192)
I0130 17:57:41.179615 57854 net.cpp:120] Top shape: 1 8 1024 (8192)
I0130 17:57:41.179625 57854 net.cpp:120] Top shape: 1 8 1024 (8192)
I0130 17:57:41.179633 57854 net.cpp:120] Top shape: 1 8 1024 (8192)
I0130 17:57:41.179643 57854 net.cpp:120] Top shape: 1 8 1024 (8192)
I0130 17:57:41.179652 57854 net.cpp:120] Top shape: 1 8 1024 (8192)
I0130 17:57:41.179662 57854 net.cpp:120] Top shape: 1 8 1024 (8192)
I0130 17:57:41.179672 57854 net.cpp:120] Top shape: 1 8 1024 (8192)
I0130 17:57:41.179682 57854 net.cpp:120] Top shape: 1 8 1024 (8192)
I0130 17:57:41.179689 57854 layer_factory.hpp:74] Creating layer lstm1_h_conted_0
I0130 17:57:41.179702 57854 net.cpp:84] Creating Layer lstm1_h_conted_0
I0130 17:57:41.179710 57854 net.cpp:381] lstm1_h_conted_0 <- h_0
I0130 17:57:41.179724 57854 net.cpp:381] lstm1_h_conted_0 <- cont_1_lstm1_cont_slice_0_split_0
I0130 17:57:41.179739 57854 net.cpp:339] lstm1_h_conted_0 -> h_conted_0
I0130 17:57:41.179751 57854 net.cpp:113] Setting up lstm1_h_conted_0
I0130 17:57:41.179764 57854 net.cpp:120] Top shape: 1 8 256 (2048)
I0130 17:57:41.179774 57854 layer_factory.hpp:74] Creating layer lstm1_transform_1
I0130 17:57:41.179787 57854 net.cpp:84] Creating Layer lstm1_transform_1
I0130 17:57:41.179796 57854 net.cpp:381] lstm1_transform_1 <- h_conted_0
I0130 17:57:41.179808 57854 net.cpp:339] lstm1_transform_1 -> W_hc_h_0
I0130 17:57:41.179822 57854 net.cpp:113] Setting up lstm1_transform_1
I0130 17:57:41.182613 57854 net.cpp:120] Top shape: 1 8 1024 (8192)
I0130 17:57:41.182632 57854 layer_factory.hpp:74] Creating layer lstm1_gate_input_1
I0130 17:57:41.182644 57854 net.cpp:84] Creating Layer lstm1_gate_input_1
I0130 17:57:41.182652 57854 net.cpp:381] lstm1_gate_input_1 <- W_hc_h_0
I0130 17:57:41.182662 57854 net.cpp:381] lstm1_gate_input_1 <- W_xc_x_1
I0130 17:57:41.182673 57854 net.cpp:339] lstm1_gate_input_1 -> gate_input_1
I0130 17:57:41.182687 57854 net.cpp:113] Setting up lstm1_gate_input_1
I0130 17:57:41.182703 57854 net.cpp:120] Top shape: 1 8 1024 (8192)
I0130 17:57:41.182711 57854 layer_factory.hpp:74] Creating layer lstm1_unit_1
I0130 17:57:41.182723 57854 net.cpp:84] Creating Layer lstm1_unit_1
I0130 17:57:41.182732 57854 net.cpp:381] lstm1_unit_1 <- c_0
I0130 17:57:41.182741 57854 net.cpp:381] lstm1_unit_1 <- gate_input_1
I0130 17:57:41.182752 57854 net.cpp:381] lstm1_unit_1 <- cont_1_lstm1_cont_slice_0_split_1
I0130 17:57:41.182765 57854 net.cpp:339] lstm1_unit_1 -> c_1
I0130 17:57:41.182780 57854 net.cpp:339] lstm1_unit_1 -> h_1
I0130 17:57:41.182793 57854 net.cpp:113] Setting up lstm1_unit_1
I0130 17:57:41.182809 57854 net.cpp:120] Top shape: 1 8 256 (2048)
I0130 17:57:41.182821 57854 net.cpp:120] Top shape: 1 8 256 (2048)
I0130 17:57:41.182826 57854 layer_factory.hpp:74] Creating layer h_1_lstm1_unit_1_1_split
I0130 17:57:41.182837 57854 net.cpp:84] Creating Layer h_1_lstm1_unit_1_1_split
I0130 17:57:41.182847 57854 net.cpp:381] h_1_lstm1_unit_1_1_split <- h_1
I0130 17:57:41.182857 57854 net.cpp:339] h_1_lstm1_unit_1_1_split -> h_1_lstm1_unit_1_1_split_0
I0130 17:57:41.182873 57854 net.cpp:339] h_1_lstm1_unit_1_1_split -> h_1_lstm1_unit_1_1_split_1
I0130 17:57:41.182888 57854 net.cpp:113] Setting up h_1_lstm1_unit_1_1_split
I0130 17:57:41.182900 57854 net.cpp:120] Top shape: 1 8 256 (2048)
I0130 17:57:41.182911 57854 net.cpp:120] Top shape: 1 8 256 (2048)
I0130 17:57:41.182921 57854 layer_factory.hpp:74] Creating layer lstm1_h_conted_1
I0130 17:57:41.182932 57854 net.cpp:84] Creating Layer lstm1_h_conted_1
I0130 17:57:41.182941 57854 net.cpp:381] lstm1_h_conted_1 <- h_1_lstm1_unit_1_1_split_0
I0130 17:57:41.182951 57854 net.cpp:381] lstm1_h_conted_1 <- cont_2_lstm1_cont_slice_1_split_0
I0130 17:57:41.182962 57854 net.cpp:339] lstm1_h_conted_1 -> h_conted_1
I0130 17:57:41.182974 57854 net.cpp:113] Setting up lstm1_h_conted_1
I0130 17:57:41.182988 57854 net.cpp:120] Top shape: 1 8 256 (2048)
I0130 17:57:41.182996 57854 layer_factory.hpp:74] Creating layer lstm1_transform_2
I0130 17:57:41.183008 57854 net.cpp:84] Creating Layer lstm1_transform_2
I0130 17:57:41.183017 57854 net.cpp:381] lstm1_transform_2 <- h_conted_1
I0130 17:57:41.183029 57854 net.cpp:339] lstm1_transform_2 -> W_hc_h_1
I0130 17:57:41.183043 57854 net.cpp:113] Setting up lstm1_transform_2
I0130 17:57:41.185914 57854 net.cpp:120] Top shape: 1 8 1024 (8192)
I0130 17:57:41.185930 57854 net.cpp:425] Sharing parameters 'W_hc' owned by layer 'lstm1_transform_1', param index 0
I0130 17:57:41.185938 57854 layer_factory.hpp:74] Creating layer lstm1_gate_input_2
I0130 17:57:41.185950 57854 net.cpp:84] Creating Layer lstm1_gate_input_2
I0130 17:57:41.185957 57854 net.cpp:381] lstm1_gate_input_2 <- W_hc_h_1
I0130 17:57:41.185966 57854 net.cpp:381] lstm1_gate_input_2 <- W_xc_x_2
I0130 17:57:41.185979 57854 net.cpp:339] lstm1_gate_input_2 -> gate_input_2
I0130 17:57:41.185994 57854 net.cpp:113] Setting up lstm1_gate_input_2
I0130 17:57:41.186007 57854 net.cpp:120] Top shape: 1 8 1024 (8192)
I0130 17:57:41.186014 57854 layer_factory.hpp:74] Creating layer lstm1_unit_2
I0130 17:57:41.186024 57854 net.cpp:84] Creating Layer lstm1_unit_2
I0130 17:57:41.186031 57854 net.cpp:381] lstm1_unit_2 <- c_1
I0130 17:57:41.186040 57854 net.cpp:381] lstm1_unit_2 <- gate_input_2
I0130 17:57:41.186049 57854 net.cpp:381] lstm1_unit_2 <- cont_2_lstm1_cont_slice_1_split_1
I0130 17:57:41.186062 57854 net.cpp:339] lstm1_unit_2 -> c_2
I0130 17:57:41.186079 57854 net.cpp:339] lstm1_unit_2 -> h_2
I0130 17:57:41.186091 57854 net.cpp:113] Setting up lstm1_unit_2
I0130 17:57:41.186106 57854 net.cpp:120] Top shape: 1 8 256 (2048)
I0130 17:57:41.186117 57854 net.cpp:120] Top shape: 1 8 256 (2048)
I0130 17:57:41.186123 57854 layer_factory.hpp:74] Creating layer h_2_lstm1_unit_2_1_split
I0130 17:57:41.186133 57854 net.cpp:84] Creating Layer h_2_lstm1_unit_2_1_split
I0130 17:57:41.186143 57854 net.cpp:381] h_2_lstm1_unit_2_1_split <- h_2
I0130 17:57:41.186154 57854 net.cpp:339] h_2_lstm1_unit_2_1_split -> h_2_lstm1_unit_2_1_split_0
I0130 17:57:41.186169 57854 net.cpp:339] h_2_lstm1_unit_2_1_split -> h_2_lstm1_unit_2_1_split_1
I0130 17:57:41.186183 57854 net.cpp:113] Setting up h_2_lstm1_unit_2_1_split
I0130 17:57:41.186197 57854 net.cpp:120] Top shape: 1 8 256 (2048)
I0130 17:57:41.186208 57854 net.cpp:120] Top shape: 1 8 256 (2048)
I0130 17:57:41.186214 57854 layer_factory.hpp:74] Creating layer lstm1_h_conted_2
I0130 17:57:41.186226 57854 net.cpp:84] Creating Layer lstm1_h_conted_2
I0130 17:57:41.186233 57854 net.cpp:381] lstm1_h_conted_2 <- h_2_lstm1_unit_2_1_split_0
I0130 17:57:41.186242 57854 net.cpp:381] lstm1_h_conted_2 <- cont_3_lstm1_cont_slice_2_split_0
I0130 17:57:41.186254 57854 net.cpp:339] lstm1_h_conted_2 -> h_conted_2
I0130 17:57:41.186266 57854 net.cpp:113] Setting up lstm1_h_conted_2
I0130 17:57:41.186280 57854 net.cpp:120] Top shape: 1 8 256 (2048)
I0130 17:57:41.186288 57854 layer_factory.hpp:74] Creating layer lstm1_transform_3
I0130 17:57:41.186311 57854 net.cpp:84] Creating Layer lstm1_transform_3
I0130 17:57:41.186319 57854 net.cpp:381] lstm1_transform_3 <- h_conted_2
I0130 17:57:41.186331 57854 net.cpp:339] lstm1_transform_3 -> W_hc_h_2
I0130 17:57:41.186344 57854 net.cpp:113] Setting up lstm1_transform_3
I0130 17:57:41.188699 57854 net.cpp:120] Top shape: 1 8 1024 (8192)
I0130 17:57:41.188714 57854 net.cpp:425] Sharing parameters 'W_hc' owned by layer 'lstm1_transform_1', param index 0
I0130 17:57:41.188721 57854 layer_factory.hpp:74] Creating layer lstm1_gate_input_3
I0130 17:57:41.188731 57854 net.cpp:84] Creating Layer lstm1_gate_input_3
I0130 17:57:41.188740 57854 net.cpp:381] lstm1_gate_input_3 <- W_hc_h_2
I0130 17:57:41.188752 57854 net.cpp:381] lstm1_gate_input_3 <- W_xc_x_3
I0130 17:57:41.188766 57854 net.cpp:339] lstm1_gate_input_3 -> gate_input_3
I0130 17:57:41.188781 57854 net.cpp:113] Setting up lstm1_gate_input_3
I0130 17:57:41.188793 57854 net.cpp:120] Top shape: 1 8 1024 (8192)
I0130 17:57:41.188802 57854 layer_factory.hpp:74] Creating layer lstm1_unit_3
I0130 17:57:41.188812 57854 net.cpp:84] Creating Layer lstm1_unit_3
I0130 17:57:41.188822 57854 net.cpp:381] lstm1_unit_3 <- c_2
I0130 17:57:41.188830 57854 net.cpp:381] lstm1_unit_3 <- gate_input_3
I0130 17:57:41.188839 57854 net.cpp:381] lstm1_unit_3 <- cont_3_lstm1_cont_slice_2_split_1
I0130 17:57:41.188851 57854 net.cpp:339] lstm1_unit_3 -> c_3
I0130 17:57:41.188866 57854 net.cpp:339] lstm1_unit_3 -> h_3
I0130 17:57:41.188879 57854 net.cpp:113] Setting up lstm1_unit_3
I0130 17:57:41.188894 57854 net.cpp:120] Top shape: 1 8 256 (2048)
I0130 17:57:41.188905 57854 net.cpp:120] Top shape: 1 8 256 (2048)
I0130 17:57:41.188911 57854 layer_factory.hpp:74] Creating layer h_3_lstm1_unit_3_1_split
I0130 17:57:41.188921 57854 net.cpp:84] Creating Layer h_3_lstm1_unit_3_1_split
I0130 17:57:41.188930 57854 net.cpp:381] h_3_lstm1_unit_3_1_split <- h_3
I0130 17:57:41.188941 57854 net.cpp:339] h_3_lstm1_unit_3_1_split -> h_3_lstm1_unit_3_1_split_0
I0130 17:57:41.188956 57854 net.cpp:339] h_3_lstm1_unit_3_1_split -> h_3_lstm1_unit_3_1_split_1
I0130 17:57:41.188969 57854 net.cpp:113] Setting up h_3_lstm1_unit_3_1_split
I0130 17:57:41.188982 57854 net.cpp:120] Top shape: 1 8 256 (2048)
I0130 17:57:41.188989 57854 net.cpp:120] Top shape: 1 8 256 (2048)
I0130 17:57:41.188997 57854 layer_factory.hpp:74] Creating layer lstm1_h_conted_3
I0130 17:57:41.189007 57854 net.cpp:84] Creating Layer lstm1_h_conted_3
I0130 17:57:41.189015 57854 net.cpp:381] lstm1_h_conted_3 <- h_3_lstm1_unit_3_1_split_0
I0130 17:57:41.189024 57854 net.cpp:381] lstm1_h_conted_3 <- cont_4_lstm1_cont_slice_3_split_0
I0130 17:57:41.189038 57854 net.cpp:339] lstm1_h_conted_3 -> h_conted_3
I0130 17:57:41.189051 57854 net.cpp:113] Setting up lstm1_h_conted_3
I0130 17:57:41.189064 57854 net.cpp:120] Top shape: 1 8 256 (2048)
I0130 17:57:41.189074 57854 layer_factory.hpp:74] Creating layer lstm1_transform_4
I0130 17:57:41.189085 57854 net.cpp:84] Creating Layer lstm1_transform_4
I0130 17:57:41.189093 57854 net.cpp:381] lstm1_transform_4 <- h_conted_3
I0130 17:57:41.189105 57854 net.cpp:339] lstm1_transform_4 -> W_hc_h_3
I0130 17:57:41.189118 57854 net.cpp:113] Setting up lstm1_transform_4
I0130 17:57:41.191457 57854 net.cpp:120] Top shape: 1 8 1024 (8192)
I0130 17:57:41.191468 57854 net.cpp:425] Sharing parameters 'W_hc' owned by layer 'lstm1_transform_1', param index 0
I0130 17:57:41.191474 57854 layer_factory.hpp:74] Creating layer lstm1_gate_input_4
I0130 17:57:41.191485 57854 net.cpp:84] Creating Layer lstm1_gate_input_4
I0130 17:57:41.191493 57854 net.cpp:381] lstm1_gate_input_4 <- W_hc_h_3
I0130 17:57:41.191501 57854 net.cpp:381] lstm1_gate_input_4 <- W_xc_x_4
I0130 17:57:41.191512 57854 net.cpp:339] lstm1_gate_input_4 -> gate_input_4
I0130 17:57:41.191525 57854 net.cpp:113] Setting up lstm1_gate_input_4
I0130 17:57:41.191539 57854 net.cpp:120] Top shape: 1 8 1024 (8192)
I0130 17:57:41.191547 57854 layer_factory.hpp:74] Creating layer lstm1_unit_4
I0130 17:57:41.191557 57854 net.cpp:84] Creating Layer lstm1_unit_4
I0130 17:57:41.191566 57854 net.cpp:381] lstm1_unit_4 <- c_3
I0130 17:57:41.191576 57854 net.cpp:381] lstm1_unit_4 <- gate_input_4
I0130 17:57:41.191584 57854 net.cpp:381] lstm1_unit_4 <- cont_4_lstm1_cont_slice_3_split_1
I0130 17:57:41.191596 57854 net.cpp:339] lstm1_unit_4 -> c_4
I0130 17:57:41.191610 57854 net.cpp:339] lstm1_unit_4 -> h_4
I0130 17:57:41.191622 57854 net.cpp:113] Setting up lstm1_unit_4
I0130 17:57:41.191637 57854 net.cpp:120] Top shape: 1 8 256 (2048)
I0130 17:57:41.191648 57854 net.cpp:120] Top shape: 1 8 256 (2048)
I0130 17:57:41.191655 57854 layer_factory.hpp:74] Creating layer h_4_lstm1_unit_4_1_split
I0130 17:57:41.191664 57854 net.cpp:84] Creating Layer h_4_lstm1_unit_4_1_split
I0130 17:57:41.191673 57854 net.cpp:381] h_4_lstm1_unit_4_1_split <- h_4
I0130 17:57:41.191684 57854 net.cpp:339] h_4_lstm1_unit_4_1_split -> h_4_lstm1_unit_4_1_split_0
I0130 17:57:41.191699 57854 net.cpp:339] h_4_lstm1_unit_4_1_split -> h_4_lstm1_unit_4_1_split_1
I0130 17:57:41.191712 57854 net.cpp:113] Setting up h_4_lstm1_unit_4_1_split
I0130 17:57:41.191725 57854 net.cpp:120] Top shape: 1 8 256 (2048)
I0130 17:57:41.191736 57854 net.cpp:120] Top shape: 1 8 256 (2048)
I0130 17:57:41.191743 57854 layer_factory.hpp:74] Creating layer lstm1_h_conted_4
I0130 17:57:41.191753 57854 net.cpp:84] Creating Layer lstm1_h_conted_4
I0130 17:57:41.191762 57854 net.cpp:381] lstm1_h_conted_4 <- h_4_lstm1_unit_4_1_split_0
I0130 17:57:41.191771 57854 net.cpp:381] lstm1_h_conted_4 <- cont_5_lstm1_cont_slice_4_split_0
I0130 17:57:41.191782 57854 net.cpp:339] lstm1_h_conted_4 -> h_conted_4
I0130 17:57:41.191794 57854 net.cpp:113] Setting up lstm1_h_conted_4
I0130 17:57:41.191807 57854 net.cpp:120] Top shape: 1 8 256 (2048)
I0130 17:57:41.191815 57854 layer_factory.hpp:74] Creating layer lstm1_transform_5
I0130 17:57:41.191826 57854 net.cpp:84] Creating Layer lstm1_transform_5
I0130 17:57:41.191836 57854 net.cpp:381] lstm1_transform_5 <- h_conted_4
I0130 17:57:41.191848 57854 net.cpp:339] lstm1_transform_5 -> W_hc_h_4
I0130 17:57:41.191861 57854 net.cpp:113] Setting up lstm1_transform_5
I0130 17:57:41.194208 57854 net.cpp:120] Top shape: 1 8 1024 (8192)
I0130 17:57:41.194221 57854 net.cpp:425] Sharing parameters 'W_hc' owned by layer 'lstm1_transform_1', param index 0
I0130 17:57:41.194228 57854 layer_factory.hpp:74] Creating layer lstm1_gate_input_5
I0130 17:57:41.194239 57854 net.cpp:84] Creating Layer lstm1_gate_input_5
I0130 17:57:41.194249 57854 net.cpp:381] lstm1_gate_input_5 <- W_hc_h_4
I0130 17:57:41.194258 57854 net.cpp:381] lstm1_gate_input_5 <- W_xc_x_5
I0130 17:57:41.194269 57854 net.cpp:339] lstm1_gate_input_5 -> gate_input_5
I0130 17:57:41.194283 57854 net.cpp:113] Setting up lstm1_gate_input_5
I0130 17:57:41.194295 57854 net.cpp:120] Top shape: 1 8 1024 (8192)
I0130 17:57:41.194303 57854 layer_factory.hpp:74] Creating layer lstm1_unit_5
I0130 17:57:41.194317 57854 net.cpp:84] Creating Layer lstm1_unit_5
I0130 17:57:41.194326 57854 net.cpp:381] lstm1_unit_5 <- c_4
I0130 17:57:41.194335 57854 net.cpp:381] lstm1_unit_5 <- gate_input_5
I0130 17:57:41.194344 57854 net.cpp:381] lstm1_unit_5 <- cont_5_lstm1_cont_slice_4_split_1
I0130 17:57:41.194356 57854 net.cpp:339] lstm1_unit_5 -> c_5
I0130 17:57:41.194371 57854 net.cpp:339] lstm1_unit_5 -> h_5
I0130 17:57:41.194383 57854 net.cpp:113] Setting up lstm1_unit_5
I0130 17:57:41.194398 57854 net.cpp:120] Top shape: 1 8 256 (2048)
I0130 17:57:41.194408 57854 net.cpp:120] Top shape: 1 8 256 (2048)
I0130 17:57:41.194416 57854 layer_factory.hpp:74] Creating layer h_5_lstm1_unit_5_1_split
I0130 17:57:41.194424 57854 net.cpp:84] Creating Layer h_5_lstm1_unit_5_1_split
I0130 17:57:41.194432 57854 net.cpp:381] h_5_lstm1_unit_5_1_split <- h_5
I0130 17:57:41.194442 57854 net.cpp:339] h_5_lstm1_unit_5_1_split -> h_5_lstm1_unit_5_1_split_0
I0130 17:57:41.194456 57854 net.cpp:339] h_5_lstm1_unit_5_1_split -> h_5_lstm1_unit_5_1_split_1
I0130 17:57:41.194470 57854 net.cpp:113] Setting up h_5_lstm1_unit_5_1_split
I0130 17:57:41.194483 57854 net.cpp:120] Top shape: 1 8 256 (2048)
I0130 17:57:41.194494 57854 net.cpp:120] Top shape: 1 8 256 (2048)
I0130 17:57:41.194502 57854 layer_factory.hpp:74] Creating layer lstm1_h_conted_5
I0130 17:57:41.194512 57854 net.cpp:84] Creating Layer lstm1_h_conted_5
I0130 17:57:41.194521 57854 net.cpp:381] lstm1_h_conted_5 <- h_5_lstm1_unit_5_1_split_0
I0130 17:57:41.194531 57854 net.cpp:381] lstm1_h_conted_5 <- cont_6_lstm1_cont_slice_5_split_0
I0130 17:57:41.194545 57854 net.cpp:339] lstm1_h_conted_5 -> h_conted_5
I0130 17:57:41.194557 57854 net.cpp:113] Setting up lstm1_h_conted_5
I0130 17:57:41.194569 57854 net.cpp:120] Top shape: 1 8 256 (2048)
I0130 17:57:41.194579 57854 layer_factory.hpp:74] Creating layer lstm1_transform_6
I0130 17:57:41.194591 57854 net.cpp:84] Creating Layer lstm1_transform_6
I0130 17:57:41.194599 57854 net.cpp:381] lstm1_transform_6 <- h_conted_5
I0130 17:57:41.194610 57854 net.cpp:339] lstm1_transform_6 -> W_hc_h_5
I0130 17:57:41.194623 57854 net.cpp:113] Setting up lstm1_transform_6
I0130 17:57:41.197068 57854 net.cpp:120] Top shape: 1 8 1024 (8192)
I0130 17:57:41.197083 57854 net.cpp:425] Sharing parameters 'W_hc' owned by layer 'lstm1_transform_1', param index 0
I0130 17:57:41.197090 57854 layer_factory.hpp:74] Creating layer lstm1_gate_input_6
I0130 17:57:41.197101 57854 net.cpp:84] Creating Layer lstm1_gate_input_6
I0130 17:57:41.197108 57854 net.cpp:381] lstm1_gate_input_6 <- W_hc_h_5
I0130 17:57:41.197118 57854 net.cpp:381] lstm1_gate_input_6 <- W_xc_x_6
I0130 17:57:41.197131 57854 net.cpp:339] lstm1_gate_input_6 -> gate_input_6
I0130 17:57:41.197145 57854 net.cpp:113] Setting up lstm1_gate_input_6
I0130 17:57:41.197160 57854 net.cpp:120] Top shape: 1 8 1024 (8192)
I0130 17:57:41.197167 57854 layer_factory.hpp:74] Creating layer lstm1_unit_6
I0130 17:57:41.197177 57854 net.cpp:84] Creating Layer lstm1_unit_6
I0130 17:57:41.197185 57854 net.cpp:381] lstm1_unit_6 <- c_5
I0130 17:57:41.197193 57854 net.cpp:381] lstm1_unit_6 <- gate_input_6
I0130 17:57:41.197203 57854 net.cpp:381] lstm1_unit_6 <- cont_6_lstm1_cont_slice_5_split_1
I0130 17:57:41.197214 57854 net.cpp:339] lstm1_unit_6 -> c_6
I0130 17:57:41.197227 57854 net.cpp:339] lstm1_unit_6 -> h_6
I0130 17:57:41.197237 57854 net.cpp:113] Setting up lstm1_unit_6
I0130 17:57:41.197249 57854 net.cpp:120] Top shape: 1 8 256 (2048)
I0130 17:57:41.197262 57854 net.cpp:120] Top shape: 1 8 256 (2048)
I0130 17:57:41.197268 57854 layer_factory.hpp:74] Creating layer h_6_lstm1_unit_6_1_split
I0130 17:57:41.197278 57854 net.cpp:84] Creating Layer h_6_lstm1_unit_6_1_split
I0130 17:57:41.197288 57854 net.cpp:381] h_6_lstm1_unit_6_1_split <- h_6
I0130 17:57:41.197298 57854 net.cpp:339] h_6_lstm1_unit_6_1_split -> h_6_lstm1_unit_6_1_split_0
I0130 17:57:41.197310 57854 net.cpp:339] h_6_lstm1_unit_6_1_split -> h_6_lstm1_unit_6_1_split_1
I0130 17:57:41.197324 57854 net.cpp:113] Setting up h_6_lstm1_unit_6_1_split
I0130 17:57:41.197336 57854 net.cpp:120] Top shape: 1 8 256 (2048)
I0130 17:57:41.197347 57854 net.cpp:120] Top shape: 1 8 256 (2048)
I0130 17:57:41.197355 57854 layer_factory.hpp:74] Creating layer lstm1_h_conted_6
I0130 17:57:41.197365 57854 net.cpp:84] Creating Layer lstm1_h_conted_6
I0130 17:57:41.197373 57854 net.cpp:381] lstm1_h_conted_6 <- h_6_lstm1_unit_6_1_split_0
I0130 17:57:41.197382 57854 net.cpp:381] lstm1_h_conted_6 <- cont_7_lstm1_cont_slice_6_split_0
I0130 17:57:41.197393 57854 net.cpp:339] lstm1_h_conted_6 -> h_conted_6
I0130 17:57:41.197405 57854 net.cpp:113] Setting up lstm1_h_conted_6
I0130 17:57:41.197418 57854 net.cpp:120] Top shape: 1 8 256 (2048)
I0130 17:57:41.197427 57854 layer_factory.hpp:74] Creating layer lstm1_transform_7
I0130 17:57:41.197438 57854 net.cpp:84] Creating Layer lstm1_transform_7
I0130 17:57:41.197448 57854 net.cpp:381] lstm1_transform_7 <- h_conted_6
I0130 17:57:41.197458 57854 net.cpp:339] lstm1_transform_7 -> W_hc_h_6
I0130 17:57:41.197471 57854 net.cpp:113] Setting up lstm1_transform_7
I0130 17:57:41.200139 57854 net.cpp:120] Top shape: 1 8 1024 (8192)
I0130 17:57:41.200157 57854 net.cpp:425] Sharing parameters 'W_hc' owned by layer 'lstm1_transform_1', param index 0
I0130 17:57:41.200165 57854 layer_factory.hpp:74] Creating layer lstm1_gate_input_7
I0130 17:57:41.200176 57854 net.cpp:84] Creating Layer lstm1_gate_input_7
I0130 17:57:41.200183 57854 net.cpp:381] lstm1_gate_input_7 <- W_hc_h_6
I0130 17:57:41.200192 57854 net.cpp:381] lstm1_gate_input_7 <- W_xc_x_7
I0130 17:57:41.200206 57854 net.cpp:339] lstm1_gate_input_7 -> gate_input_7
I0130 17:57:41.200219 57854 net.cpp:113] Setting up lstm1_gate_input_7
I0130 17:57:41.200232 57854 net.cpp:120] Top shape: 1 8 1024 (8192)
I0130 17:57:41.200242 57854 layer_factory.hpp:74] Creating layer lstm1_unit_7
I0130 17:57:41.200251 57854 net.cpp:84] Creating Layer lstm1_unit_7
I0130 17:57:41.200260 57854 net.cpp:381] lstm1_unit_7 <- c_6
I0130 17:57:41.200268 57854 net.cpp:381] lstm1_unit_7 <- gate_input_7
I0130 17:57:41.200278 57854 net.cpp:381] lstm1_unit_7 <- cont_7_lstm1_cont_slice_6_split_1
I0130 17:57:41.200287 57854 net.cpp:339] lstm1_unit_7 -> c_7
I0130 17:57:41.200301 57854 net.cpp:339] lstm1_unit_7 -> h_7
I0130 17:57:41.200314 57854 net.cpp:113] Setting up lstm1_unit_7
I0130 17:57:41.200328 57854 net.cpp:120] Top shape: 1 8 256 (2048)
I0130 17:57:41.200340 57854 net.cpp:120] Top shape: 1 8 256 (2048)
I0130 17:57:41.200346 57854 layer_factory.hpp:74] Creating layer h_7_lstm1_unit_7_1_split
I0130 17:57:41.200356 57854 net.cpp:84] Creating Layer h_7_lstm1_unit_7_1_split
I0130 17:57:41.200364 57854 net.cpp:381] h_7_lstm1_unit_7_1_split <- h_7
I0130 17:57:41.200376 57854 net.cpp:339] h_7_lstm1_unit_7_1_split -> h_7_lstm1_unit_7_1_split_0
I0130 17:57:41.200389 57854 net.cpp:339] h_7_lstm1_unit_7_1_split -> h_7_lstm1_unit_7_1_split_1
I0130 17:57:41.200403 57854 net.cpp:113] Setting up h_7_lstm1_unit_7_1_split
I0130 17:57:41.200417 57854 net.cpp:120] Top shape: 1 8 256 (2048)
I0130 17:57:41.200426 57854 net.cpp:120] Top shape: 1 8 256 (2048)
I0130 17:57:41.200433 57854 layer_factory.hpp:74] Creating layer lstm1_h_conted_7
I0130 17:57:41.200443 57854 net.cpp:84] Creating Layer lstm1_h_conted_7
I0130 17:57:41.200451 57854 net.cpp:381] lstm1_h_conted_7 <- h_7_lstm1_unit_7_1_split_0
I0130 17:57:41.200460 57854 net.cpp:381] lstm1_h_conted_7 <- cont_8_lstm1_cont_slice_7_split_0
I0130 17:57:41.200471 57854 net.cpp:339] lstm1_h_conted_7 -> h_conted_7
I0130 17:57:41.200481 57854 net.cpp:113] Setting up lstm1_h_conted_7
I0130 17:57:41.200492 57854 net.cpp:120] Top shape: 1 8 256 (2048)
I0130 17:57:41.200501 57854 layer_factory.hpp:74] Creating layer lstm1_transform_8
I0130 17:57:41.200512 57854 net.cpp:84] Creating Layer lstm1_transform_8
I0130 17:57:41.200520 57854 net.cpp:381] lstm1_transform_8 <- h_conted_7
I0130 17:57:41.200529 57854 net.cpp:339] lstm1_transform_8 -> W_hc_h_7
I0130 17:57:41.200542 57854 net.cpp:113] Setting up lstm1_transform_8
I0130 17:57:41.203213 57854 net.cpp:120] Top shape: 1 8 1024 (8192)
I0130 17:57:41.203228 57854 net.cpp:425] Sharing parameters 'W_hc' owned by layer 'lstm1_transform_1', param index 0
I0130 17:57:41.203235 57854 layer_factory.hpp:74] Creating layer lstm1_gate_input_8
I0130 17:57:41.203246 57854 net.cpp:84] Creating Layer lstm1_gate_input_8
I0130 17:57:41.203253 57854 net.cpp:381] lstm1_gate_input_8 <- W_hc_h_7
I0130 17:57:41.203263 57854 net.cpp:381] lstm1_gate_input_8 <- W_xc_x_8
I0130 17:57:41.203277 57854 net.cpp:339] lstm1_gate_input_8 -> gate_input_8
I0130 17:57:41.203311 57854 net.cpp:113] Setting up lstm1_gate_input_8
I0130 17:57:41.203325 57854 net.cpp:120] Top shape: 1 8 1024 (8192)
I0130 17:57:41.203333 57854 layer_factory.hpp:74] Creating layer lstm1_unit_8
I0130 17:57:41.203343 57854 net.cpp:84] Creating Layer lstm1_unit_8
I0130 17:57:41.203353 57854 net.cpp:381] lstm1_unit_8 <- c_7
I0130 17:57:41.203362 57854 net.cpp:381] lstm1_unit_8 <- gate_input_8
I0130 17:57:41.203373 57854 net.cpp:381] lstm1_unit_8 <- cont_8_lstm1_cont_slice_7_split_1
I0130 17:57:41.203384 57854 net.cpp:339] lstm1_unit_8 -> c_8
I0130 17:57:41.203399 57854 net.cpp:339] lstm1_unit_8 -> h_8
I0130 17:57:41.203413 57854 net.cpp:113] Setting up lstm1_unit_8
I0130 17:57:41.203428 57854 net.cpp:120] Top shape: 1 8 256 (2048)
I0130 17:57:41.203438 57854 net.cpp:120] Top shape: 1 8 256 (2048)
I0130 17:57:41.203445 57854 layer_factory.hpp:74] Creating layer h_8_lstm1_unit_8_1_split
I0130 17:57:41.203455 57854 net.cpp:84] Creating Layer h_8_lstm1_unit_8_1_split
I0130 17:57:41.203464 57854 net.cpp:381] h_8_lstm1_unit_8_1_split <- h_8
I0130 17:57:41.203475 57854 net.cpp:339] h_8_lstm1_unit_8_1_split -> h_8_lstm1_unit_8_1_split_0
I0130 17:57:41.203490 57854 net.cpp:339] h_8_lstm1_unit_8_1_split -> h_8_lstm1_unit_8_1_split_1
I0130 17:57:41.203505 57854 net.cpp:113] Setting up h_8_lstm1_unit_8_1_split
I0130 17:57:41.203518 57854 net.cpp:120] Top shape: 1 8 256 (2048)
I0130 17:57:41.203528 57854 net.cpp:120] Top shape: 1 8 256 (2048)
I0130 17:57:41.203536 57854 layer_factory.hpp:74] Creating layer lstm1_h_conted_8
I0130 17:57:41.203544 57854 net.cpp:84] Creating Layer lstm1_h_conted_8
I0130 17:57:41.203554 57854 net.cpp:381] lstm1_h_conted_8 <- h_8_lstm1_unit_8_1_split_0
I0130 17:57:41.203563 57854 net.cpp:381] lstm1_h_conted_8 <- cont_9_lstm1_cont_slice_8_split_0
I0130 17:57:41.203577 57854 net.cpp:339] lstm1_h_conted_8 -> h_conted_8
I0130 17:57:41.203589 57854 net.cpp:113] Setting up lstm1_h_conted_8
I0130 17:57:41.203603 57854 net.cpp:120] Top shape: 1 8 256 (2048)
I0130 17:57:41.203611 57854 layer_factory.hpp:74] Creating layer lstm1_transform_9
I0130 17:57:41.203624 57854 net.cpp:84] Creating Layer lstm1_transform_9
I0130 17:57:41.203630 57854 net.cpp:381] lstm1_transform_9 <- h_conted_8
I0130 17:57:41.203642 57854 net.cpp:339] lstm1_transform_9 -> W_hc_h_8
I0130 17:57:41.203656 57854 net.cpp:113] Setting up lstm1_transform_9
I0130 17:57:41.206332 57854 net.cpp:120] Top shape: 1 8 1024 (8192)
I0130 17:57:41.206346 57854 net.cpp:425] Sharing parameters 'W_hc' owned by layer 'lstm1_transform_1', param index 0
I0130 17:57:41.206353 57854 layer_factory.hpp:74] Creating layer lstm1_gate_input_9
I0130 17:57:41.206363 57854 net.cpp:84] Creating Layer lstm1_gate_input_9
I0130 17:57:41.206370 57854 net.cpp:381] lstm1_gate_input_9 <- W_hc_h_8
I0130 17:57:41.206379 57854 net.cpp:381] lstm1_gate_input_9 <- W_xc_x_9
I0130 17:57:41.206393 57854 net.cpp:339] lstm1_gate_input_9 -> gate_input_9
I0130 17:57:41.206405 57854 net.cpp:113] Setting up lstm1_gate_input_9
I0130 17:57:41.206416 57854 net.cpp:120] Top shape: 1 8 1024 (8192)
I0130 17:57:41.206425 57854 layer_factory.hpp:74] Creating layer lstm1_unit_9
I0130 17:57:41.206452 57854 net.cpp:84] Creating Layer lstm1_unit_9
I0130 17:57:41.206459 57854 net.cpp:381] lstm1_unit_9 <- c_8
I0130 17:57:41.206470 57854 net.cpp:381] lstm1_unit_9 <- gate_input_9
I0130 17:57:41.206477 57854 net.cpp:381] lstm1_unit_9 <- cont_9_lstm1_cont_slice_8_split_1
I0130 17:57:41.206491 57854 net.cpp:339] lstm1_unit_9 -> c_9
I0130 17:57:41.206507 57854 net.cpp:339] lstm1_unit_9 -> h_9
I0130 17:57:41.206521 57854 net.cpp:113] Setting up lstm1_unit_9
I0130 17:57:41.206534 57854 net.cpp:120] Top shape: 1 8 256 (2048)
I0130 17:57:41.206545 57854 net.cpp:120] Top shape: 1 8 256 (2048)
I0130 17:57:41.206553 57854 layer_factory.hpp:74] Creating layer h_9_lstm1_unit_9_1_split
I0130 17:57:41.206563 57854 net.cpp:84] Creating Layer h_9_lstm1_unit_9_1_split
I0130 17:57:41.206573 57854 net.cpp:381] h_9_lstm1_unit_9_1_split <- h_9
I0130 17:57:41.206583 57854 net.cpp:339] h_9_lstm1_unit_9_1_split -> h_9_lstm1_unit_9_1_split_0
I0130 17:57:41.206598 57854 net.cpp:339] h_9_lstm1_unit_9_1_split -> h_9_lstm1_unit_9_1_split_1
I0130 17:57:41.206611 57854 net.cpp:113] Setting up h_9_lstm1_unit_9_1_split
I0130 17:57:41.206625 57854 net.cpp:120] Top shape: 1 8 256 (2048)
I0130 17:57:41.206636 57854 net.cpp:120] Top shape: 1 8 256 (2048)
I0130 17:57:41.206642 57854 layer_factory.hpp:74] Creating layer lstm1_h_conted_9
I0130 17:57:41.206652 57854 net.cpp:84] Creating Layer lstm1_h_conted_9
I0130 17:57:41.206661 57854 net.cpp:381] lstm1_h_conted_9 <- h_9_lstm1_unit_9_1_split_0
I0130 17:57:41.206670 57854 net.cpp:381] lstm1_h_conted_9 <- cont_10_lstm1_cont_slice_9_split_0
I0130 17:57:41.206684 57854 net.cpp:339] lstm1_h_conted_9 -> h_conted_9
I0130 17:57:41.206697 57854 net.cpp:113] Setting up lstm1_h_conted_9
I0130 17:57:41.206710 57854 net.cpp:120] Top shape: 1 8 256 (2048)
I0130 17:57:41.206718 57854 layer_factory.hpp:74] Creating layer lstm1_transform_10
I0130 17:57:41.206730 57854 net.cpp:84] Creating Layer lstm1_transform_10
I0130 17:57:41.206739 57854 net.cpp:381] lstm1_transform_10 <- h_conted_9
I0130 17:57:41.206750 57854 net.cpp:339] lstm1_transform_10 -> W_hc_h_9
I0130 17:57:41.206764 57854 net.cpp:113] Setting up lstm1_transform_10
I0130 17:57:41.209450 57854 net.cpp:120] Top shape: 1 8 1024 (8192)
I0130 17:57:41.209465 57854 net.cpp:425] Sharing parameters 'W_hc' owned by layer 'lstm1_transform_1', param index 0
I0130 17:57:41.209471 57854 layer_factory.hpp:74] Creating layer lstm1_gate_input_10
I0130 17:57:41.209482 57854 net.cpp:84] Creating Layer lstm1_gate_input_10
I0130 17:57:41.209489 57854 net.cpp:381] lstm1_gate_input_10 <- W_hc_h_9
I0130 17:57:41.209498 57854 net.cpp:381] lstm1_gate_input_10 <- W_xc_x_10
I0130 17:57:41.209512 57854 net.cpp:339] lstm1_gate_input_10 -> gate_input_10
I0130 17:57:41.209527 57854 net.cpp:113] Setting up lstm1_gate_input_10
I0130 17:57:41.209539 57854 net.cpp:120] Top shape: 1 8 1024 (8192)
I0130 17:57:41.209548 57854 layer_factory.hpp:74] Creating layer lstm1_unit_10
I0130 17:57:41.209558 57854 net.cpp:84] Creating Layer lstm1_unit_10
I0130 17:57:41.209568 57854 net.cpp:381] lstm1_unit_10 <- c_9
I0130 17:57:41.209578 57854 net.cpp:381] lstm1_unit_10 <- gate_input_10
I0130 17:57:41.209589 57854 net.cpp:381] lstm1_unit_10 <- cont_10_lstm1_cont_slice_9_split_1
I0130 17:57:41.209599 57854 net.cpp:339] lstm1_unit_10 -> c_10
I0130 17:57:41.209615 57854 net.cpp:339] lstm1_unit_10 -> h_10
I0130 17:57:41.209628 57854 net.cpp:113] Setting up lstm1_unit_10
I0130 17:57:41.209643 57854 net.cpp:120] Top shape: 1 8 256 (2048)
I0130 17:57:41.209653 57854 net.cpp:120] Top shape: 1 8 256 (2048)
I0130 17:57:41.209661 57854 layer_factory.hpp:74] Creating layer h_10_lstm1_unit_10_1_split
I0130 17:57:41.209669 57854 net.cpp:84] Creating Layer h_10_lstm1_unit_10_1_split
I0130 17:57:41.209677 57854 net.cpp:381] h_10_lstm1_unit_10_1_split <- h_10
I0130 17:57:41.209687 57854 net.cpp:339] h_10_lstm1_unit_10_1_split -> h_10_lstm1_unit_10_1_split_0
I0130 17:57:41.209702 57854 net.cpp:339] h_10_lstm1_unit_10_1_split -> h_10_lstm1_unit_10_1_split_1
I0130 17:57:41.209715 57854 net.cpp:113] Setting up h_10_lstm1_unit_10_1_split
I0130 17:57:41.209728 57854 net.cpp:120] Top shape: 1 8 256 (2048)
I0130 17:57:41.209739 57854 net.cpp:120] Top shape: 1 8 256 (2048)
I0130 17:57:41.209745 57854 layer_factory.hpp:74] Creating layer lstm1_h_conted_10
I0130 17:57:41.209755 57854 net.cpp:84] Creating Layer lstm1_h_conted_10
I0130 17:57:41.209764 57854 net.cpp:381] lstm1_h_conted_10 <- h_10_lstm1_unit_10_1_split_0
I0130 17:57:41.209774 57854 net.cpp:381] lstm1_h_conted_10 <- cont_11_lstm1_cont_slice_10_split_0
I0130 17:57:41.209787 57854 net.cpp:339] lstm1_h_conted_10 -> h_conted_10
I0130 17:57:41.209800 57854 net.cpp:113] Setting up lstm1_h_conted_10
I0130 17:57:41.209813 57854 net.cpp:120] Top shape: 1 8 256 (2048)
I0130 17:57:41.209821 57854 layer_factory.hpp:74] Creating layer lstm1_transform_11
I0130 17:57:41.209833 57854 net.cpp:84] Creating Layer lstm1_transform_11
I0130 17:57:41.209842 57854 net.cpp:381] lstm1_transform_11 <- h_conted_10
I0130 17:57:41.209854 57854 net.cpp:339] lstm1_transform_11 -> W_hc_h_10
I0130 17:57:41.209867 57854 net.cpp:113] Setting up lstm1_transform_11
I0130 17:57:41.212538 57854 net.cpp:120] Top shape: 1 8 1024 (8192)
I0130 17:57:41.212551 57854 net.cpp:425] Sharing parameters 'W_hc' owned by layer 'lstm1_transform_1', param index 0
I0130 17:57:41.212558 57854 layer_factory.hpp:74] Creating layer lstm1_gate_input_11
I0130 17:57:41.212569 57854 net.cpp:84] Creating Layer lstm1_gate_input_11
I0130 17:57:41.212579 57854 net.cpp:381] lstm1_gate_input_11 <- W_hc_h_10
I0130 17:57:41.212589 57854 net.cpp:381] lstm1_gate_input_11 <- W_xc_x_11
I0130 17:57:41.212602 57854 net.cpp:339] lstm1_gate_input_11 -> gate_input_11
I0130 17:57:41.212616 57854 net.cpp:113] Setting up lstm1_gate_input_11
I0130 17:57:41.212630 57854 net.cpp:120] Top shape: 1 8 1024 (8192)
I0130 17:57:41.212638 57854 layer_factory.hpp:74] Creating layer lstm1_unit_11
I0130 17:57:41.212648 57854 net.cpp:84] Creating Layer lstm1_unit_11
I0130 17:57:41.212657 57854 net.cpp:381] lstm1_unit_11 <- c_10
I0130 17:57:41.212666 57854 net.cpp:381] lstm1_unit_11 <- gate_input_11
I0130 17:57:41.212678 57854 net.cpp:381] lstm1_unit_11 <- cont_11_lstm1_cont_slice_10_split_1
I0130 17:57:41.212697 57854 net.cpp:339] lstm1_unit_11 -> c_11
I0130 17:57:41.212713 57854 net.cpp:339] lstm1_unit_11 -> h_11
I0130 17:57:41.212724 57854 net.cpp:113] Setting up lstm1_unit_11
I0130 17:57:41.212736 57854 net.cpp:120] Top shape: 1 8 256 (2048)
I0130 17:57:41.212747 57854 net.cpp:120] Top shape: 1 8 256 (2048)
I0130 17:57:41.212754 57854 layer_factory.hpp:74] Creating layer h_11_lstm1_unit_11_1_split
I0130 17:57:41.212764 57854 net.cpp:84] Creating Layer h_11_lstm1_unit_11_1_split
I0130 17:57:41.212774 57854 net.cpp:381] h_11_lstm1_unit_11_1_split <- h_11
I0130 17:57:41.212785 57854 net.cpp:339] h_11_lstm1_unit_11_1_split -> h_11_lstm1_unit_11_1_split_0
I0130 17:57:41.212800 57854 net.cpp:339] h_11_lstm1_unit_11_1_split -> h_11_lstm1_unit_11_1_split_1
I0130 17:57:41.212815 57854 net.cpp:113] Setting up h_11_lstm1_unit_11_1_split
I0130 17:57:41.212827 57854 net.cpp:120] Top shape: 1 8 256 (2048)
I0130 17:57:41.212838 57854 net.cpp:120] Top shape: 1 8 256 (2048)
I0130 17:57:41.212844 57854 layer_factory.hpp:74] Creating layer lstm1_h_conted_11
I0130 17:57:41.212854 57854 net.cpp:84] Creating Layer lstm1_h_conted_11
I0130 17:57:41.212863 57854 net.cpp:381] lstm1_h_conted_11 <- h_11_lstm1_unit_11_1_split_0
I0130 17:57:41.212873 57854 net.cpp:381] lstm1_h_conted_11 <- cont_12_lstm1_cont_slice_11_split_0
I0130 17:57:41.212887 57854 net.cpp:339] lstm1_h_conted_11 -> h_conted_11
I0130 17:57:41.212899 57854 net.cpp:113] Setting up lstm1_h_conted_11
I0130 17:57:41.212913 57854 net.cpp:120] Top shape: 1 8 256 (2048)
I0130 17:57:41.212921 57854 layer_factory.hpp:74] Creating layer lstm1_transform_12
I0130 17:57:41.212934 57854 net.cpp:84] Creating Layer lstm1_transform_12
I0130 17:57:41.212940 57854 net.cpp:381] lstm1_transform_12 <- h_conted_11
I0130 17:57:41.212958 57854 net.cpp:339] lstm1_transform_12 -> W_hc_h_11
I0130 17:57:41.212970 57854 net.cpp:113] Setting up lstm1_transform_12
I0130 17:57:41.215638 57854 net.cpp:120] Top shape: 1 8 1024 (8192)
I0130 17:57:41.215652 57854 net.cpp:425] Sharing parameters 'W_hc' owned by layer 'lstm1_transform_1', param index 0
I0130 17:57:41.215659 57854 layer_factory.hpp:74] Creating layer lstm1_gate_input_12
I0130 17:57:41.215670 57854 net.cpp:84] Creating Layer lstm1_gate_input_12
I0130 17:57:41.215679 57854 net.cpp:381] lstm1_gate_input_12 <- W_hc_h_11
I0130 17:57:41.215689 57854 net.cpp:381] lstm1_gate_input_12 <- W_xc_x_12
I0130 17:57:41.215700 57854 net.cpp:339] lstm1_gate_input_12 -> gate_input_12
I0130 17:57:41.215713 57854 net.cpp:113] Setting up lstm1_gate_input_12
I0130 17:57:41.215726 57854 net.cpp:120] Top shape: 1 8 1024 (8192)
I0130 17:57:41.215735 57854 layer_factory.hpp:74] Creating layer lstm1_unit_12
I0130 17:57:41.215744 57854 net.cpp:84] Creating Layer lstm1_unit_12
I0130 17:57:41.215752 57854 net.cpp:381] lstm1_unit_12 <- c_11
I0130 17:57:41.215761 57854 net.cpp:381] lstm1_unit_12 <- gate_input_12
I0130 17:57:41.215771 57854 net.cpp:381] lstm1_unit_12 <- cont_12_lstm1_cont_slice_11_split_1
I0130 17:57:41.215782 57854 net.cpp:339] lstm1_unit_12 -> c_12
I0130 17:57:41.215796 57854 net.cpp:339] lstm1_unit_12 -> h_12
I0130 17:57:41.215811 57854 net.cpp:113] Setting up lstm1_unit_12
I0130 17:57:41.215824 57854 net.cpp:120] Top shape: 1 8 256 (2048)
I0130 17:57:41.215836 57854 net.cpp:120] Top shape: 1 8 256 (2048)
I0130 17:57:41.215842 57854 layer_factory.hpp:74] Creating layer h_12_lstm1_unit_12_1_split
I0130 17:57:41.215852 57854 net.cpp:84] Creating Layer h_12_lstm1_unit_12_1_split
I0130 17:57:41.215860 57854 net.cpp:381] h_12_lstm1_unit_12_1_split <- h_12
I0130 17:57:41.215872 57854 net.cpp:339] h_12_lstm1_unit_12_1_split -> h_12_lstm1_unit_12_1_split_0
I0130 17:57:41.215886 57854 net.cpp:339] h_12_lstm1_unit_12_1_split -> h_12_lstm1_unit_12_1_split_1
I0130 17:57:41.215900 57854 net.cpp:113] Setting up h_12_lstm1_unit_12_1_split
I0130 17:57:41.215912 57854 net.cpp:120] Top shape: 1 8 256 (2048)
I0130 17:57:41.215924 57854 net.cpp:120] Top shape: 1 8 256 (2048)
I0130 17:57:41.215932 57854 layer_factory.hpp:74] Creating layer lstm1_h_conted_12
I0130 17:57:41.215942 57854 net.cpp:84] Creating Layer lstm1_h_conted_12
I0130 17:57:41.215952 57854 net.cpp:381] lstm1_h_conted_12 <- h_12_lstm1_unit_12_1_split_0
I0130 17:57:41.215961 57854 net.cpp:381] lstm1_h_conted_12 <- cont_13_lstm1_cont_slice_12_split_0
I0130 17:57:41.215975 57854 net.cpp:339] lstm1_h_conted_12 -> h_conted_12
I0130 17:57:41.215988 57854 net.cpp:113] Setting up lstm1_h_conted_12
I0130 17:57:41.216001 57854 net.cpp:120] Top shape: 1 8 256 (2048)
I0130 17:57:41.216009 57854 layer_factory.hpp:74] Creating layer lstm1_transform_13
I0130 17:57:41.216020 57854 net.cpp:84] Creating Layer lstm1_transform_13
I0130 17:57:41.216029 57854 net.cpp:381] lstm1_transform_13 <- h_conted_12
I0130 17:57:41.216042 57854 net.cpp:339] lstm1_transform_13 -> W_hc_h_12
I0130 17:57:41.216053 57854 net.cpp:113] Setting up lstm1_transform_13
I0130 17:57:41.218734 57854 net.cpp:120] Top shape: 1 8 1024 (8192)
I0130 17:57:41.218749 57854 net.cpp:425] Sharing parameters 'W_hc' owned by layer 'lstm1_transform_1', param index 0
I0130 17:57:41.218755 57854 layer_factory.hpp:74] Creating layer lstm1_gate_input_13
I0130 17:57:41.218772 57854 net.cpp:84] Creating Layer lstm1_gate_input_13
I0130 17:57:41.218782 57854 net.cpp:381] lstm1_gate_input_13 <- W_hc_h_12
I0130 17:57:41.218792 57854 net.cpp:381] lstm1_gate_input_13 <- W_xc_x_13
I0130 17:57:41.218806 57854 net.cpp:339] lstm1_gate_input_13 -> gate_input_13
I0130 17:57:41.218817 57854 net.cpp:113] Setting up lstm1_gate_input_13
I0130 17:57:41.218829 57854 net.cpp:120] Top shape: 1 8 1024 (8192)
I0130 17:57:41.218837 57854 layer_factory.hpp:74] Creating layer lstm1_unit_13
I0130 17:57:41.218847 57854 net.cpp:84] Creating Layer lstm1_unit_13
I0130 17:57:41.218855 57854 net.cpp:381] lstm1_unit_13 <- c_12
I0130 17:57:41.218864 57854 net.cpp:381] lstm1_unit_13 <- gate_input_13
I0130 17:57:41.218876 57854 net.cpp:381] lstm1_unit_13 <- cont_13_lstm1_cont_slice_12_split_1
I0130 17:57:41.218888 57854 net.cpp:339] lstm1_unit_13 -> c_13
I0130 17:57:41.218904 57854 net.cpp:339] lstm1_unit_13 -> h_13
I0130 17:57:41.218916 57854 net.cpp:113] Setting up lstm1_unit_13
I0130 17:57:41.218930 57854 net.cpp:120] Top shape: 1 8 256 (2048)
I0130 17:57:41.218941 57854 net.cpp:120] Top shape: 1 8 256 (2048)
I0130 17:57:41.218948 57854 layer_factory.hpp:74] Creating layer h_13_lstm1_unit_13_1_split
I0130 17:57:41.218966 57854 net.cpp:84] Creating Layer h_13_lstm1_unit_13_1_split
I0130 17:57:41.218974 57854 net.cpp:381] h_13_lstm1_unit_13_1_split <- h_13
I0130 17:57:41.218986 57854 net.cpp:339] h_13_lstm1_unit_13_1_split -> h_13_lstm1_unit_13_1_split_0
I0130 17:57:41.219002 57854 net.cpp:339] h_13_lstm1_unit_13_1_split -> h_13_lstm1_unit_13_1_split_1
I0130 17:57:41.219015 57854 net.cpp:113] Setting up h_13_lstm1_unit_13_1_split
I0130 17:57:41.219028 57854 net.cpp:120] Top shape: 1 8 256 (2048)
I0130 17:57:41.219039 57854 net.cpp:120] Top shape: 1 8 256 (2048)
I0130 17:57:41.219046 57854 layer_factory.hpp:74] Creating layer lstm1_h_conted_13
I0130 17:57:41.219056 57854 net.cpp:84] Creating Layer lstm1_h_conted_13
I0130 17:57:41.219065 57854 net.cpp:381] lstm1_h_conted_13 <- h_13_lstm1_unit_13_1_split_0
I0130 17:57:41.219074 57854 net.cpp:381] lstm1_h_conted_13 <- cont_14_lstm1_cont_slice_13_split_0
I0130 17:57:41.219091 57854 net.cpp:339] lstm1_h_conted_13 -> h_conted_13
I0130 17:57:41.219102 57854 net.cpp:113] Setting up lstm1_h_conted_13
I0130 17:57:41.219115 57854 net.cpp:120] Top shape: 1 8 256 (2048)
I0130 17:57:41.219125 57854 layer_factory.hpp:74] Creating layer lstm1_transform_14
I0130 17:57:41.219135 57854 net.cpp:84] Creating Layer lstm1_transform_14
I0130 17:57:41.219144 57854 net.cpp:381] lstm1_transform_14 <- h_conted_13
I0130 17:57:41.219156 57854 net.cpp:339] lstm1_transform_14 -> W_hc_h_13
I0130 17:57:41.219168 57854 net.cpp:113] Setting up lstm1_transform_14
I0130 17:57:41.222002 57854 net.cpp:120] Top shape: 1 8 1024 (8192)
I0130 17:57:41.222017 57854 net.cpp:425] Sharing parameters 'W_hc' owned by layer 'lstm1_transform_1', param index 0
I0130 17:57:41.222023 57854 layer_factory.hpp:74] Creating layer lstm1_gate_input_14
I0130 17:57:41.222040 57854 net.cpp:84] Creating Layer lstm1_gate_input_14
I0130 17:57:41.222051 57854 net.cpp:381] lstm1_gate_input_14 <- W_hc_h_13
I0130 17:57:41.222060 57854 net.cpp:381] lstm1_gate_input_14 <- W_xc_x_14
I0130 17:57:41.222072 57854 net.cpp:339] lstm1_gate_input_14 -> gate_input_14
I0130 17:57:41.222087 57854 net.cpp:113] Setting up lstm1_gate_input_14
I0130 17:57:41.222102 57854 net.cpp:120] Top shape: 1 8 1024 (8192)
I0130 17:57:41.222111 57854 layer_factory.hpp:74] Creating layer lstm1_unit_14
I0130 17:57:41.222121 57854 net.cpp:84] Creating Layer lstm1_unit_14
I0130 17:57:41.222132 57854 net.cpp:381] lstm1_unit_14 <- c_13
I0130 17:57:41.222142 57854 net.cpp:381] lstm1_unit_14 <- gate_input_14
I0130 17:57:41.222153 57854 net.cpp:381] lstm1_unit_14 <- cont_14_lstm1_cont_slice_13_split_1
I0130 17:57:41.222165 57854 net.cpp:339] lstm1_unit_14 -> c_14
I0130 17:57:41.222182 57854 net.cpp:339] lstm1_unit_14 -> h_14
I0130 17:57:41.222195 57854 net.cpp:113] Setting up lstm1_unit_14
I0130 17:57:41.222210 57854 net.cpp:120] Top shape: 1 8 256 (2048)
I0130 17:57:41.222223 57854 net.cpp:120] Top shape: 1 8 256 (2048)
I0130 17:57:41.222229 57854 layer_factory.hpp:74] Creating layer h_14_lstm1_unit_14_1_split
I0130 17:57:41.222245 57854 net.cpp:84] Creating Layer h_14_lstm1_unit_14_1_split
I0130 17:57:41.222254 57854 net.cpp:381] h_14_lstm1_unit_14_1_split <- h_14
I0130 17:57:41.222266 57854 net.cpp:339] h_14_lstm1_unit_14_1_split -> h_14_lstm1_unit_14_1_split_0
I0130 17:57:41.222282 57854 net.cpp:339] h_14_lstm1_unit_14_1_split -> h_14_lstm1_unit_14_1_split_1
I0130 17:57:41.222296 57854 net.cpp:113] Setting up h_14_lstm1_unit_14_1_split
I0130 17:57:41.222308 57854 net.cpp:120] Top shape: 1 8 256 (2048)
I0130 17:57:41.222317 57854 net.cpp:120] Top shape: 1 8 256 (2048)
I0130 17:57:41.222324 57854 layer_factory.hpp:74] Creating layer lstm1_h_conted_14
I0130 17:57:41.222335 57854 net.cpp:84] Creating Layer lstm1_h_conted_14
I0130 17:57:41.222345 57854 net.cpp:381] lstm1_h_conted_14 <- h_14_lstm1_unit_14_1_split_0
I0130 17:57:41.222355 57854 net.cpp:381] lstm1_h_conted_14 <- cont_15_lstm1_cont_slice_14_split_0
I0130 17:57:41.222370 57854 net.cpp:339] lstm1_h_conted_14 -> h_conted_14
I0130 17:57:41.222389 57854 net.cpp:113] Setting up lstm1_h_conted_14
I0130 17:57:41.222403 57854 net.cpp:120] Top shape: 1 8 256 (2048)
I0130 17:57:41.222411 57854 layer_factory.hpp:74] Creating layer lstm1_transform_15
I0130 17:57:41.222424 57854 net.cpp:84] Creating Layer lstm1_transform_15
I0130 17:57:41.222434 57854 net.cpp:381] lstm1_transform_15 <- h_conted_14
I0130 17:57:41.222447 57854 net.cpp:339] lstm1_transform_15 -> W_hc_h_14
I0130 17:57:41.222461 57854 net.cpp:113] Setting up lstm1_transform_15
I0130 17:57:41.225304 57854 net.cpp:120] Top shape: 1 8 1024 (8192)
I0130 17:57:41.225330 57854 net.cpp:425] Sharing parameters 'W_hc' owned by layer 'lstm1_transform_1', param index 0
I0130 17:57:41.225342 57854 layer_factory.hpp:74] Creating layer lstm1_gate_input_15
I0130 17:57:41.225353 57854 net.cpp:84] Creating Layer lstm1_gate_input_15
I0130 17:57:41.225363 57854 net.cpp:381] lstm1_gate_input_15 <- W_hc_h_14
I0130 17:57:41.225373 57854 net.cpp:381] lstm1_gate_input_15 <- W_xc_x_15
I0130 17:57:41.225389 57854 net.cpp:339] lstm1_gate_input_15 -> gate_input_15
I0130 17:57:41.225402 57854 net.cpp:113] Setting up lstm1_gate_input_15
I0130 17:57:41.225417 57854 net.cpp:120] Top shape: 1 8 1024 (8192)
I0130 17:57:41.225426 57854 layer_factory.hpp:74] Creating layer lstm1_unit_15
I0130 17:57:41.225436 57854 net.cpp:84] Creating Layer lstm1_unit_15
I0130 17:57:41.225445 57854 net.cpp:381] lstm1_unit_15 <- c_14
I0130 17:57:41.225453 57854 net.cpp:381] lstm1_unit_15 <- gate_input_15
I0130 17:57:41.225466 57854 net.cpp:381] lstm1_unit_15 <- cont_15_lstm1_cont_slice_14_split_1
I0130 17:57:41.225477 57854 net.cpp:339] lstm1_unit_15 -> c_15
I0130 17:57:41.225492 57854 net.cpp:339] lstm1_unit_15 -> h_15
I0130 17:57:41.225507 57854 net.cpp:113] Setting up lstm1_unit_15
I0130 17:57:41.225522 57854 net.cpp:120] Top shape: 1 8 256 (2048)
I0130 17:57:41.225533 57854 net.cpp:120] Top shape: 1 8 256 (2048)
I0130 17:57:41.225539 57854 layer_factory.hpp:74] Creating layer h_15_lstm1_unit_15_1_split
I0130 17:57:41.225555 57854 net.cpp:84] Creating Layer h_15_lstm1_unit_15_1_split
I0130 17:57:41.225564 57854 net.cpp:381] h_15_lstm1_unit_15_1_split <- h_15
I0130 17:57:41.225576 57854 net.cpp:339] h_15_lstm1_unit_15_1_split -> h_15_lstm1_unit_15_1_split_0
I0130 17:57:41.225592 57854 net.cpp:339] h_15_lstm1_unit_15_1_split -> h_15_lstm1_unit_15_1_split_1
I0130 17:57:41.225606 57854 net.cpp:113] Setting up h_15_lstm1_unit_15_1_split
I0130 17:57:41.225617 57854 net.cpp:120] Top shape: 1 8 256 (2048)
I0130 17:57:41.225626 57854 net.cpp:120] Top shape: 1 8 256 (2048)
I0130 17:57:41.225633 57854 layer_factory.hpp:74] Creating layer lstm1_h_conted_15
I0130 17:57:41.225651 57854 net.cpp:84] Creating Layer lstm1_h_conted_15
I0130 17:57:41.225661 57854 net.cpp:381] lstm1_h_conted_15 <- h_15_lstm1_unit_15_1_split_0
I0130 17:57:41.225670 57854 net.cpp:381] lstm1_h_conted_15 <- cont_16_lstm1_cont_slice_15_split_0
I0130 17:57:41.225682 57854 net.cpp:339] lstm1_h_conted_15 -> h_conted_15
I0130 17:57:41.225695 57854 net.cpp:113] Setting up lstm1_h_conted_15
I0130 17:57:41.225709 57854 net.cpp:120] Top shape: 1 8 256 (2048)
I0130 17:57:41.225718 57854 layer_factory.hpp:74] Creating layer lstm1_transform_16
I0130 17:57:41.225731 57854 net.cpp:84] Creating Layer lstm1_transform_16
I0130 17:57:41.225740 57854 net.cpp:381] lstm1_transform_16 <- h_conted_15
I0130 17:57:41.225752 57854 net.cpp:339] lstm1_transform_16 -> W_hc_h_15
I0130 17:57:41.225767 57854 net.cpp:113] Setting up lstm1_transform_16
I0130 17:57:41.228600 57854 net.cpp:120] Top shape: 1 8 1024 (8192)
I0130 17:57:41.228615 57854 net.cpp:425] Sharing parameters 'W_hc' owned by layer 'lstm1_transform_1', param index 0
I0130 17:57:41.228622 57854 layer_factory.hpp:74] Creating layer lstm1_gate_input_16
I0130 17:57:41.228639 57854 net.cpp:84] Creating Layer lstm1_gate_input_16
I0130 17:57:41.228649 57854 net.cpp:381] lstm1_gate_input_16 <- W_hc_h_15
I0130 17:57:41.228659 57854 net.cpp:381] lstm1_gate_input_16 <- W_xc_x_16
I0130 17:57:41.228672 57854 net.cpp:339] lstm1_gate_input_16 -> gate_input_16
I0130 17:57:41.228684 57854 net.cpp:113] Setting up lstm1_gate_input_16
I0130 17:57:41.228708 57854 net.cpp:120] Top shape: 1 8 1024 (8192)
I0130 17:57:41.228718 57854 layer_factory.hpp:74] Creating layer lstm1_unit_16
I0130 17:57:41.228729 57854 net.cpp:84] Creating Layer lstm1_unit_16
I0130 17:57:41.228737 57854 net.cpp:381] lstm1_unit_16 <- c_15
I0130 17:57:41.228747 57854 net.cpp:381] lstm1_unit_16 <- gate_input_16
I0130 17:57:41.228756 57854 net.cpp:381] lstm1_unit_16 <- cont_16_lstm1_cont_slice_15_split_1
I0130 17:57:41.228770 57854 net.cpp:339] lstm1_unit_16 -> c_16
I0130 17:57:41.228786 57854 net.cpp:339] lstm1_unit_16 -> h_16
I0130 17:57:41.228799 57854 net.cpp:113] Setting up lstm1_unit_16
I0130 17:57:41.228814 57854 net.cpp:120] Top shape: 1 8 256 (2048)
I0130 17:57:41.228826 57854 net.cpp:120] Top shape: 1 8 256 (2048)
I0130 17:57:41.228833 57854 layer_factory.hpp:74] Creating layer h_16_lstm1_unit_16_1_split
I0130 17:57:41.228849 57854 net.cpp:84] Creating Layer h_16_lstm1_unit_16_1_split
I0130 17:57:41.228859 57854 net.cpp:381] h_16_lstm1_unit_16_1_split <- h_16
I0130 17:57:41.228870 57854 net.cpp:339] h_16_lstm1_unit_16_1_split -> h_16_lstm1_unit_16_1_split_0
I0130 17:57:41.228886 57854 net.cpp:339] h_16_lstm1_unit_16_1_split -> h_16_lstm1_unit_16_1_split_1
I0130 17:57:41.228901 57854 net.cpp:113] Setting up h_16_lstm1_unit_16_1_split
I0130 17:57:41.228915 57854 net.cpp:120] Top shape: 1 8 256 (2048)
I0130 17:57:41.228927 57854 net.cpp:120] Top shape: 1 8 256 (2048)
I0130 17:57:41.228935 57854 layer_factory.hpp:74] Creating layer lstm1_h_conted_16
I0130 17:57:41.228945 57854 net.cpp:84] Creating Layer lstm1_h_conted_16
I0130 17:57:41.228955 57854 net.cpp:381] lstm1_h_conted_16 <- h_16_lstm1_unit_16_1_split_0
I0130 17:57:41.228965 57854 net.cpp:381] lstm1_h_conted_16 <- cont_17_lstm1_cont_slice_16_split_0
I0130 17:57:41.228983 57854 net.cpp:339] lstm1_h_conted_16 -> h_conted_16
I0130 17:57:41.228996 57854 net.cpp:113] Setting up lstm1_h_conted_16
I0130 17:57:41.229010 57854 net.cpp:120] Top shape: 1 8 256 (2048)
I0130 17:57:41.229019 57854 layer_factory.hpp:74] Creating layer lstm1_transform_17
I0130 17:57:41.229032 57854 net.cpp:84] Creating Layer lstm1_transform_17
I0130 17:57:41.229040 57854 net.cpp:381] lstm1_transform_17 <- h_conted_16
I0130 17:57:41.229053 57854 net.cpp:339] lstm1_transform_17 -> W_hc_h_16
I0130 17:57:41.229068 57854 net.cpp:113] Setting up lstm1_transform_17
I0130 17:57:41.231904 57854 net.cpp:120] Top shape: 1 8 1024 (8192)
I0130 17:57:41.231919 57854 net.cpp:425] Sharing parameters 'W_hc' owned by layer 'lstm1_transform_1', param index 0
I0130 17:57:41.231925 57854 layer_factory.hpp:74] Creating layer lstm1_gate_input_17
I0130 17:57:41.231942 57854 net.cpp:84] Creating Layer lstm1_gate_input_17
I0130 17:57:41.231952 57854 net.cpp:381] lstm1_gate_input_17 <- W_hc_h_16
I0130 17:57:41.231962 57854 net.cpp:381] lstm1_gate_input_17 <- W_xc_x_17
I0130 17:57:41.231973 57854 net.cpp:339] lstm1_gate_input_17 -> gate_input_17
I0130 17:57:41.231988 57854 net.cpp:113] Setting up lstm1_gate_input_17
I0130 17:57:41.232002 57854 net.cpp:120] Top shape: 1 8 1024 (8192)
I0130 17:57:41.232012 57854 layer_factory.hpp:74] Creating layer lstm1_unit_17
I0130 17:57:41.232022 57854 net.cpp:84] Creating Layer lstm1_unit_17
I0130 17:57:41.232029 57854 net.cpp:381] lstm1_unit_17 <- c_16
I0130 17:57:41.232038 57854 net.cpp:381] lstm1_unit_17 <- gate_input_17
I0130 17:57:41.232049 57854 net.cpp:381] lstm1_unit_17 <- cont_17_lstm1_cont_slice_16_split_1
I0130 17:57:41.232061 57854 net.cpp:339] lstm1_unit_17 -> c_17
I0130 17:57:41.232074 57854 net.cpp:339] lstm1_unit_17 -> h_17
I0130 17:57:41.232087 57854 net.cpp:113] Setting up lstm1_unit_17
I0130 17:57:41.232103 57854 net.cpp:120] Top shape: 1 8 256 (2048)
I0130 17:57:41.232115 57854 net.cpp:120] Top shape: 1 8 256 (2048)
I0130 17:57:41.232121 57854 layer_factory.hpp:74] Creating layer h_17_lstm1_unit_17_1_split
I0130 17:57:41.232137 57854 net.cpp:84] Creating Layer h_17_lstm1_unit_17_1_split
I0130 17:57:41.232146 57854 net.cpp:381] h_17_lstm1_unit_17_1_split <- h_17
I0130 17:57:41.232157 57854 net.cpp:339] h_17_lstm1_unit_17_1_split -> h_17_lstm1_unit_17_1_split_0
I0130 17:57:41.232174 57854 net.cpp:339] h_17_lstm1_unit_17_1_split -> h_17_lstm1_unit_17_1_split_1
I0130 17:57:41.232188 57854 net.cpp:113] Setting up h_17_lstm1_unit_17_1_split
I0130 17:57:41.232203 57854 net.cpp:120] Top shape: 1 8 256 (2048)
I0130 17:57:41.232213 57854 net.cpp:120] Top shape: 1 8 256 (2048)
I0130 17:57:41.232220 57854 layer_factory.hpp:74] Creating layer lstm1_h_conted_17
I0130 17:57:41.232230 57854 net.cpp:84] Creating Layer lstm1_h_conted_17
I0130 17:57:41.232241 57854 net.cpp:381] lstm1_h_conted_17 <- h_17_lstm1_unit_17_1_split_0
I0130 17:57:41.232251 57854 net.cpp:381] lstm1_h_conted_17 <- cont_18_lstm1_cont_slice_17_split_0
I0130 17:57:41.232270 57854 net.cpp:339] lstm1_h_conted_17 -> h_conted_17
I0130 17:57:41.232283 57854 net.cpp:113] Setting up lstm1_h_conted_17
I0130 17:57:41.232297 57854 net.cpp:120] Top shape: 1 8 256 (2048)
I0130 17:57:41.232306 57854 layer_factory.hpp:74] Creating layer lstm1_transform_18
I0130 17:57:41.232318 57854 net.cpp:84] Creating Layer lstm1_transform_18
I0130 17:57:41.232328 57854 net.cpp:381] lstm1_transform_18 <- h_conted_17
I0130 17:57:41.232340 57854 net.cpp:339] lstm1_transform_18 -> W_hc_h_17
I0130 17:57:41.232354 57854 net.cpp:113] Setting up lstm1_transform_18
I0130 17:57:41.235198 57854 net.cpp:120] Top shape: 1 8 1024 (8192)
I0130 17:57:41.235214 57854 net.cpp:425] Sharing parameters 'W_hc' owned by layer 'lstm1_transform_1', param index 0
I0130 17:57:41.235221 57854 layer_factory.hpp:74] Creating layer lstm1_gate_input_18
I0130 17:57:41.235241 57854 net.cpp:84] Creating Layer lstm1_gate_input_18
I0130 17:57:41.235250 57854 net.cpp:381] lstm1_gate_input_18 <- W_hc_h_17
I0130 17:57:41.235260 57854 net.cpp:381] lstm1_gate_input_18 <- W_xc_x_18
I0130 17:57:41.235273 57854 net.cpp:339] lstm1_gate_input_18 -> gate_input_18
I0130 17:57:41.235287 57854 net.cpp:113] Setting up lstm1_gate_input_18
I0130 17:57:41.235301 57854 net.cpp:120] Top shape: 1 8 1024 (8192)
I0130 17:57:41.235311 57854 layer_factory.hpp:74] Creating layer lstm1_unit_18
I0130 17:57:41.235321 57854 net.cpp:84] Creating Layer lstm1_unit_18
I0130 17:57:41.235332 57854 net.cpp:381] lstm1_unit_18 <- c_17
I0130 17:57:41.235340 57854 net.cpp:381] lstm1_unit_18 <- gate_input_18
I0130 17:57:41.235349 57854 net.cpp:381] lstm1_unit_18 <- cont_18_lstm1_cont_slice_17_split_1
I0130 17:57:41.235363 57854 net.cpp:339] lstm1_unit_18 -> c_18
I0130 17:57:41.235379 57854 net.cpp:339] lstm1_unit_18 -> h_18
I0130 17:57:41.235393 57854 net.cpp:113] Setting up lstm1_unit_18
I0130 17:57:41.235407 57854 net.cpp:120] Top shape: 1 8 256 (2048)
I0130 17:57:41.235419 57854 net.cpp:120] Top shape: 1 8 256 (2048)
I0130 17:57:41.235426 57854 layer_factory.hpp:74] Creating layer lstm1_
I0130 17:57:41.235436 57854 net.cpp:84] Creating Layer lstm1_
I0130 17:57:41.235446 57854 net.cpp:381] lstm1_ <- c_18
I0130 17:57:41.235463 57854 net.cpp:339] lstm1_ -> c_T
I0130 17:57:41.235476 57854 net.cpp:113] Setting up lstm1_
I0130 17:57:41.235488 57854 net.cpp:120] Top shape: 1 8 256 (2048)
I0130 17:57:41.235498 57854 layer_factory.hpp:74] Creating layer lstm1_h_concat
I0130 17:57:41.235513 57854 net.cpp:84] Creating Layer lstm1_h_concat
I0130 17:57:41.235523 57854 net.cpp:381] lstm1_h_concat <- h_1_lstm1_unit_1_1_split_1
I0130 17:57:41.235533 57854 net.cpp:381] lstm1_h_concat <- h_2_lstm1_unit_2_1_split_1
I0130 17:57:41.235546 57854 net.cpp:381] lstm1_h_concat <- h_3_lstm1_unit_3_1_split_1
…
I0130 17:57:41.236461 57854 net.cpp:205] This network produces output c_T
I0130 17:57:41.236471 57854 net.cpp:205] This network produces output h
I0130 17:57:41.236657 57854 net.cpp:446] Collecting Learning Rate and Weight Decay.
I0130 17:57:41.237964 57854 net.cpp:218] Network initialization done.
I0130 17:57:41.237990 57854 net.cpp:219] Memory required for data: 3237568
I0130 17:57:41.238272 57854 recurrent_layer.cpp:135] Adding parameter 0: W_xc
I0130 17:57:41.238286 57854 recurrent_layer.cpp:135] Adding parameter 1: b_c
I0130 17:57:41.238293 57854 recurrent_layer.cpp:135] Adding parameter 2: W_hc
I0130 17:57:41.238406 57854 net.cpp:120] Top shape: 18 8 256 (36864)
I0130 17:57:41.238433 57854 layer_factory.hpp:74] Creating layer lstm1-drop
I0130 17:57:41.238450 57854 net.cpp:84] Creating Layer lstm1-drop
I0130 17:57:41.238459 57854 net.cpp:381] lstm1-drop <- lstm1
I0130 17:57:41.238473 57854 net.cpp:339] lstm1-drop -> lstm1-drop
I0130 17:57:41.238488 57854 net.cpp:113] Setting up lstm1-drop
I0130 17:57:41.238507 57854 net.cpp:120] Top shape: 18 8 256 (36864)
I0130 17:57:41.238517 57854 layer_factory.hpp:74] Creating layer fc8-final
I0130 17:57:41.238530 57854 net.cpp:84] Creating Layer fc8-final
I0130 17:57:41.238540 57854 net.cpp:381] fc8-final <- lstm1-drop
I0130 17:57:41.238554 57854 net.cpp:339] fc8-final -> fc8-final
I0130 17:57:41.238569 57854 net.cpp:113] Setting up fc8-final
I0130 17:57:41.238612 57854 net.cpp:120] Top shape: 18 8 3 (432)
I0130 17:57:41.238627 57854 layer_factory.hpp:74] Creating layer fc8-final_fc8-final_0_split
I0130 17:57:41.238642 57854 net.cpp:84] Creating Layer fc8-final_fc8-final_0_split
I0130 17:57:41.238652 57854 net.cpp:381] fc8-final_fc8-final_0_split <- fc8-final
I0130 17:57:41.238664 57854 net.cpp:339] fc8-final_fc8-final_0_split -> fc8-final_fc8-final_0_split_0
I0130 17:57:41.238682 57854 net.cpp:339] fc8-final_fc8-final_0_split -> fc8-final_fc8-final_0_split_1
I0130 17:57:41.238698 57854 net.cpp:113] Setting up fc8-final_fc8-final_0_split
I0130 17:57:41.238711 57854 net.cpp:120] Top shape: 18 8 3 (432)
I0130 17:57:41.238723 57854 net.cpp:120] Top shape: 18 8 3 (432)
I0130 17:57:41.238731 57854 layer_factory.hpp:74] Creating layer loss
I0130 17:57:41.238745 57854 net.cpp:84] Creating Layer loss
I0130 17:57:41.238754 57854 net.cpp:381] loss <- fc8-final_fc8-final_0_split_0
I0130 17:57:41.238764 57854 net.cpp:381] loss <- reshape-label_reshape-label_0_split_0
I0130 17:57:41.238775 57854 net.cpp:339] loss -> loss
I0130 17:57:41.238793 57854 net.cpp:113] Setting up loss
…
